PythonCodes/Training-Testing/Models/TrainedModels/CNNModel.pth (torch, 49875 bytes, 10 tensors)

weight f4 [10, 3, 3, 3]
0	0x3d9f6be2	0.07784249
1	0xbe3fbc16	-0.18724093
2	0xbd1afbb6	-0.037837707
3	0x3d0d1752	0.034446068
4	0x3e1f168a	0.15535942
5	0xbdfeb0d7	-0.12436073
6	0xbd966ad0	-0.073445916
7	0xbdae1232	-0.08499564
8	0xbdcc828b	-0.099858366
9	0xbd87c719	-0.06629772
10	0xbd8ce332	-0.068792716
11	0x3d6aaa8c	0.057291552
12	0xbcf3e15f	-0.029770551
13	0xbd930634	-0.071789175
14	0x3dc20ca2	0.09475066
15	0x3e1ebd14	0.15501815
16	0xbdaca3e4	-0.08429697
17	0xbd0e3c09	-0.034725223
18	0xbdca0ee7	-0.09866124
19	0xbd880989	-0.06642444
20	0xbe494926	-0.1965681
21	0x3b208fdb	0.0024499807
22	0xbe18ff70	-0.14941192
23	0xbd2606cf	-0.040533837
24	0xbe423ebe	-0.18969247
25	0xbe2bc15a	-0.16772977
26	0x3dd7c73f	0.1053605
27	0xbf983f8f	-1.1894397
28	0xbe9951d0	-0.2994523
29	0x3e1acaf6	0.15116486
30	0xbf8ab61a	-1.0836823
31	0xbee8a815	-0.45440736
32	0x3dbaff37	0.091307096
33	0xbe6e805d	-0.23291154
34	0x3d0330bd	0.032028902
35	0x3e3f3338	0.18671882
36	0xbf9b42e7	-1.2129792
37	0xbcf54de7	-0.029944373
38	0xbc3df041	-0.0115929255
39	0xbfa645a4	-1.2990003
40	0xbf1a68c0	-0.60316086
41	0xbda442ff	-0.08020591
42	0xbea9f0a6	-0.33191413
43	0x3e2ce7a5	0.1688524
44	0x3e1e1964	0.15439373
45	0xbf8cdfdd	-1.1005818
46	0x3c7cdb86	0.015433198
47	0xbdc7686c	-0.09736714
48	0xbf7e220a	-0.9927069
49	0xbefe4f05	-0.49669662
50	0xbe2394bf	-0.15974711
51	0xbeb2df68	-0.3493607
52	0x3d862811	0.06550611
53	0x3e708347	0.23487578
54	0xbf0bb92f	-0.5457944
55	0x3f023211	0.50857645
56	0xbc850c7f	-0.01624131
57	0xbee09f34	-0.43871462
58	0x3f08e1da	0.5346962
59	0xbe839368	-0.256984
60	0xbe8f3514	-0.27970183
61	0x3e48db5b	0.19614927
62	0x3e8340d5	0.256354
63	0xbe9c82b3	-0.30568466
64	0x3eef613a	0.46753865
65	0x3cc960fd	0.02458238
66	0xbf099874	-0.5374825
67	0x3e8cd9a7	0.27509806
68	0x3d77d956	0.060510002
69	0xbe1bc47a	-0.15211669
70	0x3e31725b	0.1732878
71	0x3e73ffcb	0.23828046
72	0xbebc8a88	-0.3682444
73	0x3e50f93d	0.20407577
74	0x3e0db8ee	0.13840076
75	0xbf2b9d92	-0.6703731
76	0x3ef82f38	0.48473525
77	0x3c236e6e	0.009975059
78	0xbded3648	-0.11582619
79	0x3eb159bd	0.34638777
80	0x3d98bccb	0.074578844
81	0xbe7cef78	-0.24700725
82	0xbcb7afc1	-0.022422673
83	0x3ba92598	0.005161952
84	0xbf25206d	-0.645026
85	0xbe2cc64b	-0.16872518
86	0x3de3546d	0.11100087
87	0x3e269b91	0.16270281
88	0x3e606ca8	0.21916449
89	0xbd6b7fdf	-0.057494994
90	0xbe9d5627	-0.30729792
91	0x3decddab	0.11565717
92	0xbe73dbdc	-0.23814338
93	0xbf2b35c1	-0.66878897
94	0xbec3eb39	-0.38265398
95	0x3d6f0fc5	0.05836465
96	0x3cd0546f	0.025430886
97	0xbb86edb2	-0.004117691
98	0xbda59420	-0.08084893
99	0xbe9983cf	-0.29983374
100	0x3dd693fa	0.10477443
101	0x3d0f9107	0.03505042
102	0xbf20cb27	-0.62809986
103	0xbe33e3f1	-0.17567421
104	0xbe22ee07	-0.15911113
105	0x3e0406ff	0.12893294
106	0x3e7c4697	0.24636303
107	0xbe8ece90	-0.2789197
108	0xbd738b27	-0.059458878
109	0x3d1abc42	0.037777193
110	0x3e0a63e8	0.13514674
111	0x3d143809	0.03618625
112	0x3da123cf	0.07868158
113	0x3d228089	0.039673362
114	0x3e41f98c	0.18942851
115	0xbe25ee79	-0.16204251
116	0xbe170666	-0.14748535
117	0x3e081c7d	0.13292117
118	0xbc9f89d7	-0.019474907
119	0xbd8102e4	-0.062993795
120	0x3c0d9942	0.008642497
121	0x3caa820c	0.020813964
122	0x3cbce64f	0.023059038
123	0xbd88565d	-0.066570975
124	0x3d039933	0.032128524
125	0x3da0aa27	0.07844954
126	0xbe2a2995	-0.16617425
127	0xbdef35d9	-0.116801925
128	0x3d5d3ad8	0.054011196
129	0x3cb0c9f1	0.021580668
130	0xbe28d0e4	-0.16485935
131	0xbc979f70	-0.018508643
132	0x3c48c0d3	0.012253004
133	0xbdf5532e	-0.11978756
134	0xbdba19a3	-0.09086921
135	0xbebdcf68	-0.370723
136	0xbe3f71b2	-0.18695715
137	0x3e1d081e	0.15335128
138	0xbd20a1bd	-0.039216746
139	0x3c4e50c1	0.012592495
140	0xbbc3bf15	-0.0059737065
141	0x3ed205f7	0.41020176
142	0x3e48cbdc	0.19609016
143	0x3e3c2ab8	0.18375671
144	0xbefb1033	-0.49035797
145	0xbecfb865	-0.4057037
146	0x3e09fe11	0.13475825
147	0xbd95d442	-0.073158756
148	0x3e9336d1	0.2875276
149	0xbde2b42f	-0.110695235
150	0x3e4c07bc	0.19924825
151	0xbc5d32da	-0.0135008935
152	0x3e35ae93	0.17742376
153	0xbf118f91	-0.5685969
154	0xbf05403a	-0.52051127
155	0x3e9362a1	0.28786185
156	0xbe90887b	-0.28229126
157	0x3e134ff7	0.14385973
158	0x3dde04e1	0.10840774
159	0x3ed7e29a	0.4216507
160	0x3da85206	0.0821877
161	0xbc6154a7	-0.013753093
162	0x3e86c545	0.2632238
163	0x3e34d9e8	0.1766125
164	0xbd6d36b9	-0.057913516
165	0xbd99945b	-0.07499
166	0x3beaf9cd	0.007170892
167	0xbdddb27a	-0.10825057
168	0x3c88025e	0.016602691
169	0xbe54b7c1	-0.20773222
170	0x3e42a7f8	0.19009387
171	0xbc884cab	-0.01663812
172	0x3e6cb569	0.23116077
173	0x3da69dcb	0.08135565
174	0xbbcac5c9	-0.0061881286
175	0x3e79a550	0.24379468
176	0xbd21feb9	-0.039549563
177	0x3e49835d	0.19679017
178	0x3cc72ca7	0.024313284
179	0xbd3e5ae1	-0.046473388
180	0x3e8caf94	0.27477705
181	0xbca95146	-0.020668637
182	0x3e1423ac	0.14466733
183	0xbdc5654d	-0.09638462
184	0xbd36b29f	-0.04460394
185	0xbdd8be71	-0.10583199
186	0x3e007d11	0.12547709
187	0x3d22c1bd	0.039735544
188	0x3cf19317	0.029489083
189	0xbe53a5a1	-0.20668651
190	0x3e5f5fc0	0.2181387
191	0x3e859fdd	0.26098529
192	0x3d616ded	0.055036474
193	0x3e21f3ce	0.1581566
194	0xbe761f45	-0.24035366
195	0xbcefe073	-0.02928183
196	0x3df82bff	0.121177666
197	0xbe2590e6	-0.16168556
198	0xbd6de874	-0.058083013
199	0x3eaf7887	0.34271643
200	0x3e991cc1	0.2990475
201	0xbd230b26	-0.039805554
202	0x3df4a955	0.1194636
203	0xbdaeb58b	-0.0853072
204	0xbe8c046e	-0.2734713
205	0x3e41c90e	0.18924353
206	0x3d0618a2	0.032738335
207	0xbe4f9a2c	-0.20273656
208	0x3eb83de1	0.3598471
209	0x3e8e32db	0.27773175
210	0xbdee4d43	-0.1163583
211	0xbbdde3e6	-0.0067715524
212	0xbe4b0835	-0.1982735
213	0xbeb63f7b	-0.35595307
214	0x3db6273e	0.088942036
215	0xbe339496	-0.1753715
216	0x3f12a3ef	0.5728139
217	0xbe475f3d	-0.19469924
218	0x3e1fcce0	0.15605497
219	0x3d2a2e8c	0.041548297
220	0xbf3f2d49	-0.74678475
221	0xbd61ebf3	-0.05515666
222	0x3e97badc	0.2963475
223	0x3dcaca8a	0.099019125
224	0xbe0e276b	-0.13882224
225	0x3f159ebf	0.5844535
226	0x39e20830	0.0004311218
227	0xbda6eced	-0.08150659
228	0x3e69ba3f	0.22824953
229	0xbf27ba69	-0.65518814
230	0xbdc18533	-0.09449234
231	0x3eaa1fc4	0.3322736
232	0xbde341e6	-0.110965535
233	0x3c2435df	0.0100226095
234	0x3edd4c4c	0.43222272
235	0xbcd1a42e	-0.025590982
236	0x3cf7706c	0.030204974
237	0x3e844d65	0.25840297
238	0xbf477fee	-0.7792958
239	0xbe782a09	-0.24234785
240	0x3ce42ebc	0.027854316
241	0xbe84e6e2	-0.259574
242	0xbe2d98ba	-0.16952792
243	0x3dae3d78	0.08507818
244	0x3ee7ac63	0.45248708
245	0x3dbc5f93	0.09197917
246	0xbcce98de	-0.025219377
247	0x3e02e09e	0.12780997
248	0x3d3c384d	0.04595213
249	0xbeafc5dd	-0.34330645
250	0xbedfe73a	-0.437311
251	0x3e279586	0.16365632
252	0xbe60b6eb	-0.21944778
253	0x3e4a4e44	0.19756418
254	0x3e6f64c2	0.2337828
255	0x3cec2a3d	0.028828735

bias f4 [10]
0	0xbe0a1574	-0.13484746
1	0x3f1b9000	0.607666
2	0x3da46132	0.08026351
3	0x3f21db53	0.6322529
4	0xbe0be75c	-0.13662475
5	0x3e013d13	0.12620954
6	0xbf29c0b9	-0.66309696
7	0x3d016cc5	0.03159787
8	0x3d85f257	0.06540363
9	0x3ed1150b	0.40836367

weight f4 [15, 10, 3, 3]
0	0xbdbf6913	-0.09346213
1	0x3b85f30f	0.0040878127
2	0xbca91d37	-0.020643814
3	0xbd123993	-0.03569944
4	0xbdd0445e	-0.1016929
5	0x3da1f353	0.079077385
6	0xbdb33ce9	-0.08751852
7	0xbd1ef223	-0.03880514
8	0x3ca8eaf4	0.020619847
9	0x3d5abeea	0.053404726
10	0xbd97e533	-0.07416763
11	0x3e41a89a	0.18911973
12	0xbdf67a51	-0.12035049
13	0xbdcd66c7	-0.10029369
14	0x3df08787	0.117446
15	0xbd2a3848	-0.04155758
16	0xbd7db642	-0.061941393
17	0x3dddb26b	0.10825046
18	0xbe015072	-0.12628344
19	0xbe15841c	-0.14601177
20	0x3e063bf9	0.13108815
21	0xbdcc5e77	-0.09978955
22	0xbdcc7032	-0.09982337
23	0xbe099ef2	-0.13439539
24	0x3e4b2f07	0.19842158
25	0xbe0d68f2	-0.13809565
26	0xbe79ac6e	-0.24382183
27	0xbdc98063	-0.09838941
28	0xbd5ebdba	-0.054380156
29	0xbe415f6a	-0.18884054
30	0x3d61e378	0.05514857
31	0xbd0aecbe	-0.03391718
32	0x3e44d5c5	0.19222172
33	0x3d2204dc	0.039555416
34	0xbd7e27a4	-0.062049523
35	0x3e49d9c3	0.19711976
36	0xbd106013	-0.035247874
37	0x3cac788b	0.021053573
38	0xbd920192	-0.07129206
39	0xbc795078	-0.015216939
40	0xbd900038	-0.07031292
41	0xba9eccf9	-0.001211553
42	0xbdb3d0e0	-0.08780074
43	0x3d8b6e02	0.06808092
44	0xbc4632ea	-0.0120971
45	0x3dd057be	0.101729855
46	0xbdc49561	-0.09598804
47	0x3cd1a322	0.025590483
48	0xbe092e8e	-0.13396665
49	0xbbd13bcd	-0.0063853026
50	0xbbe321c6	-0.0069315163
51	0xbbd7670c	-0.0065735634
52	0x3e039033	0.12847976
53	0x3e94e36d	0.29079762
54	0x3d75ea3f	0.060037848
55	0xbe11e942	-0.14249137
56	0xbe84e28d	-0.25954095
57	0x3e1bf7f5	0.15231307
58	0x3ddb67ea	0.107131794
59	0xbe536fc6	-0.20648107
60	0x3d9264ef	0.07148158
61	0xbc577ecb	-0.013152788
62	0xbe8b1333	-0.27163085
63	0x3e02a7f6	0.12759385
64	0x3d45889d	0.048225988
65	0xbd25bed5	-0.040465195
66	0x3e2f4c80	0.17119026
67	0xbb26dc9d	-0.0025461086
68	0xbeb1dd6b	-0.3473924
69	0x3cd6de96	0.026229184
70	0xbe9897ae	-0.29803222
71	0xbecd16a5	-0.4005634
72	0x3e0a0a86	0.13480577
73	0x3dd1c4c4	0.10242608
74	0x3e88c907	0.26715872
75	0x3e39513a	0.18097392
76	0x3e3c49b5	0.18387492
77	0x3eaa8fe1	0.33312896
78	0x3d0ef64b	0.034902852
79	0x3d6f0207	0.058351543
80	0x3df2b7d6	0.1185147
81	0xbcca816d	-0.024719918
82	0xbbce3482	-0.0062928805
83	0x3da1f56b	0.07908138
84	0xbe4ea606	-0.2018052
85	0xbd4422bf	-0.0478847
86	0xbca9c014	-0.020721473
87	0xbe1914d5	-0.14949353
88	0xbe8cf10e	-0.2752766
89	0xbe9c3a3d	-0.30513182
90	0xbd63481e	-0.0554887
91	0x3d98aecd	0.074552156
92	0x3af5bce9	0.0018748316
93	0x3db08458	0.086189926
94	0x3dda6b41	0.10664988
95	0x3d9d2120	0.07672334
96	0xb9c5ad37	-0.00037703823
97	0x3c472745	0.012155359
98	0x3d45c7f2	0.048286386
99	0xbd6744e3	-0.05646218
100	0xbeb7df0c	-0.3591236
101	0xbe8f01fb	-0.27931198
102	0xbe04858a	-0.12941566
103	0xbe7a58ae	-0.24447891
104	0xbdb5ac3c	-0.08870742
105	0xbd028473	-0.031864595
106	0xbd948644	-0.07252172
107	0xbb211811	-0.0024580995
108	0x3d1599ab	0.036523502
109	0x3e169120	0.14703798
110	0xbdb95c3b	-0.09050795
111	0x3e2b2705	0.16714104
112	0x3c9bd6ae	0.019023266
113	0x3d95d2cd	0.07315598
114	0xbefa4777	-0.48882648
115	0xbeb85c18	-0.36007762
116	0xbd29cf4a	-0.041457452
117	0xbd0c118e	-0.03419643
118	0xbe9146d6	-0.28374356
119	0x3d3676bd	0.04454683
120	0x3e1b7b1d	0.15183683
121	0xbdf2654d	-0.11835728
122	0xbd2f2090	-0.042755663
123	0x3ebba2ed	0.3664774
124	0x3e88138b	0.2657741
125	0x3ecf5ce8	0.4050057
126	0xbd3d9391	-0.04628331
127	0xbd916cee	-0.07100855
128	0x3dbe4cac	0.09291968
129	0x3da39add	0.07988522
130	0xbdab287c	-0.08357331
131	0xbcc3dc12	-0.023908649
132	0xbd0e1c9f	-0.034695264
133	0x3dbae038	0.091247976
134	0x3dcfadf8	0.10140604
135	0xbdcb7d4f	-0.0993601
136	0xbcc75c4c	-0.024336003
137	0xbdd0b857	-0.1019141
138	0xbdf45fbe	-0.11932324
139	0xbe3ff25e	-0.187448
140	0xbdf19b3a	-0.11797185
141	0xbeb1c9ed	-0.3472437
142	0xbe6d500e	-0.2317507
143	0xbe80a01d	-0.25122157
144	0x3eb87c5e	0.36032385
145	0x3e0cacf5	0.13737853
146	0x3e4f5bbf	0.20249842
147	0x3e636c9c	0.222094
148	0x3e0bd421	0.1365514
149	0x3c9305ea	0.017947156
150	0xbe36d7de	-0.17855784
151	0xbe875c56	-0.26437634
152	0xbed80a9d	-0.42195597
153	0x3dc09c34	0.094047934
154	0x3e200548	0.15627015
155	0x3e09ae75	0.13445456
156	0x3d7c673e	0.061621897
157	0x3e20730c	0.15668887
158	0x3cdfb071	0.027305814
159	0xbe0d427e	-0.13794896
160	0xbcc174ab	-0.023615202
161	0xbe11a6e4	-0.1422382
162	0xbe8e0f3c	-0.27745998
163	0x3cf0f298	0.029412553
164	0xbced5a4a	-0.028973717
165	0x3de8fd7b	0.113764726
166	0x3e572d3b	0.21013348
167	0xbc92d46f	-0.017923562
168	0x3c8c6a1b	0.017140439
169	0x3d9c2768	0.07624704
170	0xbb569300	-0.0032741427
171	0xbd215762	-0.039389975
172	0xbe3136c5	-0.17306049
173	0x3c4baeb1	0.012431786
174	0xbe08094c	-0.13284796
175	0x3e831d69	0.25608376
176	0x3e6c364e	0.2306759
177	0x3dd3b546	0.103373095
178	0x3ea77458	0.3270595
179	0x3ea3004a	0.31836158
180	0x3d9e3b3f	0.07726144
181	0xbd45eb96	-0.048320375
182	0xbbe0adef	-0.006856672
183	0xbd0dae61	-0.03459013
184	0xbda1c4f6	-0.078988954
185	0xbdb38e90	-0.08767426
186	0x3ca4fb0b	0.020139238
187	0xbda42977	-0.08015721
188	0xbc8419df	-0.016125618
189	0xbd6e4ecb	-0.05818061
190	0x3e7e8d5b	0.2485861
191	0xbef5aaf7	-0.47981998
192	0x3e69a302	0.22816089
193	0x3e11255d	0.14174409
194	0xbee8b86a	-0.45453197
195	0x3da31452	0.0796286
196	0x3ee2383b	0.44183525
197	0xbe937b57	-0.28805038
198	0xbe646f81	-0.2230816
199	0x3ea0f487	0.3143656
200	0x3dd61848	0.1045385
201	0xbe9e874a	-0.30962592
202	0x3e84793f	0.25873753
203	0x3d5d54c6	0.054035924
204	0xbe6194fc	-0.2202949
205	0x3e716c1a	0.23576394
206	0x3e24de15	0.16100343
207	0x3cda0d40	0.026617646
208	0x3e29a2df	0.16566037
209	0xbe9ad672	-0.30241734
210	0x3ec9dcb0	0.39426184
211	0x3d69ba63	0.057062518
212	0xbeb200fa	-0.3476637
213	0x3d7cd51d	0.06172668
214	0x3da0e976	0.07857029
215	0xbe08a09d	-0.13342519
216	0xbdaeedf5	-0.085414805
217	0xbd95d0d8	-0.073152244
218	0xbd737db5	-0.059446055
219	0x3d47bfef	0.048767027
220	0x3d5a9183	0.053361427
221	0xbd090c97	-0.033459272
222	0xbcbb07d0	-0.022830874
223	0xbb08eba6	-0.002089241
224	0x3c47ecba	0.012202436
225	0xbdf7cf87	-0.121001296
226	0xbc5e9800	-0.013586044
227	0x3de7180a	0.11283882
228	0xbca0293e	-0.019550916
229	0xbd80d346	-0.06290297
230	0x3ded5713	0.11588874
231	0xbcd39baf	-0.025831072
232	0x3d384195	0.04498442
233	0xbbfd95a8	-0.0077387877
234	0xbdef5523	-0.116861604
235	0xbd20b6cb	-0.039236825
236	0x3e328832	0.17434767
237	0xbe2dea32	-0.1698387
238	0x3e05125b	0.12995283
239	0x3e8ba977	0.2727773
240	0xbe8c8211	-0.27442983
241	0x3d86f3ca	0.06589468
242	0x3d5dd05b	0.05415378
243	0xbe3847e1	-0.1799617
244	0x3e4f9430	0.20271373
245	0xbd14e9c0	-0.036355734
246	0xbe7cb6ab	-0.24679057
247	0x3de7f9b8	0.11326927
248	0x3dde264c	0.10847148
249	0xbce7290a	-0.028217811
250	0x3d154a33	0.036447715
251	0x3e2c8a4a	0.16849628
252	0x3e23d9a9	0.16001
253	0xbe06d1e1	-0.13166
254	0xbe03d918	-0.12875783
255	0x3d4cde8b	0.05001692

bias f4 [15]
0	0xbe91682e	-0.28399795
1	0xbd232d57	-0.03983816
2	0xbdfe9ed0	-0.12432635
3	0xbe4c7f93	-0.1997054
4	0xbe0b94ba	-0.13630953
5	0xbd9142e5	-0.07092837
6	0xbf09a288	-0.5376363
7	0x3ea04a2c	0.3130659
8	0x3d300131	0.042969886
9	0x3e136306	0.14393243
10	0xbd7ebbdb	-0.06219087
11	0x3eb9df66	0.36303252
12	0xbe8ea39c	-0.278592
13	0x3e3f32e3	0.18671755
14	0x3d199e51	0.037504498

weight f4 [20, 15, 3, 3]
0	0xbcd986a7	-0.026553465
1	0xbd832ad6	-0.06404655
2	0xbcaf8f6a	-0.02143069
3	0x3d38679d	0.04502069
4	0x3e868f1a	0.26281053
5	0xbda36aa5	-0.07979325
6	0x3db560f9	0.08856387
7	0x3b197cd1	0.0023420344
8	0xbe71b899	-0.23605575
9	0xbe078bc2	-0.13236907
10	0xbd860d3a	-0.065454915
11	0x3e0f8904	0.14017111
12	0xbe8b23a8	-0.2717564
13	0x3e532117	0.20618092
14	0xbe19c113	-0.15015058
15	0xbe69252e	-0.22768089
16	0x3dba0e83	0.09084799
17	0x3dfac5bb	0.12244745
18	0xbe7919ab	-0.24326198
19	0xbecfda35	-0.40596166
20	0x3eacbaf8	0.33736396
21	0x3e425063	0.18975978
22	0x3e09d4cb	0.1346008
23	0xbe198ba6	-0.14994678
24	0xbb8171b5	-0.0039503225
25	0x3c6e6fe9	0.014553049
26	0x3aa588d2	0.0012629277
27	0xbe056660	-0.13027334
28	0xbe66284a	-0.22476307
29	0x3e9a83c0	0.30178642
30	0x3c80fa2c	0.015744291
31	0xbb6ae887	-0.0035844164
32	0x3e006cf9	0.1254157
33	0xbcb5e8d2	-0.022205744
34	0x3d479afa	0.04873178
35	0x3cec9d0c	0.02888348
36	0xbda083f2	-0.078376666
37	0x3e880d39	0.26572588
38	0xbb7aa848	-0.0038247276
39	0xbdb82da0	-0.08993077
40	0xbe041e85	-0.12902267
41	0x3e01450c	0.12623996
42	0xbd9bd7b9	-0.07609505
43	0x3d432fca	0.047652997
44	0x3e3f86da	0.18703786
45	0x3d517b06	0.051142715
46	0xbd04710c	-0.032334372
47	0x3bb6350c	0.005560523
48	0xbe092dd4	-0.13396388
49	0x3e0389ec	0.12845582
50	0x3e0a6479	0.1351489
51	0xbe451945	-0.19247921
52	0x3d13c9a7	0.036080983
53	0x3e343e14	0.17601806
54	0xbdf79440	-0.12088823
55	0x3d1fdadf	0.03902709
56	0x3de1ae0a	0.110195234
57	0xbe3a9612	-0.1822131
58	0xbd73a9ae	-0.05948799
59	0x3e118e66	0.14214477
60	0xbde7ff31	-0.11327971
61	0x3e2dd4eb	0.16975753
62	0x3e2f3fcb	0.17114179
63	0x3e1ca967	0.15298997
64	0xbc17f3c6	-0.009274429
65	0x3d8c90f3	0.06863584
66	0x3d0b233e	0.033969156
67	0x3d73097d	0.05933522
68	0x3de0d455	0.10977999
69	0xbde0fc88	-0.109856665
70	0xbb565587	-0.0032704787
71	0xbe2a06d4	-0.16604167
72	0xbd56b54a	-0.052418984
73	0x3dcd2ef3	0.100187205
74	0xbd9e9576	-0.07743351
75	0xbd6caaf4	-0.05778022
76	0x3e511a78	0.20420253
77	0xbd8df8c5	-0.06932215
78	0x3e2c8e80	0.16851234
79	0x3d7045f5	0.058660466
80	0xbe455f16	-0.19274554
81	0x3c35d4f2	0.011098133
82	0x3e814a5c	0.25252044
83	0xbd9be8a7	-0.07612734
84	0x3d9590a0	0.07302976
85	0x3e4433fa	0.19160452
86	0xbdd917bf	-0.10600232
87	0x3ddc3107	0.10751539
88	0x3dbd9677	0.092572145
89	0x3c6b07d0	0.014345124
90	0xbc1ff454	-0.009762842
91	0xbdeeabcc	-0.116538614
92	0xbdb20798	-0.08692855
93	0x3ba6e01b	0.0050926334
94	0x3e2e39fd	0.17014308
95	0xbe03662f	-0.12831949
96	0xbc3bdbad	-0.011465949
97	0x3c268600	0.010163784
98	0x3e1e1bf1	0.15440346
99	0xbd720848	-0.05908993
100	0x3d2261c6	0.039644025
101	0xbe0dc7c5	-0.13845737
102	0x3e3093a0	0.17243814
103	0x3e247e7b	0.16063873
104	0xbc9b0178	-0.018921599
105	0x3e8c644d	0.27420273
106	0x3d292f57	0.041304912
107	0xbe93b7b6	-0.28851098
108	0x3e57f0a2	0.21087888
109	0xbd5dd93b	-0.054162245
110	0xbe195f2b	-0.1497771
111	0x3c994051	0.018707426
112	0x3d9e9b66	0.07744484
113	0xbe189dd5	-0.14903958
114	0xbdc6d77e	-0.097090706
115	0x3d243783	0.040092003
116	0xbddaf30d	-0.106908895
117	0x3e5920be	0.21203896
118	0x3c643e19	0.013930821
119	0x3e6958a8	0.22787726
120	0x3b5f8f98	0.0034112688
121	0x3e3a3118	0.1818279
122	0xbdeb7e75	-0.11498729
123	0xbd44a845	-0.048012037
124	0xbd8e0337	-0.06934207
125	0xbab7a772	-0.0014011695
126	0xbcd869eb	-0.026417693
127	0x3e77e068	0.24206698
128	0x3e78f715	0.24313004
129	0x3cb497c3	0.022045022
130	0xbd8c89d4	-0.06862226
131	0x3c76e46e	0.01506911
132	0xbe1be8c7	-0.15225516
133	0xbc2d5e6e	-0.010581596
134	0x3e60a9f4	0.21939832
135	0xbe2e8dc1	-0.17046262
136	0xbe64c618	-0.22341192
137	0xbe597707	-0.21236812
138	0xbe0bd7b1	-0.13656498
139	0xbe923378	-0.28554893
140	0x3d321b57	0.043483105
141	0x3d56ffdc	0.0524901
142	0xbd590e11	-0.05299193
143	0x3db642f2	0.088994876
144	0xbe40f041	-0.1884165
145	0xbe576e53	-0.21038179
146	0xbe31e874	-0.1737383
147	0x3b925bac	0.0044664945
148	0x3da3fb54	0.080069214
149	0x3d920df2	0.07131566
150	0x3deec867	0.116593175
151	0x3b5f5ed0	0.0034083612
152	0x3e07dfa6	0.13268909
153	0xbe630db6	-0.22173199
154	0xbe9ba609	-0.30400112
155	0xbe95a806	-0.29229754
156	0xbedaa0f3	-0.4270092
157	0xbe874cd9	-0.26425818
158	0x3e18f975	0.1493891
159	0xbdaa0127	-0.08301001
160	0x3e1d51a5	0.15363176
161	0x3e0bcf42	0.13653281
162	0xbdf9cfde	-0.12197851
163	0xbda36b00	-0.07979393
164	0x3cd54b15	0.026036778
165	0xbdd3880e	-0.10328685
166	0xbdf3eb24	-0.11910084
167	0x3cb945e8	0.022616342
168	0xbd85d7bf	-0.06535291
169	0xbd1c2a10	-0.03812605
170	0x3d480efe	0.048842423
171	0x3ed1fbfa	0.41012555
172	0x3d2f4c2c	0.042797253
173	0xbe2e374d	-0.17013283
174	0x3e5fe32a	0.21864
175	0xbe22aa21	-0.15885212
176	0xbe8290c6	-0.25501078
177	0x3e3cc1cf	0.18433307
178	0x3b3f007e	0.002914458
179	0xbe0546ec	-0.13015336
180	0x3e5a732f	0.21333002
181	0xbde308ab	-0.11085638
182	0xbc543753	-0.012952643
183	0x3e14a9da	0.14517918
184	0x3d6cf906	0.057854675
185	0xbccc8f2d	-0.024970615
186	0x3d992328	0.07477409
187	0xbdbeebe2	-0.09322335
188	0xbd2940a8	-0.041321427
189	0x3e870fbc	0.26379192
190	0xbcf76d68	-0.030203536
191	0xbdc0c47f	-0.09412479
192	0x3dbc5cef	0.09197413
193	0xbda65679	-0.08121962
194	0xbcda123c	-0.026620023
195	0x3cf73fa7	0.030181719
196	0xbe0eb2d2	-0.13935402
197	0xbe5ae384	-0.21375853
198	0xbdab5a76	-0.083668634
199	0x3d576a20	0.052591443
200	0x3d0dc332	0.03460998
201	0xbe207000	-0.15667725
202	0x3d4b3384	0.049609676
203	0x3e1cdef5	0.15319426
204	0xbd6650ba	-0.05622933
205	0x3c8602a2	0.016358677
206	0x3e65445c	0.22389358
207	0xbe825797	-0.2545745
208	0xbf010a80	-0.50406647
209	0xbe6fb289	-0.2340795
210	0xbe8e41d5	-0.277846
211	0xbe95f487	-0.29288122
212	0x3e0caed9	0.13738574
213	0x3a5b2e2c	0.0008361067
214	0xbe10b624	-0.14131981
215	0x3dda002d	0.10644565
216	0xbe6f3b2d	-0.23362418
217	0xbeb96121	-0.36206916
218	0xbd78ccd1	-0.060742203
219	0xbca50885	-0.020145664
220	0xbefe3bfe	-0.49655145
221	0xbac7d574	-0.0015246109
222	0x3c576072	0.013145553
223	0xbe32411d	-0.17407651
224	0x3e787246	0.24262342
225	0xbd99c34e	-0.075079545
226	0x3c1ad91a	0.009451175
227	0xbd985c5e	-0.07439493
228	0xbd4112d8	-0.04713711
229	0xbe1b28dc	-0.15152305
230	0xbe3a7288	-0.18207753
231	0x3c915007	0.017738355
232	0x3dcc216a	0.09967311
233	0x3e2119a7	0.15732442
234	0xbd2c813c	-0.042115435
235	0xbe0b8ece	-0.13628694
236	0xbe623faa	-0.22094598
237	0xbd0e7d4d	-0.034787465
238	0xbd95e49a	-0.07318993
239	0xbd939312	-0.07205786
240	0x3e6bbbd7	0.23020874
241	0x3e4d1bc5	0.20030124
242	0x3ea039f1	0.31294206
243	0xbd371cfa	-0.04470537
244	0xbd7536b1	-0.05986661
245	0x3a4169aa	0.0007378111
246	0x3a286fce	0.00064253516
247	0x3d3d9d2d	0.046292473
248	0xbd049fda	-0.03237901
249	0x3d11b0e1	0.035569075
250	0x3cf6990e	0.030102279
251	0x3d609cf7	0.054837193
252	0x3f12e969	0.57387406
253	0x3ddcce71	0.10781563
254	0xbe28d09a	-0.16485825
255	0x3e425f88	0.18981755

bias f4 [20]
0	0xbe00e54a	-0.12587467
1	0x3f6363a5	0.8882392
2	0x3f5bf58a	0.8592154
3	0x3d64a63d	0.0558226
4	0x3e765861	0.24057151
5	0x3f062ff8	0.52416945
6	0x3d440131	0.0478527
7	0x3e527b81	0.20554926
8	0x3f1814f4	0.5940697
9	0x3ccaf308	0.02477409
10	0xbe41d656	-0.18929419
11	0x3e9b7ef0	0.30370283
12	0x3dd2c117	0.10290735
13	0xbddcbf4c	-0.107786745
14	0xbeb046d3	-0.34429035
15	0x3d1bb4db	0.038014274
16	0x3e0ff837	0.1405953
17	0x3edc4149	0.4301856
18	0x3f074ef5	0.52854854
19	0xbbca4206	-0.0061724214

weight f4 [25, 20, 3, 3]
0	0x3e7891fe	0.24274442
1	0x3dfe72b8	0.124242246
2	0xbe6970a9	-0.22796883
3	0xbdfd5793	-0.12370219
4	0x3da4a518	0.08039302
5	0x3d64b0c7	0.05583265
6	0x3c855c0d	0.016279245
7	0xbdcb83d3	-0.09937253
8	0xbe019e1f	-0.12657975
9	0x3d0df615	0.03465851
10	0xbdd1971c	-0.102339
11	0x3dbecbb7	0.09316199
12	0xbd505e4e	-0.050871186
13	0x3c297721	0.010343344
14	0x3e0825fe	0.13295743
15	0xbc2c8ffd	-0.010532376
16	0xbde69369	-0.11258585
17	0x3d329c6e	0.043606214
18	0x3e0d7e19	0.13817634
19	0xbddd402e	-0.10803257
20	0xbdf20431	-0.11817206
21	0x3ca2be90	0.019866258
22	0xbe701c45	-0.23448284
23	0xbe34f75a	-0.17672482
24	0x3e86bd3b	0.26316246
25	0xbcb26f14	-0.021781482
26	0xbe80a5e1	-0.25126556
27	0x3d9ef520	0.07761598
28	0xbcade927	-0.02122934
29	0xbe165697	-0.14681469
30	0x3d99d398	0.075110614
31	0x3c7243d8	0.014786683
32	0xbc133864	-0.008985613
33	0xbdbb2ba8	-0.09139186
34	0xbd409a66	-0.047022246
35	0x3d52dcbe	0.051480047
36	0xbd70edf2	-0.058820672
37	0xbe67814e	-0.2260792
38	0x3e125c72	0.14293078
39	0xbe48e4f5	-0.1961859
40	0xbdb113c0	-0.08646345
41	0x3e23345a	0.1593794
42	0x3c179267	0.009251214
43	0x3e8d766d	0.27629414
44	0x3e2e8470	0.17042708
45	0xbb9f05de	-0.0048529943
46	0xbce3eacb	-0.027821919
47	0xbd27b62e	-0.040945224
48	0x3dadd5c9	0.08488042
49	0xbda9572e	-0.08268581
50	0xbdc1d12e	-0.09463726
51	0x3da93d47	0.08263641
52	0x3bf616d7	0.007510047
53	0xbc192c16	-0.00934889
54	0x3e887ea3	0.26659116
55	0x3e730ff6	0.23736557
56	0xbe64c369	-0.22340168
57	0x3e4dc738	0.20095527
58	0xbeb2fa68	-0.3495667
59	0xbd567e48	-0.052366525
60	0xbe880133	-0.26563415
61	0xbea9f9ae	-0.33198303
62	0x3e5848cb	0.21121518
63	0x3dc20713	0.094740056
64	0xbc34a02b	-0.011024515
65	0xbd3866cb	-0.045019906
66	0xbdab31df	-0.083591215
67	0xbe45f5f5	-0.19332106
68	0xbb663150	-0.0035124607
69	0xbb5fa206	-0.0034123673
70	0x3b5bb0c9	0.003352212
71	0x3ddebb64	0.10875586
72	0x3e950af5	0.29109922
73	0xbdbaaac2	-0.09114601
74	0x3df1329e	0.117772326
75	0xbe13f833	-0.14450149
76	0xbe25b8d9	-0.16183795
77	0xbe5f7bde	-0.21824595
78	0xbe4c18c6	-0.19931325
79	0xbd59b505	-0.05315115
80	0xbcc14350	-0.023591667
81	0xbe5c41c8	-0.21509469
82	0xbb3075b1	-0.0026925618
83	0xbdb9644a	-0.09052332
84	0xbe26c5c3	-0.16286378
85	0x3ddd57c0	0.108077526
86	0xbdc4cf8b	-0.09609898
87	0x3e919745	0.28435722
88	0x3e591f1d	0.21203275
89	0xbe67b9cd	-0.22629471
90	0xbca3d5b3	-0.01999936
91	0x3e0f56e3	0.13997988
92	0x3de89917	0.113573246
93	0xbd1cdd36	-0.0382969
94	0x3ce37240	0.02776444
95	0xbdef709b	-0.116914
96	0xbd46a554	-0.048497513
97	0xbe817f04	-0.25292218
98	0xbe866128	-0.26246
99	0x3d7063ae	0.058688812
100	0xbdfaa711	-0.12238897
101	0x3db46748	0.08808762
102	0x3d5de3ef	0.054172453
103	0xbdd2e06c	-0.10296711
104	0x3e23e3f9	0.16004933
105	0xbd88bde1	-0.066768415
106	0x3e09fd01	0.1347542
107	0x3c560582	0.013062837
108	0xbd7af620	-0.06126988
109	0xbd76daa5	-0.06026711
110	0xbdfcd598	-0.12345427
111	0x3e64bd17	0.22337757
112	0xbe1a00ec	-0.15039414
113	0x3de39620	0.111126184
114	0xbd740e9a	-0.059584238
115	0x3d974d4b	0.07387789
116	0xbe2e9a1a	-0.17050973
117	0xbe276f6a	-0.16351095
118	0x3dae481f	0.0850985
119	0x3e8325d8	0.2561481
120	0xbe407aac	-0.18796796
121	0xbe724d77	-0.23662363
122	0xbd4ad1a5	-0.04951634
123	0x3e9679d9	0.29389837
124	0x3e047c14	0.12937957
125	0x3da1d55a	0.07902022
126	0xbddd50fd	-0.10806463
127	0x3dfb9f6f	0.12286269
128	0xbe1099d1	-0.14121176
129	0x3e716dc6	0.23577031
130	0x3cd77a0d	0.026303316
131	0x3d65fca3	0.056149136
132	0xbcc47332	-0.02398071
133	0xbde3410c	-0.11096391
134	0x3d9ce008	0.07659918
135	0x3c8b5b29	0.017011242
136	0x3d9cf936	0.07664721
137	0xbd33cea8	-0.043898255
138	0xbd039d18	-0.03213224
139	0x3d943e70	0.072384715
140	0x3c2897b9	0.01029008
141	0xbd0e2f21	-0.034712914
142	0x3d11bd94	0.035581186
143	0x3acdc062	0.0015697593
144	0xbd2ecb8f	-0.042674597
145	0xbde2cd9e	-0.110743746
146	0xbc1b6c3f	-0.009486257
147	0x3adfb3b6	0.0017067108
148	0xbd07c179	-0.033143494
149	0x3bcd328f	0.0062621306
150	0xbcae61c7	-0.021286858
151	0xbb8ec899	-0.004357409
152	0xbdc91e5f	-0.09820246
153	0xbd984946	-0.07435851
154	0xbdd1665d	-0.10224602
155	0xbcf4da98	-0.02988939
156	0x3c2e9503	0.010655644
157	0xbd5e2652	-0.054235764
158	0x3db6c8f7	0.0892505
159	0xbdb7cca4	-0.08974579
160	0xbdc16cb6	-0.09444563
161	0x3e5954b0	0.21223712
162	0xbd7d24e9	-0.06180278
163	0xbdcc6101	-0.099794395
164	0xbc99d500	-0.018778324
165	0xbe0a9934	-0.13535005
166	0x3a4b2c02	0.0007750393
167	0x3c56930e	0.013096584
168	0xbd1ddba7	-0.038539555
169	0xbc4ab617	-0.012372515
170	0x3c0c79d8	0.008573972
171	0x3ed0f8a7	0.40814707
172	0xbd3f249f	-0.046665784
173	0xbe624ad5	-0.22098859
174	0xbd5145ea	-0.051092066
175	0xbe5ffbb0	-0.21873355
176	0xbdc08dcc	-0.094020456
177	0xbe0ec7ae	-0.1394336
178	0xbd8c6c8f	-0.068566434
179	0x3d5a6dd1	0.053327385
180	0x3ce4a184	0.027909048
181	0xbe1fb26c	-0.15595406
182	0xbec2dfc4	-0.38061345
183	0x3d78b87c	0.060722813
184	0xbe490fd5	-0.19634946
185	0xbc544817	-0.012956641
186	0x3dbc6cd1	0.092004426
187	0x3d211cb8	0.03933403
188	0x3ce79f0e	0.028274085
189	0xbe4d6231	-0.20056988
190	0x3e69c2fa	0.22828284
191	0x3e278f37	0.16363226
192	0xbca3a877	-0.019977791
193	0x3d7ae434	0.061252788
194	0xbd3c0b26	-0.04590907
195	0x3dab2443	0.08356526
196	0xbd092e65	-0.03349151
197	0x3d4100df	0.04711997
198	0xbe0707fd	-0.13186641
199	0xbe3dc693	-0.18532781
200	0x3d968013	0.07348647
201	0xbd9e2d0c	-0.07723436
202	0xbe099ca5	-0.13438661
203	0x3e1ff11b	0.15619318
204	0xbcb6bd2a	-0.022306997
205	0xbdc90f0a	-0.098173216
206	0x3d7897a2	0.060691483
207	0xbcde9b73	-0.027173733
208	0x3cceae7f	0.02522969
209	0x3d369aad	0.044581104
210	0xbda9febb	-0.08300539
211	0xbd7a5069	-0.06111184
212	0x3dc4a637	0.096020155
213	0x3df6adb7	0.12044852
214	0x3d681c8d	0.056667853
215	0x3d5a3f60	0.053283095
216	0xbe0cb9cb	-0.1374275
217	0x3dc6ddd0	0.09710276
218	0x3ddc5868	0.1075905
219	0xbd90b742	-0.07066204
220	0xbd9752eb	-0.07388862
221	0xbcae0540	-0.021242738
222	0x3c1a9da5	0.009436999
223	0x3d00f3e9	0.03148261
224	0x3c9bc6fa	0.019015778
225	0xbd458436	-0.04822179
226	0xbc92606f	-0.017868249
227	0xbc728c07	-0.014803893
228	0x3ca3fb20	0.020017207
229	0x3d0cb656	0.034353577
230	0x3d8107ac	0.063002914
231	0xbd06e86c	-0.0329365
232	0x3d9b10bf	0.075715534
233	0x3d9b7847	0.075913005
234	0xbe20ae4e	-0.15691492
235	0x3e13d717	0.14437519
236	0x3c32a5a1	0.010903747
237	0xbe2154b5	-0.1575497
238	0x3ca19fb1	0.019729467
239	0x3a1f5d08	0.00060792314
240	0xbd0d0c32	-0.03443546
241	0x3b47c3ca	0.003048169
242	0xbd400abc	-0.046885237
243	0xbca2321a	-0.01979928
244	0xbdd9c71b	-0.106336795
245	0xbd6ec8e6	-0.05829706
246	0x3eab6a7e	0.33479685
247	0xbd2ef3e0	-0.042713046
248	0xbdc0b89f	-0.09410214
249	0x3ea433ab	0.3207067
250	0xbda518f4	-0.080614
251	0xbd6ca2ce	-0.05777245
252	0xbe1ae27f	-0.15125464
253	0xbd25fb65	-0.04052295
254	0xbcc3e180	-0.023911238
255	0xbe0e276f	-0.1388223

bias f4 [25]
0	0xbe49ae2a	-0.19695345
1	0xbd505c8c	-0.05086951
2	0xbc2b57c0	-0.010457933
3	0xbd6048e6	-0.05475702
4	0xbd8bbd31	-0.06823195
5	0x3e0ce2d8	0.13758409
6	0x3da16daa	0.07882245
7	0xbe1fc4f0	-0.1560247
8	0x3e09224a	0.13391986
9	0xbc8dbe38	-0.017302617
10	0x3e68b75b	0.22726195
11	0x3e7149a7	0.23563252
12	0xbd101628	-0.03517738
13	0xbdc79095	-0.09744374
14	0xbe5e5a16	-0.21714053
15	0xbdb8aa1b	-0.0901682
16	0x3bf03ede	0.007331713
17	0xbd80d1a5	-0.062899865
18	0xbd42c94d	-0.047555257
19	0xbd0765cd	-0.03305607
20	0x3e69f3d9	0.22846927
21	0xbcd403b0	-0.025880665
22	0xbdd9af66	-0.10629158
23	0xbd9872c2	-0.07443763
24	0x3ec0749d	0.3758897

weight f4 [10, 225]
0	0xbe3178bf	-0.17331217
1	0xbe12a8c9	-0.14322199
2	0x3c9f9c60	0.019483745
3	0x3ddb273b	0.10700842
4	0xbe2d9eb7	-0.16955076
5	0x3db09078	0.08621305
6	0x3d89c9c6	0.06727938
7	0x3de160e5	0.11004809
8	0xbe2d0eef	-0.16900228
9	0xbe5e3a98	-0.21702039
10	0xbe19a460	-0.1500411
11	0x3d1aa3da	0.037753917
12	0xbd7f6701	-0.06235409
13	0xbe1e451a	-0.15456048
14	0x3dd44781	0.10365201
15	0x3e89cdaf	0.26914737
16	0xbda3b78c	-0.07993993
17	0xbd75ff04	-0.060057655
18	0x3c0a2441	0.008431495
19	0x3d47a742	0.048743494
20	0x3d5bcee3	0.0536641
21	0x3d989b4b	0.07451495
22	0xbb0a50b0	-0.0021105222
23	0xbbb29958	-0.005450409
24	0xbcbd8bee	-0.023138013
25	0xbcd9d49c	-0.026590638
26	0x3d1bd57e	0.0380454
27	0x3e904f6d	0.28185597
28	0x3de36f51	0.11105216
29	0x3c855afb	0.016278734
30	0x3e4f0d72	0.20219973
31	0x3cb34a8e	0.021886136
32	0x3d7e2120	0.06204331
33	0xbda4356d	-0.08018003
34	0xbd64eea0	-0.055891633
35	0xbe37c02d	-0.17944403
36	0xbe145617	-0.14485966
37	0x3e36188f	0.17782806
38	0xbe030237	-0.12793814
39	0x3b246251	0.0025083015
40	0x3d993ba7	0.07482081
41	0x3c554784	0.013017539
42	0xbcec37ea	-0.028835256
43	0x3d89693c	0.06709525
44	0xbe230d7b	-0.15923111
45	0x3dc53534	0.09629288
46	0xbd44cc58	-0.04804644
47	0x3e6ec164	0.2331596
48	0x3ead7a7f	0.3388252
49	0xbd83f00a	-0.06442268
50	0xbe06a84a	-0.13150135
51	0xbd66dda5	-0.05636372
52	0x3ea5dd6c	0.32395494
53	0x3dbf36d1	0.09336627
54	0x3f012c4b	0.5045821
55	0xbd8214ae	-0.063516006
56	0x3d6910f9	0.056900952
57	0x3daefd06	0.08544354
58	0xbe4a958a	-0.19783607
59	0x3e79f821	0.2441106
60	0x3dec5ecf	0.11541521
61	0xbe08550f	-0.13313697
62	0xbe813323	-0.25234327
63	0xbe5beb3b	-0.21476452
64	0xbe89607d	-0.26831427
65	0xbd95a1ed	-0.073062755
66	0xbb90d752	-0.0044201994
67	0xbe02ac0e	-0.12760946
68	0x3e1885bb	0.14894764
69	0x3c90bfc9	0.017669575
70	0xbde1c3f5	-0.11023704
71	0xbc180093	-0.009277481
72	0x3e11e552	0.14247635
73	0x3cd99f77	0.026565297
74	0x3da52823	0.08064296
75	0x3df8a517	0.121408634
76	0x3c607322	0.013699325
77	0x3d683d4f	0.056699093
78	0xbe0d2c55	-0.13786443
79	0x3d97c549	0.07410676
80	0x3d8a73ae	0.067603454
81	0x3ebd44bc	0.36966503
82	0xbe47e09f	-0.1951928
83	0x3ea8fc8c	0.33005178
84	0xbd5e58f0	-0.054284036
85	0x3b178efd	0.0023126
86	0xbdbcd8ff	-0.09221076
87	0xbe7d8e48	-0.24761307
88	0xbe676c2a	-0.22599855
89	0xbeaf357e	-0.342205
90	0x3e65c36a	0.22437826
91	0xbe2e5685	-0.17025192
92	0x3e591f83	0.21203427
93	0xbda62c51	-0.081139214
94	0x3a4758ed	0.00076044985
95	0xbda19c0c	-0.07891092
96	0x3cb2e549	0.021837847
97	0x3ec59553	0.38590488
98	0xbcefad6c	-0.029257499
99	0x3e9bf495	0.3046004
100	0x3e4f49f2	0.20243052
101	0xbcdee7cd	-0.02721014
102	0xbbf34dc9	-0.007425044
103	0x3d83416b	0.06408962
104	0x3d8d81aa	0.06909497
105	0x3ca4d477	0.020120842
106	0xbe397b0c	-0.18113345
107	0xbe959eef	-0.2922282
108	0x3e85b5b6	0.26115197
109	0xbdfa9fb9	-0.12237496
110	0xbddf9c9f	-0.10918545
111	0x3d1042c5	0.035219926
112	0x3e1c5b7a	0.1526927
113	0x3e85a22b	0.26100287
114	0x3dc2af44	0.095060855
115	0xbd83d632	-0.06437339
116	0x3de6fa40	0.112782
117	0x3d257d00	0.040402412
118	0x3e509054	0.20367557
119	0x3a8e3881	0.001085058
120	0x3dac8f23	0.08425739
121	0x3c8798b7	0.016552312
122	0xbd0c736c	-0.034289762
123	0xbe5d01c2	-0.21582702
124	0x3eb525b3	0.35380325
125	0x3c2fd323	0.010731491
126	0xbe211f41	-0.15734579
127	0xbe5528c7	-0.20816337
128	0x3dfdae91	0.123868115
129	0xbd4a0363	-0.049319636
130	0x3d6c99b6	0.057763778
131	0x3e11ac98	0.14225996
132	0xbe48288e	-0.1954672
133	0x3c083dfc	0.0083155595
134	0x3d3bc5d8	0.045842975
135	0x3e649872	0.22323778
136	0x3cf141db	0.029450348
137	0x3eab1def	0.33421275
138	0x3e7f2723	0.24917273
139	0xbe07f18b	-0.13275735
140	0xbd847736	-0.0646805
141	0xbd6770b0	-0.05650395
142	0x3ce81fc1	0.028335454
143	0x3d9f1748	0.077681124
144	0xbe4a3045	-0.19744976
145	0xbe4b6c53	-0.19865541
146	0x3ecd923e	0.40150636
147	0xbe89da3d	-0.26924315
148	0x3d628b9e	0.05530893
149	0x3ea56deb	0.32310423
150	0x3ec499de	0.3839864
151	0x3c04a349	0.008095571
152	0x3e3784b6	0.17921719
153	0xbce27d44	-0.027647622
154	0x3e098138	0.134282
155	0x3c88d87b	0.016704788
156	0xbcc3b141	-0.023888232
157	0x3cb17c8a	0.02166583
158	0xbd3b91ed	-0.045793463
159	0xbd82f364	-0.06394079
160	0xbd54f9be	-0.051995985
161	0xbe36522a	-0.1780478
162	0xbe5a58d0	-0.21322942
163	0x3e31b719	0.17355002
164	0xbecd2045	-0.40063682
165	0x3e7d34d3	0.24727182
166	0x3d772829	0.060341034
167	0x3dbc0152	0.09179939
168	0xbe613546	-0.21992978
169	0x3dd90d3e	0.10598229
170	0x3e3cd4cf	0.18440555
171	0x3e094823	0.13406424
172	0xbcf49684	-0.029856928
173	0x3b7a3832	0.0038180468
174	0x3de7099d	0.112811305
175	0x3db501b1	0.08838213
176	0xbc3364c4	-0.010949317
177	0x3e2a0143	0.16602044
178	0x3e75e5cd	0.24013443
179	0x3bdbcaf1	0.006707542
180	0x3e85112b	0.2598966
181	0x3d15878b	0.036506217
182	0xbde77f4f	-0.11303579
183	0x3d9b87a5	0.075942315
184	0xbcf1b885	-0.029506931
185	0x3d1eef9a	0.03880272
186	0x3d559fff	0.052154537
187	0xbe3592e4	-0.17731816
188	0x3e7194a5	0.2359186
189	0x3dfc6d88	0.12325579
190	0xbba336a7	-0.0049808803
191	0x3e0f8ca4	0.14018494
192	0xbe5cd3dd	-0.21565194
193	0x3db668c7	0.089067034
194	0x3e25bbf7	0.16184984
195	0x3de88116	0.11352746
196	0x3d2d03f3	0.042240094
197	0x3dcbcbad	0.099509574
198	0xbea4bdc0	-0.32176018
199	0xbe5c030a	-0.21485534
200	0x3ddb6724	0.10713032
201	0x3e02ee87	0.12786303
202	0xbe0e40a2	-0.13891843
203	0x3d9343b7	0.0719065
204	0x3eeeaf93	0.46618327
205	0xbe07f4ac	-0.13276929
206	0xbce4fc5d	-0.027952367
207	0xbcf0055b	-0.029299429
208	0xbe859ddb	-0.26096997
209	0xbd8560e3	-0.0651262
210	0x3d1bce0f	0.03803831
211	0xbcbb8de1	-0.022894802
212	0x3e6c3048	0.23065293
213	0x3e06e595	0.13173516
214	0xbe237e6e	-0.15966198
215	0x3da52a20	0.08064675
216	0xbd6f15d9	-0.058370445
217	0xbc14a243	-0.009071889
218	0x3ea3a060	0.31958294
219	0x3ed3337e	0.41250223
220	0xbe2ac48d	-0.1667654
221	0xbe973d88	-0.29539132
222	0x3f0bf105	0.5466464
223	0xbec58d16	-0.38584203
224	0xbeaf36db	-0.3422154
225	0xbec04b22	-0.37557322
226	0xbdb9cf1b	-0.09072705
227	0x3da62156	0.08111827
228	0xbdc6593e	-0.0968499
229	0x3c0339f7	0.008009425
230	0x3e3368e8	0.17520487
231	0xbeb04cad	-0.344335
232	0xbd7dbac9	-0.06194571
233	0x3e1065a8	0.14101279
234	0x3ed346d4	0.41264975
235	0xbe279bb2	-0.16367987
236	0xbdd006e5	-0.10157565
237	0x3ce33198	0.02773361
238	0x3d0937e6	0.033500575
239	0xbcb46ec2	-0.02202547
240	0xbe7a5bf8	-0.24449146
241	0x3d879b1d	0.066213824
242	0x3d5d2cf8	0.053997964
243	0xbd771e38	-0.060331553
244	0x3cd270bf	0.025688527
245	0xbd033fb6	-0.03204318
246	0xbd016cfe	-0.031598084
247	0x3bfa8a88	0.0076459087
248	0x3d7659b5	0.060144145
249	0xbd553550	-0.052052796
250	0x3d1b9e32	0.037992664
251	0x3d6c3ca0	0.057675004
252	0xbd89edb4	-0.067347914
253	0x3d946b7f	0.07247066
254	0xbb3bc9ee	-0.0028654295
255	0xbdd7f7b8	-0.105452955

bias f4 [10]
0	0xbe7cbf63	-0.24682383
1	0xbbf18a38	-0.0073712133
2	0x3f09041d	0.535219
3	0xbc9966e9	-0.01872583
4	0xbf831523	-1.0240825
5	0xbe8f772c	-0.28020608
6	0x3f6d21e3	0.9262983
7	0x3e5a38b4	0.21310693
8	0x3e616c7f	0.22014044
9	0xbe936342	-0.28786665
