Models/Test/BasicModel.pth (torch, 183723 bytes, 10 tensors)

weight f4 [6, 3, 5, 5]
0	0x3e54c028	0.20776427
1	0x3e9c54af	0.30533358
2	0x3e5cdb52	0.21568039
3	0x3de25a8f	0.11052429
4	0xbbf07ae7	-0.00733887
5	0x3e89deed	0.2692789
6	0x3e2d23fe	0.16908261
7	0xbbf41eab	-0.007449945
8	0xbda5d2cc	-0.08096847
9	0xbd5196c2	-0.051169164
10	0x3e51b871	0.20480515
11	0xbddf59c8	-0.10905796
12	0xbda64012	-0.08117689
13	0x3bbe03a5	0.0057987743
14	0xbe2362ce	-0.1595566
15	0x3e3c3200	0.18378448
16	0xbe0deeb9	-0.13860597
17	0xbe2253dd	-0.15852304
18	0x3cfd7343	0.03093875
19	0x3cadee4c	0.021231793
20	0xbd5a46ef	-0.053290304
21	0xbde66062	-0.11248852
22	0xbc06e9c3	-0.008234444
23	0xbdfe13fa	-0.12406154
24	0xbe0b4669	-0.13601078
25	0x3e8dd73a	0.27703267
26	0x3e6a4469	0.22877659
27	0x3e8d75e8	0.27629018
28	0x3e822038	0.25415206
29	0x3d8ceec7	0.06881481
30	0x3e3d88d5	0.18509229
31	0x3e1dcb81	0.15409662
32	0xbd457581	-0.048207764
33	0x3d3c4d7d	0.045972336
34	0x3d9ee597	0.077586345
35	0x3e4427c9	0.19155802
36	0xbe03fa28	-0.12888396
37	0x3d543c19	0.051815126
38	0xbd1c0c28	-0.03809753
39	0xbd3f72ff	-0.04674053
40	0x3e356130	0.17712855
41	0xbe6ff34d	-0.23432656
42	0xbdead636	-0.11466639
43	0xbdd83bd9	-0.1055829
44	0xbd0f0ff5	-0.034927327
45	0x3d7cc615	0.061712343
46	0xbe6b29fe	-0.22965237
47	0xbe3e149f	-0.18562554
48	0xbd490d72	-0.049085088
49	0xbd20aa3e	-0.039224856
50	0x3e4d376c	0.20040673
51	0x3e8a0580	0.2695732
52	0x3e09e0bf	0.1346464
53	0x3e262c83	0.16227917
54	0x3e2af576	0.16695198
55	0x3e604d31	0.21904446
56	0x3e2ac087	0.16675006
57	0xbdadf778	-0.084944665
58	0xbd268cd6	-0.040661655
59	0x3dc535dd	0.09629414
60	0x3e7faf17	0.24969135
61	0xbe04639a	-0.1292862
62	0xbd554bc5	-0.052074213
63	0xbce8dc68	-0.02842541
64	0xbdc1b176	-0.09457676
65	0x3e348545	0.17628963
66	0xbd9040de	-0.070436224
67	0xbe38d47e	-0.1804981
68	0xbd2c4f86	-0.042068027
69	0xbde61399	-0.11234207
70	0x3e0a435c	0.13502258
71	0xbe466578	-0.19374645
72	0xbd0ad770	-0.033896863
73	0xbe2ab043	-0.16668801
74	0x3bd0b707	0.006369475
75	0xbde7badc	-0.113149375
76	0xbd281161	-0.0410322
77	0xbd5e7121	-0.054307107
78	0x3be4b15e	0.0069791516
79	0xbe021c21	-0.12706043
80	0x3c7e0b10	0.015505567
81	0x3d8b03ce	0.06787835
82	0x3dcab145	0.09897093
83	0xbd853b38	-0.06505436
84	0x3d92e180	0.07171917
85	0x3db8c2cf	0.09021532
86	0x3e216557	0.15761314
87	0x3c396900	0.011316538
88	0x3c10c4b4	0.00883596
89	0xbc5a7a10	-0.013334766
90	0xbd126ed6	-0.035750233
91	0x3e185112	0.14874676
92	0x3c0f68e0	0.0087530315
93	0x3e0a75fb	0.13521568
94	0xbc2ab584	-0.010419253
95	0x3d068833	0.032844733
96	0x3e0278b5	0.12741359
97	0x3e241439	0.1602334
98	0x3dc7744a	0.09738977
99	0xbd0387cb	-0.032111924
100	0xbd8a475f	-0.06751894
101	0xbd53c003	-0.05169679
102	0x3d934830	0.07191503
103	0xbd2e4061	-0.042541865
104	0x3d2d3a4c	0.042291924
105	0x3d8a91ec	0.06766114
106	0xbd1f2c50	-0.03886062
107	0x3da8a927	0.08235388
108	0x3dc43824	0.095810205
109	0x3c89e0d3	0.016830837
110	0x3d4d0426	0.050052784
111	0xbcc747dd	-0.02432626
112	0xbdd124f5	-0.10212127
113	0xbcf3f667	-0.02978058
114	0xbd6df55c	-0.05809532
115	0x3d9ae5c8	0.075633585
116	0x3e0c72a7	0.13715611
117	0x3daa5f36	0.08318941
118	0x3e0e5d9a	0.13902894
119	0x3df53f42	0.11974956
120	0x3d99da8a	0.07512386
121	0x3e20f97d	0.15720172
122	0x3e258bd9	0.16166629
123	0x3d7f97f0	0.06240076
124	0x3c33ca5a	0.010973537
125	0x3d0bf43a	0.03416846
126	0xbd3fcce6	-0.046826266
127	0x3dc3cb32	0.09560241
128	0x3c08b623	0.008344206
129	0xbd0e481a	-0.03473673
130	0x3d2bf904	0.041985527
131	0x3dd62325	0.10455922
132	0xbd666605	-0.056249637
133	0xbdc4ba62	-0.09605862
134	0x3d7f1cbf	0.062283274
135	0xbd9d3352	-0.07675804
136	0x3d721f44	0.05911185
137	0xbd8dd868	-0.06926042
138	0x3d5a9b05	0.053370494
139	0x3d857ac4	0.06517556
140	0x3d0f4cb1	0.034985248
141	0x3c5400ed	0.012939674
142	0x3d9b0b09	0.07570464
143	0x3bb97719	0.0056599495
144	0x3d134680	0.035955906
145	0x3d4553cc	0.048175618
146	0x3e2df522	0.16988042
147	0x3e1f161e	0.15535781
148	0x3cbc15a3	0.022959536
149	0x3c900506	0.01758052
150	0x3de22dc7	0.110438876
151	0x3dbd55ae	0.09244858
152	0x3e314cb9	0.17314424
153	0x3dc544f5	0.09632293
154	0x3e063791	0.13107134
155	0x3db795e5	0.08964137
156	0x3df6f046	0.12057547
157	0x3d60cde9	0.05488387
158	0xbd7c7304	-0.061633125
159	0x3d8c5cb0	0.06853616
160	0xbdb2f3e4	-0.08737925
161	0xbda6ab31	-0.08138121
162	0xbd9337e2	-0.07188393
163	0xbd00d22b	-0.03145043
164	0x3c835841	0.016033294
165	0x3c27119b	0.010197069
166	0x3dee7a00	0.116443634
167	0xbd6ddc83	-0.058071624
168	0xbe09153c	-0.13387007
169	0x3ca0d7c3	0.019634133
170	0xbe287828	-0.16452086
171	0x3ca8f153	0.020622885
172	0xbdb6494c	-0.08900699
173	0xbdb18daa	-0.086695984
174	0xbdcbdfaa	-0.0995477
175	0x3e24f971	0.1611078
176	0x3e3effd3	0.18652277
177	0x3e2db6cf	0.16964267
178	0x3ddb87f9	0.10719294
179	0x3e15f0eb	0.14642684
180	0x3c3985d1	0.011323408
181	0x3da7c1de	0.08191274
182	0x3e14baf7	0.14524446
183	0x3d405157	0.04695257
184	0x3d9595b5	0.07303945
185	0xbdf51f96	-0.11968915
186	0x3e008318	0.12550008
187	0x3db13d65	0.08654288
188	0x3db2cb19	0.08730144
189	0xbca91beb	-0.020643195
190	0xbd6dadad	-0.05802696
191	0xbd8cc2a8	-0.06873065
192	0x3ca27a51	0.019833716
193	0xbe17ac43	-0.14811806
194	0x3d97336b	0.07382854
195	0x3ccd4121	0.02505547
196	0xbcbb1d2a	-0.022841055
197	0x3c484675	0.0122238295
198	0xbde676e0	-0.11253142
199	0x3d13230e	0.035922103
200	0xbd7a6934	-0.061135486
201	0x3d3fa996	0.04679259
202	0x3e17014b	0.14746587
203	0x3ba5e3ff	0.0050625796
204	0x3c6653d9	0.014058077
205	0x3daa77c7	0.08323627
206	0x3d50132f	0.050799545
207	0x3db204f7	0.08692353
208	0xbd94b528	-0.07261115
209	0xbc93582a	-0.017986376
210	0xbd8f19e0	-0.06987357
211	0x3d87d0f0	0.066316485
212	0xbd84b564	-0.0647991
213	0x3d7b6d7f	0.06138372
214	0x3b3b5100	0.0028582215
215	0xbd3c6e06	-0.046003364
216	0x3db4ccfd	0.08828161
217	0x3c84c77a	0.0162084
218	0x3cab4d1d	0.020910794
219	0x3deae9ff	0.114704125
220	0xbd5c20ca	-0.053742208
221	0xbc60555f	-0.013692229
222	0xbdf93613	-0.12168517
223	0x3be20a29	0.006898184
224	0x3d6a38da	0.057183124
225	0xbd0fc42f	-0.035099205
226	0x3dd85d1f	0.105646364
227	0x3bca1f82	0.006168307
228	0xbe894813	-0.268128
229	0xbdd5bc30	-0.104362845
230	0x3d19bf22	0.037535794
231	0x3e1b5d43	0.15172295
232	0x3e7c1d4c	0.24620551
233	0xbe6d6bcf	-0.23185657
234	0xbe13fe8d	-0.14452572
235	0x3e1ae6b2	0.15127066
236	0x3e0bc1dd	0.13648172
237	0x3d9b22f0	0.07575023
238	0xbe980fd5	-0.2969958
239	0xbdef7b87	-0.11693483
240	0xbbb6bba6	-0.0055765687
241	0x3e94b0d1	0.2904115
242	0x3e021c29	0.12706055
243	0xbe2f65b1	-0.17128636
244	0xbdf96996	-0.12178342
245	0x3e294706	0.16531
246	0x3e5e8d8b	0.21733682
247	0x3daff2bd	0.085912205
248	0xbe8c65f2	-0.27421528
249	0xbe3a3976	-0.18185982
250	0x3dfa45ef	0.1222037
251	0x3e7ae045	0.24499615
252	0x3e3c3db0	0.18382907
253	0xbe27ee0e	-0.16399404
254	0xbe3f546e	-0.18684551
255	0xbd856ef1	-0.06515301

bias f4 [6]
0	0x3e067e37	0.13134085
1	0xbb2f9c63	-0.0026796095
2	0xb92d4199	-0.00016523003
3	0x3eaf9170	0.34290648
4	0xbc23d964	-0.01000056
5	0xbcd44fd6	-0.025916975

weight f4 [16, 6, 5, 5]
0	0xbe7c1a2b	-0.24619357
1	0xbc18004c	-0.0092774145
2	0x3d757460	0.059925437
3	0x3cc257b1	0.023723455
4	0x3d9d2012	0.076721326
5	0xbdb18224	-0.086674005
6	0x3d3d1020	0.046157956
7	0xbd0002e3	-0.031252753
8	0x3d46b836	0.04851552
9	0xbe68d49d	-0.22737356
10	0xbe125637	-0.14290701
11	0x3d3614b6	0.044453345
12	0xbe13e864	-0.14444119
13	0x3c7fa56b	0.015603404
14	0xbd49c708	-0.049262077
15	0xbe4a5c34	-0.19761735
16	0xbd6969a5	-0.056985516
17	0x3d497ee1	0.049193267
18	0x3e01c5a3	0.12673049
19	0xbd84d80c	-0.0648652
20	0xbe6158c8	-0.22006524
21	0x3dba20a4	0.09088257
22	0xbc3573b7	-0.011074952
23	0xbcb8c287	-0.022553695
24	0xbe01365c	-0.12618393
25	0x3d8888c3	0.0666671
26	0x3d4d595c	0.050134048
27	0xbd1398d7	-0.03603443
28	0x3c22af6b	0.009929518
29	0xbdadf64c	-0.08494243
30	0xbbe5a6ef	-0.0070084254
31	0x3c93214c	0.017960213
32	0x3d124729	0.035712395
33	0xbd4e6404	-0.05038835
34	0x3cc4e8af	0.024036733
35	0x3c32861e	0.010896234
36	0xbd4d2149	-0.05008057
37	0x3d818586	0.06324296
38	0x3d66a9a4	0.056314126
39	0x3e0831b9	0.13300218
40	0x3d8900d5	0.06689612
41	0x3d2da785	0.042396087
42	0x3db9b7df	0.09068274
43	0xbd6455cc	-0.055745885
44	0x3d5a7dc4	0.053342596
45	0x3d13e2b3	0.03610487
46	0x3db889ec	0.090106815
47	0xbda4ead5	-0.08052603
48	0xbc07cdbc	-0.008288797
49	0x3e12a9d0	0.14322591
50	0xbdb3375b	-0.087507926
51	0x3e0bddb8	0.13658798
52	0x3d22f929	0.0397884
53	0xbd61c375	-0.055118043
54	0xbd3ed31d	-0.046588052
55	0xbd0282d6	-0.031863056
56	0xbba71c9f	-0.0050998474
57	0x3d1bdace	0.038050465
58	0x3ccb5bfe	0.024824139
59	0xbe06887b	-0.13138
60	0xbca7e3bd	-0.020494336
61	0xbdb46e84	-0.08810142
62	0x3d7130ed	0.05888455
63	0x3cb73b22	0.022367064
64	0x3c463b33	0.012099075
65	0xbd9f15de	-0.07767843
66	0x3cd5ca81	0.026097538
67	0x3c4fc053	0.012680131
68	0x3dc53050	0.096283555
69	0x3d08f39f	0.03343546
70	0xbd442666	-0.047888182
71	0xbd6de1c7	-0.058076646
72	0xbd4517c2	-0.04811836
73	0x3d10c4d9	0.03534398
74	0x3d8c375f	0.06846499
75	0xbe2eefcc	-0.17083663
76	0x3ba43a32	0.0050118202
77	0xbd02c6ee	-0.031927995
78	0x3e40122e	0.18756935
79	0xbda4691c	-0.080278605
80	0xbd60db81	-0.054896835
81	0xbdeb0d0f	-0.114771
82	0x3c8d8636	0.01727591
83	0x3d60ab90	0.054851115
84	0xbe4680d5	-0.19385083
85	0x3ca8dd9d	0.020613486
86	0xbd242dbf	-0.04008269
87	0x3d305489	0.04304937
88	0xbdce5485	-0.100747146
89	0xbdda329c	-0.10654184
90	0xbcf4554d	-0.02982583
91	0xbe0c079e	-0.1367478
92	0xbdbef00b	-0.09323128
93	0xbdaba5aa	-0.08381207
94	0xbe1aa784	-0.15102965
95	0xbdcec1c9	-0.10095555
96	0x3dcb4bce	0.09926568
97	0x3d163dc9	0.036680017
98	0xbe6a17d1	-0.22860648
99	0xbd726f22	-0.059188016
100	0x3e34fcea	0.17674604
101	0x3cc8760b	0.02447035
102	0x3cbf55bc	0.023356311
103	0xbcb55e7d	-0.022139782
104	0x3cefcfbf	0.029273866
105	0xbd041907	-0.03225043
106	0x3ad939e4	0.0016573039
107	0xbdadc6ef	-0.08485209
108	0xbe207266	-0.1566864
109	0xbd1af73b	-0.037833434
110	0xbde9fb7c	-0.1142492
111	0xbcbd32c3	-0.023095494
112	0xbdc0d3fc	-0.09415433
113	0xbe11f635	-0.14254077
114	0xbd9430ae	-0.072358474
115	0xbcaed075	-0.021339634
116	0xbcbddde5	-0.023177097
117	0xbd799c23	-0.06093992
118	0xbd295b35	-0.041346747
119	0xbb8ac58a	-0.0042349743
120	0xbd8231e0	-0.06357169
121	0xbd45384e	-0.0481494
122	0xbba8cf65	-0.0051516765
123	0xbd686bd3	-0.056743454
124	0xbd955130	-0.07290876
125	0x3d044dbe	0.032300703
126	0x3e80de95	0.25169817
127	0x3d7045b4	0.058660224
128	0x3d2eb724	0.042655125
129	0xbd58fde5	-0.052976508
130	0x3d0c0691	0.03418595
131	0x3cc04824	0.0234719
132	0xbc500f88	-0.012699015
133	0xbdb688a1	-0.08912779
134	0xbe22a559	-0.15883388
135	0xbdb2e8e6	-0.08735828
136	0xbb2974ac	-0.0025856895
137	0x3dae34ce	0.085061654
138	0xbd882679	-0.06647963
139	0x3d9f9a77	0.07793134
140	0xbdcf153b	-0.10111471
141	0x3d8bd878	0.068283975
142	0x3de2fe11	0.110836156
143	0x3d188181	0.03723288
144	0x3e6d36e9	0.23165478
145	0x3d6142dd	0.054995406
146	0x3de34055	0.11096255
147	0x3d018565	0.031621356
148	0x3db32cab	0.08748754
149	0x3e674a73	0.22586994
150	0x3d454a0d	0.048166323
151	0xbd812fbd	-0.063079335
152	0xbcea8677	-0.028628571
153	0xbd91c32b	-0.071173035
154	0x3d0a77db	0.03380571
155	0xbdb4f8ca	-0.08836515
156	0xbd19749d	-0.037464727
157	0xbdd8c937	-0.10585254
158	0xbc0fe1d6	-0.008781871
159	0x3c926952	0.017872486
160	0xbcc9d993	-0.02463988
161	0xbcdddf72	-0.027084086
162	0xbc36ec14	-0.011164684
163	0x3d5206c9	0.051276002
164	0x3c1a8877	0.00943195
165	0x3ddda001	0.10821534
166	0xbc037a1b	-0.008024718
167	0x3d1b5d9e	0.037931077
168	0xbd116303	-0.035494816
169	0x3d2b776f	0.041861948
170	0x3dd40e9e	0.103543505
171	0x3d765a64	0.060144797
172	0x3da5cb5f	0.080954306
173	0x3d14be0c	0.036314055
174	0x3d98b254	0.074558884
175	0x3ce4d8c8	0.0279354
176	0xbdcc19fb	-0.09965893
177	0xbd0239e2	-0.031793483
178	0xbda52550	-0.080637574
179	0xbd0c04ec	-0.03418438
180	0x3d18bf90	0.037292063
181	0xbd61ba28	-0.055109173
182	0x3c49b28b	0.012310634
183	0xbd65718a	-0.056016482
184	0xbc6d0321	-0.014466078
185	0x3dd5eaf7	0.104452066
186	0xbcc30ba4	-0.023809262
187	0x3d0ec8e5	0.034859557
188	0xbbeef61c	-0.007292522
189	0xbd72532e	-0.059161358
190	0x3d5e3fb3	0.054259967
191	0xbd2c5951	-0.042077366
192	0x3d27e995	0.040994246
193	0x3da81f3c	0.082090825
194	0x3c69ff45	0.014282052
195	0x3d10df85	0.035369415
196	0x3d81056b	0.062998615
197	0xbdc4d3d2	-0.09610714
198	0xbcfa2058	-0.030533
199	0x3d1a9c83	0.037746917
200	0xbd9ef4cc	-0.07761535
201	0xbdc9f4ea	-0.09861167
202	0xbd8ccf60	-0.06875491
203	0xbca9d0ae	-0.020729389
204	0xbc5ff42b	-0.013669054
205	0x3bcca686	0.006245437
206	0xbad60eb4	-0.0016331286
207	0xbd04ac22	-0.03239072
208	0x3d371392	0.044696398
209	0xbd848e02	-0.06472398
210	0x3cdd6538	0.027025804
211	0x3d46b4a7	0.048512127
212	0xbda1b013	-0.078949116
213	0x3ca471f7	0.020073874
214	0x3d5e24b8	0.054234236
215	0xbd44a088	-0.048004657
216	0x3d13102c	0.035904095
217	0xbd419858	-0.047264427
218	0xbb662ea3	-0.0035123012
219	0x3d15389a	0.036430933
220	0xbd1aa720	-0.03775704
221	0xbd63f06f	-0.055649217
222	0x3d2d8b57	0.042369213
223	0xbd593e41	-0.053037886
224	0x3bba7aa4	0.0056908894
225	0xbc8040ab	-0.015655836
226	0xbdb1c305	-0.08679775
227	0x3be3e039	0.0069542197
228	0xbde4c4b6	-0.11170332
229	0x3d4c6a18	0.049905866
230	0x3d6100da	0.054932453
231	0xbd00b7f2	-0.031425424
232	0xbdac6388	-0.084174216
233	0xbd766340	-0.060153246
234	0xbde03618	-0.109478176
235	0xbd617bb2	-0.055049606
236	0xbd5bd0de	-0.05366599
237	0x3c95a19b	0.018265536
238	0xbd36d978	-0.044640988
239	0xbbe71190	-0.007051654
240	0x3d43e504	0.04782583
241	0xba21c2c3	-0.00061706844
242	0xbdc935cc	-0.09824714
243	0xbdaf87ca	-0.085708216
244	0x3c7fb929	0.01560811
245	0xbd064ff2	-0.032791086
246	0x3cdf403a	0.027252305
247	0x3d3a89ec	0.04554169
248	0xbc898c7f	-0.016790627
249	0xbd5a9154	-0.053361252
250	0xbcd249d1	-0.025669964
251	0xbd0478e6	-0.03234186
252	0x3cca9820	0.024730742
253	0xbd0c8b79	-0.0343127
254	0x3c4cac4c	0.012492251
255	0xbdc39fbd	-0.09551952

bias f4 [16]
0	0xbcef9265	-0.029244611
1	0xbc33a218	-0.010963939
2	0xbd807281	-0.0627184
3	0x3e3a93be	0.18220422
4	0x3e0ed9d1	0.13950278
5	0x3db43935	0.08799974
6	0x3cf6a0b3	0.030105924
7	0x3e225a31	0.15854718
8	0x3d24912d	0.040177513
9	0x3d935f99	0.07195968
10	0xbd82049e	-0.06348537
11	0x3e600415	0.21876557
12	0xbe109336	-0.14118657
13	0x3e35cbe7	0.17753564
14	0x3cc85314	0.024453677
15	0x3e1ddccf	0.15416263

weight f4 [120, 256]
0	0x3caacd58	0.020849869
1	0x3ca053e4	0.019571252
2	0xbd821be7	-0.06352978
3	0x3d334872	0.04377026
4	0xbd35e2e9	-0.04440585
5	0xbda48d1c	-0.08034727
6	0xbd7e9702	-0.06215573
7	0xbd3a4381	-0.045474533
8	0x3d4e1c52	0.050319977
9	0xbd2ae057	-0.041717853
10	0x3d46cd4f	0.04853564
11	0xbc88496b	-0.01663657
12	0x3da8a95b	0.08235427
13	0x3d289a39	0.041162703
14	0xbc97ab6e	-0.018514361
15	0x3d5a570d	0.053305674
16	0x3cdea0d4	0.027176298
17	0x3d343361	0.04399431
18	0x3d7588d9	0.05994496
19	0x3c46b3a0	0.012127787
20	0x3d59f9ed	0.053216863
21	0x3c3d685d	0.011560527
22	0x3b0cd2dc	0.0021487987
23	0xbd3237fc	-0.043510422
24	0xbd6749ae	-0.05646675
25	0x3beafa0e	0.007170922
26	0x3cb55a91	0.022137912
27	0xbd645c4b	-0.05575208
28	0x3c13a77c	0.009012099
29	0xbc05a148	-0.008156128
30	0xbd49542e	-0.049152546
31	0xbd3c91ed	-0.046037603
32	0x3d1ac501	0.037785534
33	0xbb28c1b3	-0.002575022
34	0x3c07185b	0.008245553
35	0xbd0cdde8	-0.034391314
36	0x3ca311ff	0.019906042
37	0xbd449e2f	-0.048002418
38	0x3d5d7cb9	0.054074023
39	0x3b851bc3	0.0040621473
40	0x3c1d1982	0.009588601
41	0x3d34f1a2	0.04417575
42	0xbc65d7a9	-0.014028468
43	0xbd0a4985	-0.03376152
44	0x3cb5ea96	0.022206586
45	0x3c3a5886	0.011373645
46	0x3c0cc311	0.008591429
47	0xbcbdcf68	-0.023170188
48	0xbcbc69b9	-0.022999631
49	0x3ac3620b	0.0014906538
50	0x3c451288	0.012028344
51	0x3c9bb86f	0.019008843
52	0xbaf0b894	-0.0018365555
53	0x3d7497ed	0.0597152
54	0x3c087816	0.008329412
55	0x3d534900	0.05158329
56	0xbbdcf297	-0.006742786
57	0xbcddbb1a	-0.027066756
58	0xbd46aa05	-0.048501987
59	0x3d9d5596	0.0768234
60	0x3d1107d0	0.03540784
61	0xbc805742	-0.015666608
62	0x3c874595	0.016512671
63	0x3d023041	0.0317843
64	0x3ab86998	0.0014069555
65	0x3ca9ac11	0.02071193
66	0x3d5bc336	0.053652965
67	0x3d9d47a3	0.07679679
68	0xbd186938	-0.03720972
69	0xbc02218d	-0.007942569
70	0x3d670c1e	0.05640804
71	0x3d97dc71	0.07415093
72	0xbcd318cf	-0.025768666
73	0xbc9f7177	-0.019463284
74	0xbccd9b06	-0.025098335
75	0x3c844bb4	0.01614938
76	0xbc0f5e76	-0.008750549
77	0x3d27dfe9	0.04098502
78	0x3a0fd7fd	0.0005487202
79	0xbd3a83f6	-0.045536004
80	0xbd592522	-0.05301393
81	0xbcaf1e16	-0.02137665
82	0x3d09f9e4	0.03368558
83	0x3d5e4a20	0.05426991
84	0x3d238657	0.03992304
85	0x3d060f44	0.032729402
86	0x3d341ea0	0.04397452
87	0x3d58a5df	0.052892562
88	0xbcae6621	-0.021288933
89	0x3d0e4a7e	0.03473901
90	0x3d8f3c7a	0.06993957
91	0x3c1f2444	0.009713236
92	0xbd8d76aa	-0.06907399
93	0x3c1075be	0.008817134
94	0xbd5f96b3	-0.054587077
95	0x3c9bbdb5	0.019011358
96	0xbd6f9f72	-0.05850167
97	0xbb2c77e5	-0.002631658
98	0xbd2d7d94	-0.04235609
99	0x3cb26b06	0.021779548
100	0x3d085c8a	0.033291377
101	0xbc4ce77e	-0.012506364
102	0x3d999e57	0.07500904
103	0xbbd7b439	-0.0065827635
104	0x3c30c372	0.010788785
105	0x3d7ba28a	0.061434306
106	0xbbd7754b	-0.0065752617
107	0x3cfe07b8	0.03100954
108	0x3d0b11a1	0.03395236
109	0xba24fab9	-0.0006293464
110	0x3d09e106	0.033661865
111	0x3d5cdd82	0.053922184
112	0xbc5795ff	-0.01315832
113	0x3a97d37d	0.0011583414
114	0x3cc29143	0.023750907
115	0x3d5a4c1e	0.053295247
116	0xbd212250	-0.039339364
117	0xbc88c9dc	-0.016697817
118	0x3d495295	0.049151022
119	0x3d079786	0.03310349
120	0x3d027b57	0.031855907
121	0x3d5f7a4b	0.054559987
122	0x3d3e5405	0.046466846
123	0x3d8d42a0	0.06897473
124	0x3d1570b3	0.03648443
125	0x3d23b621	0.039968614
126	0x3d8c49f0	0.0685004
127	0x3d5b97a5	0.053611416
128	0x3d5e24ff	0.0542345
129	0xbca607fd	-0.020267481
130	0x3d0b4e34	0.034010127
131	0x3d2dca19	0.042429063
132	0x3d286da5	0.04112019
133	0x3d36d9b8	0.044641227
134	0x3cbd94d2	0.023142252
135	0xbb0b02fc	-0.0021211496
136	0xba5e10bc	-0.00084711215
137	0x3c4e3da5	0.012587939
138	0xbcd54789	-0.026035087
139	0xbb312461	-0.002702974
140	0xbd87c4bb	-0.0662932
141	0x3d1aa752	0.037757225
142	0x3d6d93cd	0.058002282
143	0xbb0ee090	-0.002180133
144	0x3cc96314	0.024583377
145	0xbd7c8b68	-0.061656386
146	0xbd5827e2	-0.05277241
147	0x3d1adefc	0.03781031
148	0x3c042a69	0.008066752
149	0xbd07ad17	-0.033124056
150	0x3d5e2c43	0.05424143
151	0xbb392b10	-0.0028254427
152	0x3d8dac60	0.069176435
153	0xbcc0b617	-0.023524327
154	0xbd180104	-0.037110344
155	0xbd8830ee	-0.066499576
156	0x3c1cdf66	0.009574747
157	0x3c199ca5	0.009375726
158	0x3d86234f	0.06549703
159	0xbc5e33b0	-0.013562128
160	0xbcdc32ec	-0.02687975
161	0x3caeede9	0.021353679
162	0xbc91a708	-0.017779842
163	0xbcb3ebfd	-0.021963114
164	0x3d4f9b49	0.0506852
165	0x3afa6cd7	0.0019105923
166	0x3c267c8d	0.010161531
167	0x3cc0154d	0.023447657
168	0x3b390abd	0.002823516
169	0x3b8d43b2	0.0043110484
170	0xbd3748e9	-0.044747267
171	0x3d5f7413	0.054554056
172	0x3bb1fde4	0.0054318774
173	0xbb1ba7f6	-0.0023751236
174	0xbd6e76bf	-0.058218714
175	0xbc948e40	-0.018134236
176	0xbc5ef11d	-0.013607291
177	0xbbb8e2dc	-0.005642278
178	0x3d1fd951	0.03902561
179	0x3cd4b747	0.0259663
180	0x3d655301	0.05598736
181	0x3c15b475	0.009137263
182	0xbc1d02d1	-0.009583191
183	0xbcf5d0c3	-0.030006772
184	0xbc1a93c4	-0.009434644
185	0x3da34df3	0.07973852
186	0xbc327250	-0.010891512
187	0xbc68ad66	-0.014201498
188	0xbc4dc96a	-0.012560228
189	0x3cd1a63c	0.025591962
190	0x3d93fa71	0.07225502
191	0x3d4d6463	0.050144564
192	0xbd700690	-0.05860001
193	0x3cdde932	0.027088735
194	0xbb645fdb	-0.0034847173
195	0x3d4627d9	0.048377845
196	0xbd75264c	-0.059850976
197	0xbd18874a	-0.037238397
198	0x3d953dcd	0.07287178
199	0x3d30299f	0.043008443
200	0xbc21b07f	-0.00986874
201	0xbbc5aff4	-0.006032938
202	0x3d7d3214	0.061815336
203	0xbc78b2ad	-0.015179318
204	0xbd714b06	-0.05890944
205	0x3d123624	0.035696164
206	0xbd8d066d	-0.06885991
207	0xbc7f4958	-0.015581451
208	0xbd6707e8	-0.056404024
209	0xbcc6b795	-0.02425746
210	0xbd898eb0	-0.067166686
211	0xbd7d5537	-0.061848845
212	0x3cb4f4e8	0.022089437
213	0x3d734b9f	0.05939829
214	0x3d4e3d61	0.050351504
215	0xbd72f8db	-0.05931936
216	0x3bb80971	0.00561636
217	0xbcbb5a0c	-0.022870086
218	0x3c40e1f1	0.011772619
219	0x3c699f88	0.014259227
220	0xbd18d5f6	-0.037313424
221	0x3d61062d	0.05493753
222	0xbd1092ae	-0.035296135
223	0x3c92d6b5	0.017924646
224	0xbcdf82be	-0.027284022
225	0xbcc55407	-0.024087919
226	0xbd01da8f	-0.031702574
227	0xbc355e31	-0.01106982
228	0x3d86fd24	0.065912515
229	0x3c0739d4	0.008253533
230	0xbd459dd3	-0.048246216
231	0x3ce5ad65	0.028036783
232	0x3c74fcd4	0.014952857
233	0xbd1f16d2	-0.038840123
234	0xbd83b69c	-0.06431314
235	0xbd4e3b79	-0.050349686
236	0x3cbcebce	0.02306166
237	0x3d5c8780	0.05384016
238	0xbcdd5058	-0.02701585
239	0x3d68f334	0.05687256
240	0x3b1365c9	0.0022491089
241	0xbd21fa8e	-0.03954559
242	0xbb3f80aa	-0.0029220977
243	0xbd89b211	-0.067234166
244	0xbcb0c146	-0.021576535
245	0x3d40f64c	0.047109887
246	0x3cb4661d	0.022021348
247	0xbac97daa	-0.0015372534
248	0x3d6f1511	0.0583697
249	0x3d9489ed	0.0725287
250	0xbd32b704	-0.04363157
251	0xbc36e064	-0.011161897
252	0xbcd1c930	-0.025608629
253	0xbcfc87f0	-0.030826539
254	0xbd0c83b2	-0.034305282
255	0xba3b7816	-0.0007151378

bias f4 [120]
0	0xbd429e82	-0.047514446
1	0xbabf3053	-0.0014586545
2	0x3c89a77d	0.016803497
3	0x3d9ff188	0.0780974
4	0xbd93b83b	-0.072128735
5	0x3c4bd172	0.012440072
6	0xbd3a948b	-0.045551818
7	0x3de3d6d1	0.11124957
8	0x3d9fafb4	0.077971846
9	0xbbd68d1d	-0.0065475837
10	0x3cf15d72	0.029463504
11	0x3d64b14c	0.055833146
12	0xbd5a2c15	-0.053264696
13	0xbc20982e	-0.009801907
14	0x3d8088a4	0.06276062
15	0xbcbe592b	-0.023235878
16	0x3dcfd11c	0.10147306
17	0xbcabfdae	-0.020994987
18	0x3d0789c4	0.033090368
19	0xbc3f3f4e	-0.011672808
20	0x3d717f48	0.058959275
21	0x3da00aa8	0.078145325
22	0x3cc4982d	0.023998344
23	0x3dd767d8	0.105178535
24	0xbd8b36cd	-0.06797562
25	0xbb2030b9	-0.0024443103
26	0x3c864e66	0.016394805
27	0xbb9459ec	-0.004527321
28	0x3cb36325	0.021897862
29	0xbc55062a	-0.013001958
30	0xbce1b74e	-0.027553227
31	0x3d3a14b3	0.045429897
32	0x3d8153a4	0.06314781
33	0x3b94e71f	0.0045441533
34	0x3d2f5cc3	0.042813074
35	0xbcf75248	-0.030190602
36	0xbda831a4	-0.08212593
37	0xbbb71771	-0.005587511
38	0xbd99a507	-0.075021796
39	0xbb8b0af6	-0.00424325
40	0x3dc54bb6	0.09633581
41	0xbd94e330	-0.07269895
42	0x3d5212bb	0.051287394
43	0x3d99a75e	0.07502626
44	0xbc383057	-0.011241994
45	0x3d53a86b	0.051674288
46	0x3d917089	0.071015425
47	0xbd5a02ab	-0.0532252
48	0x3d049f92	0.03237874
49	0x3da79b3b	0.08183905
50	0xbd22a20a	-0.039705314
51	0x3d9b8dff	0.07595443
52	0x3c279090	0.0102273375
53	0xbc5addaa	-0.013358513
54	0xbc898c9e	-0.016790684
55	0xbd01843a	-0.03162024
56	0xbd1c4cd3	-0.038159203
57	0x3c01589c	0.007894661
58	0x3d39e843	0.045387518
59	0x3d0e005b	0.034668308
60	0x3d418aee	0.047251634
61	0xbcab1256	-0.020882767
62	0xba4e6a73	-0.00078741385
63	0xbd7ff279	-0.0624871
64	0xbd69dede	-0.05709731
65	0xbd72ba2b	-0.059259575
66	0xbd551f3e	-0.052031748
67	0xbd2e7a7e	-0.042597286
68	0x3cd47533	0.025934791
69	0x3d8e10a8	0.06936771
70	0xbc683146	-0.014171904
71	0xbd1f159a	-0.03883896
72	0xbd9b5ad9	-0.07585687
73	0x3c3e942d	0.011632008
74	0xbd5b7804	-0.053581253
75	0xbd785b5d	-0.060634006
76	0xbc63db03	-0.013907197
77	0xbd821334	-0.06351319
78	0x3aabe554	0.001311461
79	0x3d5d2b94	0.053996637
80	0xbbbfa931	-0.0058490266
81	0x3d1e8f0d	0.038710643
82	0x3de31347	0.11087661
83	0x3d14f4a3	0.036366116
84	0x3d84c238	0.06482357
85	0xbd6461a1	-0.05575717
86	0x3d9a84f0	0.07544887
87	0xbce82dfa	-0.028342236
88	0x3cbcaa8f	0.023030547
89	0x3bce96dd	0.0063046054
90	0x3b4025a2	0.0029319306
91	0x3c47b10d	0.012188208
92	0x3ca240ad	0.01980623
93	0xbb50eb84	-0.003187866
94	0x3cd5e898	0.026111886
95	0x3c7fad3f	0.01560527
96	0xbce0fc48	-0.027464047
97	0x3d317e99	0.043333624
98	0x3d9ce3b7	0.07660621
99	0xbd7603be	-0.060062163
100	0x3d0eb02f	0.03483599
101	0xbb22a246	-0.002481596
102	0x3b04737f	0.0020210443
103	0xbcc31a38	-0.023816213
104	0x3df4a2d3	0.11945119
105	0x3df1b556	0.11802165
106	0xbd7259d3	-0.059167694
107	0x3b04d8d7	0.0020270848
108	0xbcb424c3	-0.021990186
109	0x3d796d73	0.060895395
110	0xbc8eccf8	-0.017431721
111	0x3a9a8580	0.0011789054
112	0x3d4cc8dc	0.049996242
113	0xbd14a3a6	-0.03628888
114	0x3dde1ebd	0.108457066
115	0x3c831096	0.01599912
116	0xbd364222	-0.044496663
117	0x3d15782f	0.03649157
118	0xbcc21c00	-0.023694992
119	0x3d567ef5	0.05236717

weight f4 [84, 120]
0	0x3cee5ecd	0.029097939
1	0x3d7fe01a	0.06246958
2	0x3d8117a3	0.063033365
3	0x3d907246	0.07053046
4	0x3d371b0c	0.04470353
5	0xbd516d2c	-0.051129505
6	0xbd0c61cf	-0.034272965
7	0xbdaf44d7	-0.08558052
8	0xbb64af68	-0.003489459
9	0xbbbbca9e	-0.005730941
10	0xbd8aeb43	-0.06783154
11	0xbd6cdc68	-0.057827383
12	0xbd978d66	-0.074000165
13	0x3b51d910	0.0032020248
14	0xbd9d940a	-0.07694252
15	0x3d279db8	0.040921897
16	0xbd59aba7	-0.053142216
17	0x3cf8c8e8	0.030369237
18	0x3d5bbf15	0.053649027
19	0xbd73f5db	-0.059560638
20	0x3d6903e4	0.056888476
21	0xbcb22b75	-0.021749238
22	0xbd658cda	-0.05604253
23	0x3d3026cc	0.04300575
24	0x3ca74013	0.020416295
25	0xbdb10278	-0.08643049
26	0x3cdb8854	0.026798405
27	0x3c8f9607	0.017527593
28	0xbdb329e3	-0.08748224
29	0xbce1a3ab	-0.027543863
30	0x3d2ec85f	0.042671558
31	0xbd986df1	-0.07442845
32	0xbd1005ee	-0.035161905
33	0xbc9c3453	-0.019067919
34	0x3d7382e4	0.059451
35	0x3da7b557	0.08188885
36	0x3cd01ef3	0.025405383
37	0xbd395677	-0.045248475
38	0x3d64484d	0.055733014
39	0xbd1bdcc4	-0.038052335
40	0xbd59961e	-0.05312168
41	0xbd4227d9	-0.047401283
42	0x3db7ed92	0.0898086
43	0x3c86e969	0.01646872
44	0xbccebc27	-0.025236202
45	0xbd04b975	-0.032403428
46	0xbd90a9e8	-0.07063657
47	0xbd95ad5e	-0.07308458
48	0xbb0a189c	-0.0021071797
49	0xbc4b33ea	-0.012402514
50	0xbda4746b	-0.080300175
51	0xbd9ff040	-0.07809496
52	0x3d150e24	0.03639044
53	0x3d1e6bb4	0.038676932
54	0x3d38848e	0.04504829
55	0x3d662c2b	0.056194466
56	0xbd639722	-0.055564053
57	0x3d5ea0eb	0.054352682
58	0xbd7f01cb	-0.06225757
59	0xbd9fa31c	-0.077947825
60	0x3d0b4475	0.034000833
61	0xbd91b24a	-0.07114084
62	0xbd20a71a	-0.03922186
63	0x3bb0af56	0.0053919954
64	0x3d204885	0.03913166
65	0xbd2b5856	-0.04183229
66	0xbcbc5ad0	-0.022992522
67	0x3dab0d82	0.08352186
68	0xbcd9b5bd	-0.026575917
69	0x3c936b36	0.017995458
70	0xbd28943c	-0.041156992
71	0x3d4b5a0d	0.049646426
72	0xbdb17869	-0.086655445
73	0xbccb4f28	-0.024818018
74	0x3da1628d	0.07880125
75	0xbd8052db	-0.062658034
76	0x3d0ea190	0.034822047
77	0xbda7b8c9	-0.08189542
78	0xbdb39e66	-0.087704465
79	0xbd067863	-0.032829653
80	0xbd2f6b6e	-0.042827062
81	0xbc7c8907	-0.015413529
82	0xbda8a771	-0.08235062
83	0x3d6c3d76	0.0576758
84	0x3c8bda33	0.017071819
85	0xbdbbc0ae	-0.0916761
86	0xbcbb0740	-0.022830606
87	0xbdaea717	-0.085279636
88	0x3d3e62da	0.04648099
89	0xbc8e5858	-0.01737611
90	0x3db6c1e3	0.089237
91	0x3adc9490	0.0016828943
92	0x3cbf1e97	0.023330016
93	0xbd88ca98	-0.06679267
94	0xbc5ec63d	-0.013597068
95	0xbdb55323	-0.08853748
96	0xbd13b677	-0.036062684
97	0xbda4cad0	-0.08046496
98	0x3d4cb7e9	0.049980078
99	0xbca6e83d	-0.020374412
100	0xbd4b252d	-0.049596
101	0xbd79201a	-0.06082163
102	0xbcc04aa8	-0.023473099
103	0xbd60b6ae	-0.054861717
104	0x3db867c9	0.090041704
105	0xbd1df306	-0.038561843
106	0xbd8ca739	-0.06867833
107	0x3da3160e	0.07963191
108	0x3d9c8825	0.07643155
109	0x3c2b2dbc	0.010447916
110	0x3db10f4b	0.08645495
111	0x3adcaf99	0.0016837
112	0xbabacfc3	-0.0014252592
113	0x3bee67f2	0.007275575
114	0xbc95fbaf	-0.018308489
115	0xbd6fcf1e	-0.05854713
116	0x3c98d5f0	0.0186567
117	0x3c6b6255	0.014366706
118	0x3b9e2335	0.0048259743
119	0x3d845fea	0.06463607
120	0xbca11000	-0.01966095
121	0x3c295ff8	0.010337822
122	0xbe17dcfb	-0.14830391
123	0x3b1385ef	0.002251025
124	0x3d233ba2	0.039851792
125	0x3d6c5400	0.057697296
126	0x3c4303c0	0.01190275
127	0x3c488f92	0.012241261
128	0xbd77af31	-0.06046981
129	0xbe058485	-0.13038833
130	0xbd952ffe	-0.072845444
131	0x3d1e2b17	0.038615312
132	0xbdecc772	-0.11561479
133	0xbca2de12	-0.019881282
134	0x3daca013	0.08428969
135	0x3d8e81c5	0.06958345
136	0x3d52c503	0.051457416
137	0x3af9f33a	0.001906968
138	0x3d851c1f	0.06499504
139	0xbd295aa1	-0.041346196
140	0xbada5da2	-0.0016659985
141	0xbd77b280	-0.060472965
142	0x3d4f16fb	0.050559025
143	0x3d292bfc	0.041301712
144	0x3d989881	0.07450963
145	0xbcc2d608	-0.023783699
146	0xbd986f04	-0.074430496
147	0xbd63114b	-0.055436414
148	0xbc894aec	-0.016759358
149	0x3d8cae1c	0.06869146
150	0xbd6b9120	-0.05751145
151	0x3b8f1b9a	0.004367304
152	0xbe1df4f0	-0.15425467
153	0xbdc8ea23	-0.09810283
154	0x3ce077ad	0.027400816
155	0xbcc7631a	-0.024339247
156	0xbe41b7bd	-0.18917747
157	0xbdec0321	-0.11524034
158	0x3d82e0cf	0.06390535
159	0x3dad6d5b	0.084681235
160	0xbe644b46	-0.2229434
161	0x3d3fa35d	0.046786655
162	0xbdd4ceab	-0.10390981
163	0xbd57b4eb	-0.05266277
164	0xbd48ca5f	-0.04902112
165	0xbc81268f	-0.015765456
166	0xbd5b6e36	-0.053571902
167	0xbc81ca90	-0.01584366
168	0xbb053450	-0.002032537
169	0xbdd008a6	-0.101578996
170	0xbda2e06f	-0.079529636
171	0xbdd40283	-0.103520416
172	0xbe2c3f5e	-0.16821048
173	0x3c8b9501	0.017038824
174	0xbd034041	-0.0320437
175	0x3c35d2f3	0.0110976575
176	0x3db5531f	0.08853745
177	0xbdab0c0c	-0.08351907
178	0x3d4f2a36	0.050577365
179	0xbd4f9bc9	-0.050685678
180	0xbd22f71b	-0.03978644
181	0xbc9b5b79	-0.018964516
182	0xbdd9f831	-0.10643042
183	0x3d7b4270	0.061342657
184	0x3c4d6534	0.012536336
185	0x3d1ee6fd	0.038794506
186	0xbda42eeb	-0.080167614
187	0x3d9b3472	0.075783625
188	0x3deae5a6	0.11469583
189	0xbdf19f36	-0.11797945
190	0xbd53dd00	-0.051724434
191	0xbd2da168	-0.042390257
192	0xbd1e4048	-0.038635522
193	0x3d9616ec	0.07328591
194	0xbd1668ae	-0.036720924
195	0xbcfc1e97	-0.030776305
196	0xbd01834c	-0.031619355
197	0x3d6eda56	0.05831369
198	0xbd3c300a	-0.04594425
199	0xbd0c9de1	-0.034330253
200	0xbae2cd50	-0.001730362
201	0xbdb36ecc	-0.08761367
202	0xbd7384c8	-0.059452802
203	0xbd0296f2	-0.031882234
204	0xbdc08a4c	-0.09401378
205	0x3b2ef07f	0.002669364
206	0x3d154d27	0.03645053
207	0x3bf3729e	0.007429435
208	0xbd173e62	-0.036924727
209	0x3cc6f674	0.02428744
210	0x3d354c35	0.04426213
211	0x3d4aa0af	0.049469646
212	0xbd0ba735	-0.034095008
213	0xbd95d3cc	-0.07315788
214	0xbc5c764f	-0.013455941
215	0x3df6ee74	0.120572
216	0x3dd92678	0.106030405
217	0xbdae7dff	-0.085201256
218	0x3d95a1ec	0.07306275
219	0xbcb4ed98	-0.02208595
220	0x3d6288c3	0.055306207
221	0xbd35f49f	-0.044422742
222	0x3d89549b	0.0670559
223	0xbd9fac6d	-0.077965595
224	0x3de6c177	0.11267369
225	0xbce85880	-0.028362513
226	0x3d11f579	0.03563449
227	0xbc8a04b9	-0.016847955
228	0x3d3b8a4c	0.045786187
229	0x3bf5c990	0.0075008348
230	0xbd128bfe	-0.03577804
231	0xbd996bdb	-0.07491275
232	0xba52d228	-0.000804218
233	0xbdbd93e7	-0.09256726
234	0x3e24274d	0.16030617
235	0x3d95d3ab	0.07315763
236	0x3a88bbdd	0.0010431964
237	0x3c60d2db	0.013722147
238	0x38b3be91	8.570881e-05
239	0x3dc678d8	0.09691018
240	0x3d8c2dff	0.068447106
241	0xbd1c8f5f	-0.038222667
242	0x3cd4bd85	0.025969276
243	0xbde5741c	-0.11203787
244	0x3daeaa38	0.085285604
245	0x3cd832c5	0.026391396
246	0xbd943643	-0.07236912
247	0xbd93c250	-0.072147965
248	0xbd7b6078	-0.061371297
249	0x3c1ffc63	0.0097647635
250	0xbd596489	-0.053074393
251	0xbe046529	-0.12929215
252	0x3cebf33e	0.02880251
253	0x3d91f5d4	0.07126966
254	0x3d329e2a	0.04360787
255	0x3c025491	0.0079547325

bias f4 [84]
0	0xbb80bcfb	-0.003928778
1	0xbbde435d	-0.0067829327
2	0xbd545f68	-0.0518488
3	0xbdb84924	-0.089983255
4	0x3d0f4b2f	0.03498381
5	0xbd322947	-0.043496396
6	0x3e016371	0.1263559
7	0xbd96c680	-0.073620796
8	0xbda67b51	-0.081289895
9	0xbdb403ca	-0.08789785
10	0x3d709162	0.058732398
11	0xbcdef2ee	-0.027215447
12	0xbc848b92	-0.016179834
13	0xbd077a1d	-0.03307544
14	0xbd84eb59	-0.064902015
15	0x3d54158c	0.05177836
16	0xbd9025e3	-0.07038476
17	0x3e37a5ef	0.17934392
18	0x3dbfc343	0.09363415
19	0xbde1e96b	-0.11030849
20	0xbd8bccaa	-0.06826146
21	0xbe113e5a	-0.14183941
22	0x3c083e33	0.008315611
23	0xbd609579	-0.05483005
24	0xbd032a04	-0.03202249
25	0xbdb8d612	-0.09025206
26	0x3d9d6d3f	0.07686853
27	0xbd55d5e1	-0.052205924
28	0x3e40aa27	0.18814908
29	0x3c2c286c	0.010507684
30	0x3c0e3a3b	0.008680875
31	0xbd8311fc	-0.063999146
32	0x3e1c650e	0.15272924
33	0xbd898aa5	-0.067158975
34	0x3c295580	0.010335326
35	0x3dd8152d	0.10550914
36	0x3d943bb1	0.07237948
37	0x3d20ff68	0.039306074
38	0xbc123ff3	-0.0089263795
39	0x3db91517	0.09037226
40	0x3d225ec2	0.03964115
41	0x3d8b5f67	0.06805306
42	0xbd74356e	-0.059621267
43	0x3d83597b	0.064135514
44	0x3e0d9525	0.13826425
45	0xbe13054d	-0.14357491
46	0x3e55e465	0.20887907
47	0x3dabba14	0.08385101
48	0xbdb36f1f	-0.08761429
49	0x3dcef6af	0.10105645
50	0xbd727740	-0.059195757
51	0x3dc083d4	0.09400144
52	0x3dd8022f	0.105472915
53	0xbd9dfeb6	-0.07714598
54	0xbbbbe1b1	-0.0057336916
55	0x3d50893f	0.050912138
56	0x3d8a3cd7	0.067498855
57	0x3da9ae9a	0.08285256
58	0x3cbb50db	0.022865703
59	0xbdba2871	-0.09089745
60	0xbdbd5df1	-0.092464335
61	0xbdbacbeb	-0.091209255
62	0x3dbfd28a	0.09366329
63	0xbd2b3eb2	-0.041807838
64	0xbd4f2772	-0.050574727
65	0xbd3c53a0	-0.04597819
66	0x3b2ff394	0.0026848065
67	0x3dbd6d28	0.092493355
68	0x3d5df29e	0.054186456
69	0xbd17ae40	-0.037031412
70	0x3dbde5f0	0.09272373
71	0x3c810bec	0.015752755
72	0xbcc30957	-0.023808165
73	0x3d9c0557	0.07618206
74	0x3e7fec91	0.24992587
75	0xbcdebb03	-0.027188784
76	0xbd84ed99	-0.06490631
77	0x3d87ab66	0.066244885
78	0xbd805e81	-0.06268025
79	0xbd9842c0	-0.074346066
80	0x3c12ecca	0.008967588
81	0xbc1e8cb1	-0.009677098
82	0x3d8680a4	0.06567505
83	0xbc865c79	-0.016401516

weight f4 [10, 84]
0	0x3dc8d695	0.09806553
1	0xbe123c75	-0.14280875
2	0xbd86c7f0	-0.06581104
3	0xbcc32ad9	-0.023824142
4	0xbdb9e97f	-0.09077739
5	0xbd8f4686	-0.06995873
6	0x3bf038cb	0.007330989
7	0x3d83e595	0.06440274
8	0x3d022bc8	0.031780034
9	0xbe14f5de	-0.14546916
10	0xbd21b22e	-0.039476566
11	0x3d87cf8c	0.06631383
12	0x3dc9d329	0.09854729
13	0x3d3d6855	0.046242077
14	0xbd9b7d2d	-0.07592235
15	0x3e178eaf	0.14800523
16	0xbd53ddd4	-0.051725224
17	0xbaf9d7f3	-0.001906155
18	0x3e1cfefd	0.15331645
19	0x3c908c08	0.017644897
20	0x3d28b8fe	0.041192047
21	0xbd1405d6	-0.036138378
22	0x3c834c1a	0.016027499
23	0x3dab4bf3	0.083640955
24	0xbdb5628e	-0.088566884
25	0x3da17df8	0.07885355
26	0xbe832c70	-0.2561984
27	0xbd6260b2	-0.055267997
28	0x3dd32f4d	0.10311756
29	0xbe2b7a32	-0.16745833
30	0xbddd37ba	-0.108016446
31	0x3cd92346	0.026506077
32	0x3df1677a	0.11787315
33	0x3dd42c02	0.10359956
34	0x3c5c6d5e	0.01345381
35	0x3dc4cba8	0.09609157
36	0x3e70c7cf	0.23513721
37	0x3d648e2b	0.055799644
38	0x3b0ddc41	0.0021646174
39	0x3d80ee9e	0.062955126
40	0x3d75bea0	0.059996247
41	0x3d1b59ea	0.037927546
42	0xbdeecf92	-0.11660685
43	0x3e69c6b5	0.22829707
44	0x3e6f0840	0.23342991
45	0xbe0159ff	-0.12631987
46	0x3e2717f9	0.16317739
47	0x3dee80c8	0.11645657
48	0x3dc2f5ae	0.09519516
49	0xbe82f8fd	-0.25580588
50	0x3e036888	0.12832844
51	0x3e2af288	0.16694081
52	0xbd413e98	-0.047178835
53	0x3d0039e4	0.03130521
54	0xbd2a3efe	-0.04156398
55	0x3e829d8b	0.2551082
56	0x3d9f946c	0.07791981
57	0xbd34d6bc	-0.0441501
58	0x3df13ff8	0.11779779
59	0xbd0aff5f	-0.033934947
60	0xbd58ff9d	-0.052978147
61	0x3d38cadf	0.045115348
62	0xbd286fda	-0.041122295
63	0xbcb495ca	-0.022044081
64	0xbdd3faeb	-0.10350593
65	0x3e1e50d2	0.15460518
66	0xbde82eef	-0.11337077
67	0xbdb4e400	-0.0883255
68	0xbe3967fc	-0.18106073
69	0xbcf57d8a	-0.029967088
70	0x3c964fd9	0.018348621
71	0xbe45cb1f	-0.19315766
72	0x3e2b3b33	0.16721801
73	0xbd463bbf	-0.048396822
74	0x3f12757a	0.57210505
75	0x3c93e658	0.018054172
76	0xbd86a540	-0.06574488
77	0xbd0b19c8	-0.033960134
78	0xbe1a4f56	-0.15069327
79	0xbd66923d	-0.056291807
80	0xbce30a10	-0.02771476
81	0xbe1e0e0f	-0.1543505
82	0x3c4f977f	0.012670397
83	0x3d024ca6	0.03181138
84	0x3d503262	0.0508293
85	0xbd575568	-0.052571684
86	0x3dd21c66	0.10259323
87	0xbbd95442	-0.0066323588
88	0x3d308adf	0.043101188
89	0xbe56ee76	-0.20989403
90	0x3cfeb4a6	0.031092
91	0x3dd635ed	0.10459504
92	0xbc1c939f	-0.00955668
93	0x3d5a44bc	0.053288206
94	0xbd6f633d	-0.05844425
95	0xbd0e9c15	-0.03481682
96	0x3c0f4d96	0.008746525
97	0x3d2b4eb6	0.04182311
98	0xbd870b72	-0.0659398
99	0xbe4c12ff	-0.19929121
100	0xbdd68aa9	-0.10475666
101	0xbe543476	-0.20723137
102	0xbda5be8c	-0.080929846
103	0xbe2a397c	-0.16623491
104	0xbcfe8fe4	-0.031074472
105	0xbe024101	-0.1272011
106	0xbde25128	-0.110506356
107	0xbd39a87b	-0.04532669
108	0xbdac5ab8	-0.08415741
109	0x3db544cd	0.08851013
110	0xbdf24ebe	-0.11831425
111	0x3d4f5dfe	0.050626747
112	0xbdfc38ac	-0.12315497
113	0xbc02cfb1	-0.007984088
114	0x3c862d5b	0.016379049
115	0xbd9abec5	-0.07555918
116	0x3d46b201	0.0485096
117	0xbd934e88	-0.07192713
118	0xbd1d59f2	-0.038415857
119	0x3eb9eb71	0.3631244
120	0x3d8f9a4c	0.07011852
121	0x3dc1b577	0.0945844
122	0xbca2a0b1	-0.019852014
123	0x3e99f5d9	0.3007038
124	0xbc6d6495	-0.014489313
125	0xbdfb9a59	-0.12285299
126	0xbd2081fc	-0.039186463
127	0x3df6fc4d	0.12059841
128	0xbd91654a	-0.070993975
129	0x3ea40252	0.3203302
130	0xbe27399d	-0.16330571
131	0xbe329235	-0.17438586
132	0xbe18473a	-0.14870921
133	0xbe519d60	-0.2047019
134	0xbdfa4b31	-0.12221373
135	0xbca7dbab	-0.020490488
136	0xbdf730b8	-0.12069839
137	0xbdb2e126	-0.0873435
138	0xbcab95c4	-0.020945437
139	0x3e2c189a	0.1680626
140	0x3f0a5720	0.5403919
141	0x3c069b38	0.008215718
142	0x3db25c37	0.08708995
143	0x3dd25306	0.10269742
144	0xbc25c548	-0.010117836
145	0x3cd45c98	0.025923058
146	0xbe17f877	-0.14840876
147	0xbd51b7c9	-0.05120066
148	0xbd422f03	-0.047408115
149	0x3dbb684a	0.09150751
150	0xbac87c1b	-0.0015295775
151	0xbe3255b7	-0.1741551
152	0x3e698b27	0.22806989
153	0x3dc32aa2	0.09529616
154	0xbd7877b8	-0.060661048
155	0xbe263a6c	-0.16233224
156	0xbe0a520b	-0.1350786
157	0xbdd4c35c	-0.10388824
158	0xbe96ab7c	-0.29427707
159	0xbd8a51be	-0.06753872
160	0x3d89ecbe	0.06734608
161	0x3e6163a7	0.2201067
162	0xbb698976	-0.0035634912
163	0xbb14764b	-0.0022653516
164	0x3be173fc	0.0068802815
165	0x3e7b8500	0.24562454
166	0xbde79d00	-0.11309242
167	0xbdbbe5a8	-0.09174663
168	0x3cf242e5	0.029572913
169	0xbe3c69b8	-0.18399704
170	0x3dd818f9	0.10551638
171	0x3cbe4b55	0.02322928
172	0xbdc04ade	-0.0938928
173	0xbd9e308f	-0.077241056
174	0x3cb7b11f	0.022423325
175	0xbda204be	-0.07911061
176	0xbdcd35cb	-0.10020026
177	0xbd29ac43	-0.041424047
178	0x3de46a63	0.11153104
179	0x3ca3014d	0.019898081
180	0xbdbbf921	-0.09178377
181	0xbdbec1f1	-0.09314335
182	0xbe06309e	-0.13104483
183	0x3e76a921	0.24087955
184	0xbd65f86b	-0.056145113
185	0xbe72d822	-0.2371526
186	0x3e6b3d7b	0.22972672
187	0x3d8b3aab	0.067982994
188	0x3c8cd901	0.01719332
189	0xbd8aa486	-0.067696616
190	0x3e1cd813	0.15316801
191	0x3d06d1cd	0.032914925
192	0x3da49309	0.08035857
193	0x3cfd4447	0.030916346
194	0x3eb1dddb	0.34739575
195	0x3d961af7	0.07329362
196	0x3c8a1e0b	0.016860029
197	0xbc56eb21	-0.013117583
198	0x3d22e056	0.039764725
199	0x3db55f94	0.08856121
200	0x3ec46d9f	0.38364884
201	0x3d3e2e4d	0.046430875
202	0xbcd755df	-0.026286064
203	0xbd1c0a33	-0.038095664
204	0xbdbd2516	-0.09235589
205	0xbe2efd37	-0.17088781
206	0xbd30a5c9	-0.043126855
207	0xbe1f2abe	-0.15543649
208	0x3de750c1	0.112946995
209	0xbc5fa7e0	-0.013650864
210	0xbdb442ff	-0.08801841
211	0xbd129ad0	-0.035792172
212	0xbe1526e1	-0.14565612
213	0x3e110abd	0.14164253
214	0x3ea940ad	0.33057156
215	0x3e5246ba	0.20534793
216	0x3dbe55c4	0.09293702
217	0xbd8776fc	-0.06614491
218	0x3c8a994a	0.016918797
219	0xbe8b7ca5	-0.27243534
220	0xbe0f67d0	-0.14004445
221	0x3d8da2d6	0.06915824
222	0x3c7bba68	0.015364267
223	0xbe551915	-0.2081035
224	0xbe669b71	-0.22520234
225	0x3ee0a140	0.43873024
226	0x3e3e0acb	0.18558805
227	0xbddc09dd	-0.10744069
228	0xbe363ae8	-0.17795908
229	0x3d28cb28	0.04120937
230	0xbd4e825c	-0.05041729
231	0x3cc551e8	0.024086908
232	0xbdde3ab5	-0.10851041
233	0xbe5e261b	-0.21694224
234	0xbd97690f	-0.07393085
235	0xbc9cae6f	-0.019126145
236	0xbdf5eafb	-0.120077096
237	0xbd06968d	-0.03285842
238	0x3e837c92	0.25680977
239	0xbd4adec6	-0.04952886
240	0xbe3c53ba	-0.18391314
241	0xbe6daae3	-0.2320972
242	0x3e4d14be	0.20027444
243	0xbc2457ea	-0.010030726
244	0xbdd7d2a5	-0.10538224
245	0x3d2d6ba6	0.04233899
246	0xbdd490c8	-0.10379177
247	0xbdc6fbd9	-0.09716005
248	0xbdc612d3	-0.09671559
249	0xbe9d0b25	-0.30672565
250	0x3e594448	0.21217453
251	0xbd996da7	-0.07491618
252	0x3db24f6f	0.08706557
253	0xbd7adf45	-0.061248083
254	0xbc5d99eb	-0.013525466
255	0x3d3e5587	0.046468284

bias f4 [10]
0	0x3ca11dfa	0.019667614
1	0xbe0f06af	-0.13967393
2	0x3dfdcd95	0.12392727
3	0x3d62ab53	0.05533917
4	0xbef9d9c8	-0.48798966
5	0x3e240fe1	0.16021682
6	0x3e6df299	0.23237075
7	0x3d2b34ac	0.04179828
8	0xbda8e72f	-0.0824722
9	0xbe9753a1	-0.2955599
