Models/Test/BasicModel.pth (torch, 183723 bytes, 10 tensors)

weight f4 [6, 3, 5, 5]
00000000: aeef 00c0 835b 0ec0 32eb 10c0 bcba 13c0
00000010: 7f84 1ac0 7bf5 06c0 5375 0dc0 3206 17c0
00000020: 8445 17c0 648b 23c0 5f38 15c0 90cb 11c0
00000030: 870a 22c0 944d 21c0 3252 24c0 392b 1ec0
00000040: 6175 1dc0 6fe2 2ac0 8416 38c0 d3ed 2fc0
00000050: d558 22c0 f21d 25c0 5b9f 2dc0 4294 3bc0
00000060: 0351 32c0 05af 04c0 f824 0cc0 9d76 10c0
00000070: aed2 1ac0 5619 1cc0 319c 0ec0 84f7 0bc0
00000080: ca31 1ac0 4074 21c0 5cec 26c0 5c70 0fc0
00000090: fcb2 1ac0 1cc8 1dc0 14e0 21c0 8214 26c0
000000a0: 9962 15c0 ccbf 20c0 6c5f 24c0 7034 2cc0
000000b0: ebfe 2ec0 8dfd 1cc0 d7c0 1fc0 b3b6 2bc0
000000c0: 7666 32c0 b813 35c0 a012 00c0 975c 09c0
000000d0: 8cdd 10c0 7248 1cc0 10c7 19c0 3efd 05c0
000000e0: 8f3b 0cc0 7ed6 1ac0 fb98 23c0 9bef 1dc0
000000f0: 7d22 10c0 d9ae 16c0 d0fb 1ac0 af54 27c0
00000100: f4c3 2bc0 2459 15c0 cc4b 16c0 a4e1 25c0
00000110: 046f 2fc0 4330 34c0 9f0f 27c0 1e83 2bc0
00000120: dd65 33c0 9fb2 31c0 fa15 3cc0 3308 f7bd
00000130: 052d 703d d184 1abb 3ca8 3fbd 82f3 f7bd
00000140: b595 61bc f8b7 d1bd 0068 aabd 42de cbbd
00000150: 3c5c ddbf 3659 6e3d 5989 7c3c 4cda e0bd
00000160: bea3 46bd 5985 6ec0 5625 ddbd f573 c2bc
00000170: ffe2 dcbd 0189 febf 4b1e 54c0 6352 abbf
00000180: 993a 4ebf 1246 cabe 18f2 83c0 0ff9 79bf
00000190: 2a31 4d3c 9d45 973d 5828 dc3c 8e15 c5bb
000001a0: b9bd 79bd 4201 c03d b8b5 78bc 8c73 73bd
000001b0: e250 c83c c864 e7bf edbe 65bd 0c1d f13b
000001c0: 214a 34bd cd49 dcbd fbaa 6dc0 6dda c3bd
000001d0: 3eca abbd b9fa e1bd 697c 03c0 a474 55c0
000001e0: a97a a9bf 79ec 5cbf 7410 e1be fc23 85c0
000001f0: 5b48 96bf 1f4a babd a049 8dbd deb9 90bd
00000200: 6ab1 cebd 3d7a 50be a4f5 3d3c c844 9a3d
00000210: f99f 10be 2056 3d3d f443 d5bf d4d2 99bd
00000220: 7015 ecbc 63b6 2a3d 327b ecbc a34b 77c0
00000230: b8a8 573c c03c a63d 9bdd 93bc 58b4 fdbf
00000240: cde0 5ac0 1d56 a4bf 579f 58bf 8862 ebbe
00000250: 6ee7 82c0 f55f 87bf b47b 0fbf 4761 2fbf
00000260: c305 1abf 304a 21bf f94c 27bf ff96 1abf
00000270: e842 2cbf 09c6 3fbf 6947 1cbf f7c6 4abf
00000280: 537e 36bf 5712 2bbf 3856 2abf b117 2bbf
00000290: 93b3 56bf 868a 22bf 305c 3fbf 1059 2cbf
000002a0: 825e 3abf a9df 4cbf f001 49bf 3a2f 36bf
000002b0: 47e2 47bf e52d 5ebf 4eeb 53bf 223d 20bf
000002c0: 1d81 17bf c7a3 0bbf 47fd 36bf f9ad 2dbf
000002d0: f583 16bf b2c1 35bf 1c30 36bf 7917 35bf
000002e0: 74a1 3abf cdf2 04bf 6c27 33bf 679c 47bf
000002f0: 53ee 31bf f4e0 24bf 04c9 33bf 3618 36bf
00000300: 503b 4fbf b783 38bf d66c 32bf 89f2 33bf
00000310: dbd5 57bf 1f7c 3fbf bb21 51bf ff02 6dbf
00000320: 2d17 03bf 27bb 28bf 8e08 1abf 1539 1cbf
00000330: 0640 1bbf 55f7 20bf 9316 1dbf 78af 14bf
00000340: c70d 25bf b918 26bf 4445 1ebf 2eb6 27bf
00000350: 9ed8 14bf f629 3fbf 779f 38bf 5984 2ebf
00000360: 2475 49bf f53a 36bf 40c7 3dbf 12d6 4bbf
00000370: c5c1 29bf 35ad 5cbf a765 3fbf de8f 35bf
00000380: 40b8 3ebf 9296 5fbf 3679 73bf e043 81bf
00000390: be86 5bbf a4cf 71bf 6cf7 66bf f82c 7cbf
000003a0: ca4d 78bf 7c24 7dbf 1dd6 6cbf 811f 78bf
000003b0: 0688 68bf 9fea 73bf 1144 77bf ec09 6ebf
000003c0: 0efc 7ebf 1785 5bbf dab1 7cbf 71e0 86bf
000003d0: d38f 65bf 0330 70bf fa2b 6ebf d7ac 4fbf
000003e0: 59a6 56bf b41c 61bf d7db 81bf 0c85 7bbf
000003f0: 1e99 80bf 2197 82bf a787 70bf aa19 5ebf
-2.014629 -2.2243354 -2.2643552 -2.3082724 -2.414337 -2.108733 -2.210286 -2.3597531
-2.363618 -2.5553827 -2.3315656 -2.2780495 -2.5318925 -2.52036 -2.5675168 -2.471388
-2.4602892 -2.6700704 -2.8763742 -2.7488906 -2.5366719 -2.5799527 -2.7128513 -2.930924
-2.7861946 -2.0731823 -2.1897564 -2.2572396 -2.4191089 -2.4390464 -2.2282832 -2.1869822
-2.409289 -2.5227203 -2.6081762 -2.2412329 -2.4171743 -2.4653387 -2.5293016 -2.5950017
-2.334143 -2.5117064 -2.568324 -2.6907005 -2.734309 -2.4529755 -2.496145 -2.683026
-2.7875037 -2.8293285 -2.0011368 -2.1462762 -2.2635221 -2.4419217 -2.4027748 -2.0935817
-2.1911352 -2.4193416 -2.5562122 -2.4677494 -2.252105 -2.3544219 -2.4216194 -2.6145437
-2.683835 -2.3335657 -2.3483763 -2.591897 -2.7411509 -2.8154457 -2.6103284 -2.6798778
-2.8030922 -2.7765272 -2.9388413 -0.12062111 0.058636684 -0.00235777 -0.0467913 -0.12106992
-0.013768603 -0.102401674 -0.08320618 -0.09954502 -1.7293773 0.058190547 0.015413606 -0.10979137
-0.048496 -3.726889 -0.10798137 -0.023736933 -0.107854836 -1.988556 -3.314349 -1.3384517
-0.8055816 -0.39506584 -4.1233025 -0.9764566 0.012523929 0.073863246 0.026874706 -0.0060145324
-0.06097195 0.0937524 -0.015180044 -0.059436366 0.02445263 -1.8077631 -0.056090284 0.007358199
-0.044016007 -0.10756264 -3.7135608 -0.09563146 -0.08388184 -0.1103415 -2.0544684 -3.3352442
-1.3240558 -0.8629833 -0.43957865 -4.1606426 -1.1740831 -0.09096169 -0.068988085 -0.07066701
-0.10092433 -0.2035913 0.01159421 0.0753265 -0.14123525 0.046224713 -1.6661363 -0.075109154
-0.028818816 0.041677844 -0.028867338 -3.8639915 0.013162784 0.08117056 -0.018050006 -1.9820662
-3.4199708 -1.283878 -0.84618133 -0.4597361 -4.0907507 -1.0576159 -0.5604813 -0.6850781
-0.6016504 -0.63003826 -0.65351826 -0.6038665 -0.6728959 -0.7491155 -0.61046463 -0.79209846
-0.71286505 -0.6682486 -0.6653781 -0.66833025 -0.8386776 -0.6349262 -0.7475004 -0.673234
-0.7280046 -0.8002878 -0.7851858 -0.7116581 -0.78079647 -0.8678878 -0.8278092 -0.6259328
-0.59181386 -0.5454678 -0.7148022 -0.67843586 -0.587951 -0.7099868 -0.7116716 -0.7073894
-0.7290261 -0.51932985 -0.6998203 -0.77973026 -0.6950428 -0.6440575 -0.702286 -0.7113069
-0.8094988 -0.7207598 -0.6969732 -0.70291954 -0.8431069 -0.7479877 -0.81692094 -0.92582697
-0.5120724 -0.6591057 -0.60169303 -0.610246 -0.60644567 -0.628774 -0.6136257 -0.58080244
-0.6447415 -0.64881474 -0.6182444 -0.6551236 -0.5814303 -0.746734 -0.72118324 -0.68170696
-0.7869437 -0.7118371 -0.74132156 -0.7962352 -0.66311294 -0.8620179 -0.74764484 -0.7092265
-0.74499893 -0.8733913 -0.9510683 -1.0098839 -0.85752475 -0.9445746 -0.90221286 -0.98506117
-0.96993697 -0.98883796 -0.9251421 -0.9692307 -0.90832555 -0.9527988 -0.96588236 -0.9298389
-0.99603355 -0.85749954 -0.9870888 -1.0537244 -0.89672583 -0.9382326 -0.9303585 -0.8112311
-0.83847576 -0.8793442 -1.0145215 -0.9824989 -1.0046728 -1.0202371 -0.9395699 -0.8675791

bias f4 [6]
00000000: 3e44 a9c0 2e73 93c0 c2c9 c7bf 2fbb e9bf
00000010: 73f3 20c1 dc98 02c0
-5.2895803 -4.60781 -1.5608447 -1.8260249 -10.059436 -2.0405798

weight f4 [16, 6, 5, 5]
00000000: 2c08 a33a 84d3 7dbd df9e 8bbc 5104 093c
00000010: 3b03 24bd 25c0 eabc 94cb 3dbd 2331 8bbd
00000020: c53d 9abd fdb1 293d 61a6 d3bc eefc a23c
00000030: 1ab6 2dbd 36fd 35bc c14b 433d 8286 03bd
00000040: be46 113d 80af 4abd 2b0d 8b3d f8e7 57bd
00000050: 434e b1ba 342d 113d 24bd d73c ebdf 7c3d
00000060: 06d5 893d 7444 81bd 3a5c ee3a d162 873d
00000070: 6f04 f03b c42a 8f3d 0464 9fbd 511b 2bbd
00000080: b423 6abd bafc 32bd be54 3b3d 3669 12bd
00000090: b07e 7b3d 0fc1 61bd 8d3b 62bd 2785 95bc
000000a0: 7e8b 773d f1e3 dc3b d084 02bc f3f0 983c
000000b0: 9079 5c3d fd66 6dbc 03c8 2abc d405 1bbc
000000c0: d3f1 b9bc ef17 863c 7d09 413d 23fc 8bbb
000000d0: 675c 1f3c f414 4bbd 4ed2 c1bc 8a49 083c
000000e0: 98ae 823d 4b29 863b 110a 4cbd 2f4f 933d
000000f0: 0820 963d e484 8a3d e6ff 243d fd78 e8bc
00000100: dcdd 3ebd 1693 8bbc 3096 b1bd 472a e13c
00000110: 8d1f 353d 2340 e83c d957 45bd 9a76 b03d
00000120: 65cb d63c b212 9d3a 5552 6dbd 6447 33bd
00000130: 529e 5f3d 3622 3fbd 095e 5dbd 23d6 853d
00000140: e3e4 843d 5022 ccbc dcc5 733d 7d96 b1bd
00000150: 91ec 89bd 1b46 333d a2b9 563d 64d6 893b
00000160: 0a44 703d c7b9 cdbb e0aa 40bd 16cc d1bc
00000170: 3f0b 9d3d 1577 98bd a10d 94bd 2f2a 18bd
00000180: 287d 64bc 03fa 89bd c71e 50bd 1bdf 5a3d
00000190: 33ff 28bd 31f2 00be dc45 d1bd 0de7 8bbe
000001a0: f773 74be e13b a0bd 93b1 0dbe eb56 11be
000001b0: aaad 1cbe bad3 8abe fa45 a6bd ca27 ddbd
000001c0: 39a0 63be 4f69 38be 47e4 edbd e588 3cbd
000001d0: 5c7e c53c f02f 9abd 6e13 e9bd c5b2 6cbe
000001e0: 498d bfbb 56ef 90bd 1ec8 ffbd 05a0 17be
000001f0: 03c6 c6bd dc9d ca3c 87d5 a1bd feef 83bd
00000200: 5623 edbb a854 8e3a 087b 863c e94f a13c
00000210: fd37 34bd beb3 893c c515 77bd 5e04 6b3d
00000220: 1094 86bc 7352 26bc 7cfa e9bc 7d31 813c
00000230: af6b a5bd a894 a4bd d5c9 05bd 41fa 833d
00000240: 82e8 563d f41c 68bb d93e a4bd 85a7 273c
00000250: 3b9a 683d 6227 23bd 52a3 02be 8ed3 2abe
00000260: 8b74 00be d06f 1fbe 9d10 05be 13ba 1dbe
00000270: 2990 89bd 43b7 04be 3d50 4abe 8d0c 6dbd
00000280: 39af 58bd e33e d4bd 1943 33be 0f83 22be
00000290: d41e 2bbe bf2f f6bd 0d35 25be ee15 66bc
000002a0: df0d bebd d722 02bd 6ec9 69bd 7b74 85bd
000002b0: 3b93 80bd 2df0 89bd 6854 f73c 140c d6bc
000002c0: a29f 96bd bdee 47bd 14cc 623d 1f76 a9bd
000002d0: 6464 9e3d 38f1 ae3b 801f 1ebd c646 8ebd
000002e0: 5738 9abd 4367 cfbc 9d6f e23c 4c4f d7ba
000002f0: 28de a7bc 6f90 55bd 6396 a83c 4508 ac3d
00000300: 785e 4b3d 03e0 4ebc f3a9 363d 7c7b 373d
00000310: 1384 763d b290 90bc 984c 733c c8a7 073d
00000320: 5360 83bb e257 c6bd 4dfe 8cbd be2a ecbc
00000330: d10b 6dbd 19f4 f1bd 2800 80bd 9d45 2fbc
00000340: 0a02 50bd 59f9 dcbd 88e5 523c d428 89b8
00000350: d142 8dbd b1ae 223c a6a4 d6bd 8cdf 8abd
00000360: 345b d03c 0123 1bbc 6efd b63a 96ff 2e3d
00000370: a6ac 353d dbd3 8abd 2e38 a6bd d529 cbbd
00000380: 335b e23c 4c88 34bd 1957 b1bc 5d82 38bd
00000390: 53ca 573c c2b0 b6bc 23d9 043d 0083 493c
000003a0: 0cf9 1ebd a7de 80bd 74d9 d6bd cdf6 45bc
000003b0: 7ce5 e9bd 374e 663c 096e c0bd 3300 99bc
000003c0: 5f30 d1bd a4dc 9b3c 7e24 99bd 58fb 8abd
000003d0: e059 35bd 171f c2ba a30c 12bd e57e 75bd
000003e0: f95e 2bbd 3a23 5ebd fbf1 c03c b627 febc
000003f0: 4b0c 3e3b e9c2 abbd fbf6 74bd 75c2 b9bd
0.0012438348 -0.061969295 -0.01704353 0.0083628455 -0.040042143 -0.028656075 -0.046336725 -0.067964815
-0.07531313 0.04142951 -0.025836172 0.019895997 -0.042409994 -0.0111077335 0.047679666 -0.0321107
0.035467856 -0.049483776 0.06789621 -0.052711457 -0.0013527352 0.0354435 0.026335306 0.061736982
0.06730084 -0.063118845 0.0018185445 0.066106446 0.0073247473 0.06990579 -0.07782748 -0.041774098
-0.057162955 -0.04369805 0.045735113 -0.03574487 0.061400115 -0.055115756 -0.055232573 -0.018251969
0.060435764 0.00674104 -0.007966235 0.018669581 0.05382687 -0.014489886 -0.010423663 -0.009461839
-0.022698319 0.016368834 0.04712819 -0.0042720004 0.00972662 -0.04958053 -0.023659851 0.008318314
0.06380957 0.004094278 -0.049814288 0.071928374 0.07330328 0.06763628 0.040283106 -0.028378004
-0.0465983 -0.01703791 -0.08671224 0.02748598 0.044219542 0.028350895 -0.04817948 0.086163715
0.026220033 0.0011983721 -0.057939846 -0.043769255 0.054594345 -0.046663485 -0.054044757 0.06534984
0.06488969 -0.024918705 0.059514865 -0.086712815 -0.067345746 0.04376803 0.052423127 0.0042064656
0.058658637 -0.00627825 -0.04703796 -0.025610011 0.07668161 -0.07444588 -0.07229162 -0.037149604
-0.013945855 -0.06737139 -0.0508106 0.053435426 -0.041259002 -0.12592389 -0.10218403 -0.27324715
-0.23872362 -0.07823921 -0.1383727 -0.14193313 -0.15300623 -0.2711466 -0.08118816 -0.10798605
-0.22229089 -0.18008922 -0.11615806 -0.04602899 0.024108104 -0.075286746 -0.11380659 -0.2311507
-0.0058457 -0.070769 -0.12489341 -0.14807136 -0.097057365 0.024733476 -0.07902055 -0.06442259
-0.0072368784 0.001085897 0.016416088 0.019691424 -0.043998707 0.01680934 -0.060323495 0.05737721
-0.016428024 -0.010151493 -0.028561823 0.015770668 -0.0807718 -0.080361664 -0.032663185 0.064442165
0.05246783 -0.0035417648 -0.080198 0.010232811 0.05678771 -0.03983248 -0.12757614 -0.16682264
-0.12544458 -0.15569997 -0.12994619 -0.15403013 -0.067169495 -0.12960534 -0.19757171 -0.057873297
-0.05290148 -0.10363557 -0.17506064 -0.15870307 -0.16710979 -0.120208256 -0.16133519 -0.014043314
-0.092799895 -0.031771507 -0.057076864 -0.065163575 -0.06278082 -0.06735263 0.030191615 -0.026128806
-0.07354666 -0.048811663 0.055370405 -0.08274483 0.07733992 0.005338814 -0.03860426 -0.06947093
-0.07530277 -0.025317794 0.027641112 -0.001642683 -0.020491675 -0.052139696 0.020579522 0.08400015
0.04965064 -0.012626651 0.04459567 0.0447955 0.06018455 -0.017647121 0.014849804 0.033118993
-0.0040092855 -0.09684731 -0.068844415 -0.028828975 -0.057872597 -0.11814136 -0.0625003 -0.010697749
-0.050783195 -0.10789747 0.012872107 -6.540274e-05 -0.0689751 0.009929345 -0.10480623 -0.067809194
0.025434114 -0.009468795 0.0013961026 0.042724214 0.044354104 -0.067786895 -0.08116184 -0.09920088
0.027631378 -0.044075295 -0.021647977 -0.0450462 0.013170796 -0.022301082 0.03243364 0.012299299
-0.03881173 -0.062924676 -0.10490695 -0.012082768 -0.11420724 0.014056734 -0.093959875 -0.018676853
-0.10214304 0.019026108 -0.074776635 -0.06786221 -0.044275165 -0.0014810291 -0.035656583 -0.05993547
-0.04183862 -0.054232813 0.023552885 -0.031024795 0.0028999026 -0.083867855 -0.05980585 -0.09070293

bias f4 [16]
00000000: 8d06 53be e27c a8bd 5163 63bf c409 43bf
00000010: 5728 d8c1 e3e0 0ac0 aef6 2bbd c60b 92bf
00000020: a944 b2bd f87f eebe e8d0 95be ad66 88be
00000030: e539 babf 3f95 9bbe ce8f 1ebe 7b05 a6c6
-0.20607968 -0.082269445 -0.8882342 -0.76186776 -27.019697 -2.169976 -0.0419833 -1.1409843
-0.08704502 -0.46582007 -0.29260945 -0.26640835 -1.4548918 -0.30387303 -0.15484545 -21250.74

weight f4 [120, 256]
00000000: fd6e 73bd fb38 953c 66fc 423d 3e55 663d
00000010: 10b2 f63c db22 f5bc 27c0 9cbb 1859 69bd
00000020: b075 433d 0548 04bd adc4 243d 362e 713d
00000030: 63a8 243d 885c 423d f502 94bc 398b e03c
00000040: 72f3 62bd ae0f 79bd 36a3 43bd 3dcc 74bd
00000050: 0cb6 433d 55d8 6bbd e120 0f3d 4e91 35bc
00000060: 91b1 3cbc dfb2 73bd 0225 aebc 2153 63bd
00000070: 0427 b33c 8ebb 48bc d6c0 c7bc dd1f 96bc
00000080: 6749 04be bbe7 01be dfe1 8dbe dd58 35be
00000090: 845c f5bd f733 44be aa95 4ebe 11ad 8bbe
000000a0: 0b37 d4bd 9d72 48be 8554 8dbe 0a88 33be
000000b0: 8381 fdbd d9aa 51be 7dd1 2dbe 9fbe 3dbe
000000c0: 76e1 88bd a662 1ebe 8039 85be 9eb1 44be
000000d0: 5baa cbbd 955f 0dbe aa71 24be d32b 23be
000000e0: f241 b6bd 675a 40be 0408 5cbe d5ea 1cbe
000000f0: e802 b2bd 5af2 69be fb89 28be 3f45 28be
00000100: 2753 3bc3 122a 5dc3 28f1 59c3 d13d 1bc3
00000110: 591e 52c3 cb23 69c3 450d 6cc3 9d7e 39c3
00000120: 1b3e 57c3 2377 68c3 ff7b 6cc3 6ec4 3dc3
00000130: 01f8 5ac3 a896 71c3 f5b9 70c3 02d5 36c3
00000140: 17da 4a3c 856b 8cbd cc2c a5bd f0be 9dbd
00000150: b62a 70bd 2e97 79bd 6316 23be ed6a 0dbe
00000160: 0fe8 27bd 2591 1abe fc0e 2ebe 1df9 61be
00000170: 12a0 3ebd 75f8 4abe 020e 46be 850e 3bbe
00000180: e8d6 f53c 2abf d23c d68b 893b 9ec8 013d
00000190: 1260 0e3d f0ee b7bc efbe 8b3c 9aea 9d3c
000001a0: f4aa bebc b08e e53c c013 23bd fa6d 45bd
000001b0: 9f1b 64bd a0bd 803c 522c 2b3d ae3e 10bd
000001c0: 1a7d 53bc d1e4 ecbd 8e13 36be 6f81 5dbe
000001d0: 7f59 35bd dd65 16be af79 28be af5d 66be
000001e0: 8949 54bd 71f9 8ebd b39d 39be 24f2 18be
000001f0: dc18 81bd 50cd a6bd 5f77 2ebe e553 67be
00000200: ce70 583d 4c8b 713d 5bc4 103d 0f44 13bd
00000210: 5a6b cdbc a562 dcbc a7d7 80bc 87a2 903c
00000220: 09de 163d cb79 313d 8204 323d 8388 57bd
00000230: 1359 debc b345 2abc 4d6d 27bd cc19 3dbd
00000240: b584 2b3d 2e6f 73bd e1c0 4a3b a669 253c
00000250: 0542 fabc 6b71 52bd 125b 0fbd 23c7 973c
00000260: 1b1c 6dba 9ac0 1f3d 6867 9dbc 36df a53c
00000270: 1c5f 233c 0d40 a8bb d954 0f3d 727b 4d3d
00000280: 65a6 543c 3b8d 02bd 6d90 c93c f5da 1abd
00000290: 9459 04bc 2218 73bd 6a77 8f3a 7404 6ebc
000002a0: 5e1f a2bb 1b70 ae3c 1ba9 0a3c 05a7 44bd
000002b0: 0c0f 8ebc ea50 653d 8cb0 a73c c030 173d
000002c0: 94ea ecbb aa14 c43c 6997 953a 5441 813d
000002d0: 124f b4bc f45c 4bbd 55a7 56bd c577 5d3c
000002e0: 4b57 3cbc 3a25 4fbd c279 eebc ca8f 803a
000002f0: 9743 46bd 2512 8dbc 2b33 6d3d 36b2 51bd
00000300: a549 98bc 3540 a8bc 2052 adbc 9431 4abd
00000310: 7d99 70bd fc33 4c3d c0a8 48bd dc86 46bd
00000320: 4037 343d 5065 cb3b 60ea 613d 5f04 073d
00000330: 3543 5bbd f4d6 60bd 4e86 723c 44c9 74bd
00000340: 51cd 86bc 4993 093d 4fd4 3dbc d1be 163d
00000350: 37b3 263d 7dd2 693c 8ef6 673d c5fd 4c3c
00000360: 4cdb 6bbd 19da 3bbd 7ce1 57ba 5a97 dd3c
00000370: 601a 823d eca0 7dbc 1fda 9ebc d550 7a3d
00000380: 7243 7cbd 92db 38bd aec8 5fbd a52a be3c
00000390: 17d6 303d 57c1 833c 98b8 9eb9 aa6e e2bc
000003a0: 608c 50ba df8d 683d eb3d 503d bb32 b93b
000003b0: 96c7 01bd be28 173d e531 b03c 813f 1d3d
000003c0: 9971 9dbf 0ef0 23bf fc96 d0bb d8d0 103f
000003d0: 279d 72bf 96a3 f4be 5371 2c3d 40aa ff3e
000003e0: 3f92 6bbf 2d59 07bf 9d4d 0abe 9938 f53e
000003f0: 11bf a3bf 81bb 5dbf 9f6f b2be dd31 343e
-0.05943202 0.018215647 0.047603987 0.056233637 0.030114204 -0.029923847 -0.0047836485 -0.056969732
0.047719657 -0.032295246 0.040226627 0.05888196 0.04019965 0.047451526 -0.018067816 0.027410137
-0.05540795 -0.06080597 -0.047763072 -0.05976509 0.047781035 -0.057579357 0.034943465 -0.011082007
-0.0115169445 -0.059496757 -0.021257881 -0.0554992 0.02186919 -0.012251748 -0.024383944 -0.01832574
-0.12918626 -0.12686054 -0.27711388 -0.1770968 -0.119805366 -0.19160448 -0.2017428 -0.27280477
-0.10362061 -0.19574971 -0.27603546 -0.17532364 -0.12378218 -0.2047533 -0.16974445 -0.18529747
-0.06683628 -0.15467319 -0.26020432 -0.1920838 -0.09944602 -0.13805993 -0.16058984 -0.15934686
-0.08899297 -0.18784486 -0.21487433 -0.15323956 -0.086919606 -0.22846356 -0.16458885 -0.16432665
-187.32481 -221.16434 -217.94202 -155.24147 -210.11855 -233.13982 -236.05183 -185.49458
-215.2426 -232.46538 -236.48436 -189.7673 -218.96877 -241.5885 -240.7264 -182.83206
0.012381098 -0.06856445 -0.08065185 -0.07702434 -0.058634482 -0.06093519 -0.15926509 -0.1381032
-0.040992793 -0.1509443 -0.16997904 -0.22067685 -0.046539374 -0.19821341 -0.19341281 -0.18267258
0.030009702 0.02572592 0.004197578 0.031685464 0.03475959 -0.022452801 0.017058818 0.019276906
-0.023274876 0.02802214 -0.039813757 -0.048200585 -0.055690404 0.01571542 0.041790314 -0.035216026
-0.0129082445 -0.11567081 -0.17780897 -0.21631406 -0.044274803 -0.14687295 -0.16452669 -0.22496675
-0.05182794 -0.06981171 -0.18126564 -0.1493612 -0.0630357 -0.08144629 -0.17037724 -0.22590597
0.052841954 0.058970734 0.03534351 -0.035953578 -0.025075603 -0.026902506 -0.015727831 0.017655624
0.036832843 0.04332904 0.04346133 -0.052620422 -0.027142083 -0.010392594 -0.04087572 -0.04616718
0.041874606 -0.0594322 0.0030937719 0.010095989 -0.030549059 -0.051377695 -0.03499896 0.018527573
-0.00090450206 0.03900204 -0.019214347 0.020248037 0.009971406 -0.0051345886 0.034993026 0.050166555
0.012979125 -0.03187297 0.024605 -0.03780647 -0.008077998 -0.059349187 0.0010945622 -0.014527429
-0.004947587 0.02129369 0.008463169 -0.048010845 -0.01734116 0.05598537 0.020469926 0.036911726
-0.0072301123 0.023935635 0.0011412922 0.063112885 -0.02201036 -0.049649194 -0.052405674 0.013517325
-0.011495422 -0.05057261 -0.029110793 0.0009808477 -0.048404302 -0.017220566 0.057910126 -0.051195346
-0.018589804 -0.020538429 -0.021157324 -0.049363688 -0.058740128 0.049854264 -0.048989058 -0.048468456
0.043998003 0.0062071458 0.055155158 0.032963153 -0.05353089 -0.054892495 0.014802529 -0.059762254
-0.016455324 0.033587728 -0.011586263 0.03680307 0.040698256 0.014271376 0.056631617 0.012511675
-0.057582185 -0.04586229 -0.0008235199 0.02704971 0.06352687 -0.015480261 -0.019391118 0.061112244
-0.06158776 -0.045131274 -0.054634742 0.023213694 0.043172922 0.016083403 -0.00030273641 -0.02764066
-0.0007955488 0.056775924 0.0508403 0.0056517995 -0.03168448 0.03690409 0.021508167 0.03839064
-1.2300292 -0.6403817 -0.006365655 0.5656867 -0.94771045 -0.47781056 0.042100262 0.49934578
-0.9202003 -0.52870446 -0.1350617 0.47894743 -1.2792684 -0.86614233 -0.34850785 0.17597146

bias f4 [120]
00000000: 6066 93c0 2353 24c3 166b 83c3 9e53 c5c0
00000010: ace3 d1bf 19f2 41c1 e572 cec3 d67e 18bf
00000020: e874 e1bf 8516 b8be 641b 18c5 fd1d b3c3
00000030: 95ec 21c1 fe43 92c3 30c0 a0c0 010c e9bd
00000040: 4f61 8ebe 075d d1c1 0f8d f0c0 b510 7fbe
00000050: 1ebc 91c1 80db b8c2 17f0 f4bd 78f5 cdbc
00000060: 4338 c1bd 6b2b 05c6 999a d7bc 79a6 1bc0
00000070: 811a c2c4 1cda 00be e8d8 52bf 3edb 8bc0
00000080: 5342 d4bd 749d 4ebf 22f5 05be 273a 20bf
00000090: 46b9 81be 03eb bec1 5a37 65c3 97d3 86c3
000000a0: 5175 06be ee98 44bf ed1b 2ec3 f547 aac0
000000b0: 6281 bbc3 6aa7 bdbf d9dc 74bf da16 95c0
000000c0: 06e7 1cbf 7ae4 acc1 223e 6ec0 e6c2 2ebf
000000d0: 30dc 0bbf 72aa 12c4 33bd d0bd 808a cebd
000000e0: 58df c4c0 8954 ddc0 286e e6c0 350f c5bf
000000f0: cac0 89c1 6db3 a2c1 23d8 4ec0 99c8 7cbe
00000100: 6fd7 4cc1 033d e6c3 23ae 58c0 1e28 78be
00000110: 6006 9dc3 dd58 d0be fb1b abbf 9e8c acc4
00000120: 66b6 56bf 6d24 49c1 7d25 15c2 a6c3 42c0
00000130: 3f05 6dbe 6f6f 41c3 cf9e e0bf 4e3a 07be
00000140: dc21 22bf 4628 cdc2 a968 6dc0 b9d0 e3bd
00000150: 7841 aebd e55a 42c1 ce1a c7be 7060 d6bd
00000160: e460 9ec0 90c1 2ebf c55e 1abf bd22 c6be
00000170: a2a2 d6c5 51a2 1dc4 2a06 5fc1 8a5d d1bf
00000180: b8da a7bf 8735 62bd d927 a5bd 91c3 ecc0
00000190: a697 adc0 ba5f 3fc1 57a0 42be 9ade 0cbe
000001a0: 324c 4cc0 95a0 cabf 5341 59bd 6ed3 02be
000001b0: 24a0 9dc3 f33f 26c0 150a 4cc0 e03a a7be
000001c0: 0110 55be ad3b 4ec0 1884 ccbf a769 13be
000001d0: 81c0 d1c1 f5c3 c5c1 ef74 80c2 d7a4 abbe
-4.606247 -164.32475 -262.8366 -6.166457 -1.6397605 -12.121606 -412.8976 -0.59568536
-1.7613802 -0.3595468 -2433.712 -358.23428 -10.120259 -292.5312 -5.0234604 -0.11379243
-0.27808616 -26.170424 -7.517219 -0.24908717 -18.216854 -92.42871 -0.11959856 -0.025141463
-0.09434559 -8522.8545 -0.026318835 -2.4320357 -1552.8282 -0.12583202 -0.8236222 -4.370513
-0.10364213 -0.80709004 -0.13081792 -0.62588733 -0.25336665 -23.864752 -229.21622 -269.65305
-0.1313069 -0.7679585 -174.10909 -5.321284 -375.0108 -1.4816716 -0.95649487 -4.6590395
-0.61290014 -21.61156 -3.7225423 -0.6826614 -0.54632854 -586.6632 -0.10192337 -0.100850105
-6.1522636 -6.916569 -7.200947 -1.5395266 -17.219135 -20.33761 -3.231942 -0.24685897
-12.802596 -460.47665 -3.3856285 -0.24234053 -314.0498 -0.40692797 -1.3367914 -1380.3943
-0.8387207 -12.571393 -37.28661 -3.0431914 -0.23146532 -193.43529 -1.7548465 -0.13205835
-0.63332915 -102.57866 -3.709513 -0.11123795 -0.08508581 -12.147191 -0.38887638 -0.10467613
-4.9493275 -0.682641 -0.60300857 -0.38698378 -6868.329 -630.5362 -13.939005 -1.6356671
-1.3113623 -0.05522683 -0.08064241 -7.398873 -5.424762 -11.960871 -0.19006477 -0.13756791
-3.1921506 -1.5830256 -0.053040814 -0.12775967 -315.2511 -2.5976532 -3.1881154 -0.32662106
-0.20806886 -3.2223923 -1.5977812 -0.14395772 -26.218996 -24.720682 -64.228386 -0.335242

weight f4 [84, 120]
00000000: aa5d 8a3f 7c15 913f b22a b5bd 771f b03f
00000010: aaa5 773e ab3b 203f a965 2ac2 30b0 b8bd
00000020: 801b 563e 2609 babd b767 19c1 e0cb 1440
00000030: 0496 9740 1a6e db3f 28e5 833d 0e56 353e
00000040: 8cc6 4d3e ed7a fb3e 3633 4a40 92b0 0c3b
00000050: 8ac2 4840 e405 f53f 8684 c5bc 17ec aebd
00000060: df95 bbbc 507f 38c4 bb1e c23c 8502 2c3f
00000070: 1fa2 5fc0 eee7 753d d621 233f c964 ea3f
00000080: 692c 87bd 9689 2cbc 752e 9a3d bb67 9c3d
00000090: 180c d73e 0726 1f3f 1232 ed3f 5f89 3fc1
000000a0: 9a1e 283d 2015 06bd 2b59 bfc0 6906 163f
000000b0: 962f 3540 faa9 e7bd fc3e 5340 528c 9340
000000c0: 4973 273e 9d1a d23f c11b 343e a7d4 c8bf
000000d0: 6c2e 0abe 7fac b63d 806a da3d ab4d a93e
000000e0: b3e1 3340 e627 c93f 64fe e8bd 1247 cc3f
000000f0: 9874 053e 9427 4b40 9a91 313e 2c87 633e
00000100: d7b4 8b3f e7b8 5740 adfa 0d3f 8534 b0bd
00000110: df40 1140 67b1 473d 7011 b23d f9ec c6c0
00000120: 30df ddbd 31f1 4240 1e42 61bd b577 ee3e
00000130: 23cb 153e 03af c03e 5498 273e 774c d33d
00000140: 2899 15bd d58e ce3e b7fc a2be 59ea c13c
00000150: a9df aabd 3e5f 533e b8b9 5640 47d6 f8bd
00000160: f4a4 12bc 179b 4a40 0e26 4c3d 0e40 323e
00000170: 662e 52c3 df80 8fbf ae89 4c3f 0927 c63f
00000180: 3610 3a40 2892 0abd c045 933d 1c20 e73f
00000190: 6dba c9bf 7aa0 64bd 6ebb b4bd 2931 c13f
000001a0: 4e48 0240 410e db3d 6920 013d c8ff 98bd
000001b0: bcf1 5bbe c687 463f 274e 9c3d 8fcf 2c40
000001c0: 51cc c7bb 2772 6fbd cde1 8d40 8f70 be3c
000001d0: 3e81 b23f 3ee5 66c0 6b14 4f3e 5cd6 b33d
000001e0: 24cb 52be 2f5f 94be e0f1 d03b dc46 2abf
000001f0: b0e9 96bd e37d 12bf 15ac 12bd 12ce 6bbd
00000200: 4fc5 ddbd 4a7b ff3c f01c 2dbd 2456 3dbf
00000210: 46d6 02c0 ff2c 9dbf debb bfbd 08f8 7ebc
00000220: 1533 5cbe 56c0 0cbe 7e49 b3bf 0921 973d
00000230: ca16 b3bf 3e37 fabe f45d 493d bbed 68bd
00000240: 10c9 323d 320d 49bf 74c4 6fbd eb53 18bf
00000250: 795b d43c fd02 4dba fa33 41be f83b 58bf
00000260: e84e 29bd 67cc e6bb 60c8 0bbd d028 043d
00000270: 51e8 afbd 41e0 93be beae 2fbf ca44 62bf
00000280: 5470 ffbc 042a a83d 83dc 6ebe 9ed9 b6be
00000290: dd83 81bf e341 89bc 00c8 a4bf fa09 f1bf
000002a0: 8bf7 76bb 43e2 a3bf 4008 24be d8d8 753d
000002b0: a4db bdbd ff1c 86bd 594f 873b 2f8f 5dbc
000002c0: f1a2 79bf 2139 80be 1fdf 0e3d 8ed9 0dbf
000002d0: 184a 88bc f253 b5bf db61 0a3c 8710 d43d
000002e0: b662 54bf 744c 93bf ccc1 c03c a43f 863d
000002f0: 3910 1dbf 3fc8 ddbb 524a c9bd e451 2ebe
00000300: 97e4 e6bd a1d0 99bf 6c7f adbd de67 c8be
00000310: e7e7 5f3d ff38 0ebe 28f4 7fbe 85e7 f3bb
00000320: 412a 9d3c 1bae aebe c8fc ac3b 9ee7 9d3d
00000330: fa2b 9f3d b8e0 a8bd 35a5 73bf 9936 e8bd
00000340: 952e acbd 4bea c2bf 234b a13d 7fad acbe
00000350: 0360 81bf b73b 99bd 957f 02bf 7038 4ebf
00000360: 9024 5cbf ad6d 893d 216f 233d a72a 13bf
00000370: 7e77 edbe 7874 763d d0f1 9f3c 7a86 d0be
00000380: b6ab 69bf ee8f 28bd ac16 3dbe 3eb8 1fbd
00000390: cc7a 84bd 46c6 ebbe f633 8b3d c7d9 4fbf
000003a0: b6a9 abbd bf46 aa3d 292e d0bf 58fb 09bd
000003b0: c027 98be 4bba f1bf e953 203d ae54 8cbd
000003c0: c796 5dbd 5b35 093d a829 b23c 6849 01bf
000003d0: 8874 bdbf a6ac 55c0 48a0 ab3d bafe c9bc
000003e0: 3664 d4bc e071 2ebe df52 7f3d 2a7c b53c
000003f0: 8a24 acbf 8bbd 88bd b343 ccbf 0b5e e2bb
1.0809834 1.1334682 -0.08846034 1.3759602 0.2418429 0.62591046 -42.599277 -0.0901798
0.20908928 -0.09083776 -9.587821 2.3249435 4.7370625 1.7142975 0.064401925 0.17708609
0.20095271 0.49117222 3.1593757 0.0021467549 3.1368737 1.9142423 -0.024111044 -0.08541124
-0.022898613 -737.98926 0.023696294 0.67191344 -3.49427 0.06003564 0.63723505 1.8312007
-0.066002674 -0.01053085 0.07528392 0.076369725 0.42001414 0.621674 1.8530905 -11.971038
0.04104481 -0.03273499 -5.979635 0.5860353 2.8310294 -0.11311717 3.3007193 4.610879
0.16352572 1.6414372 0.17588712 -1.5689896 -0.13494271 0.0891962 0.106648445 0.33067068
2.8106506 1.5715301 -0.11376646 1.5959189 0.13032758 3.1742907 0.17340699 0.22219533
1.0914563 3.3706605 0.55460626 -0.08603767 2.2695844 0.04875317 0.08694732 -6.2164273
-0.10833585 3.0459712 -0.054994695 0.46575704 0.14628272 0.37633523 0.16366702 0.10317319
-0.036523014 0.40343347 -0.3183343 0.023671316 -0.08343441 0.20641801 3.3550854 -0.12150245
-0.008950461 3.165716 0.04984098 0.17407247 -210.18124 -1.1211203 0.7989758 1.5480663
2.9072394 -0.03383079 0.07191038 1.8056674 -1.5760018 -0.055817105 -0.08824812 1.5093127
2.0356631 0.10696078 0.03152505 -0.074706614 -0.21478933 0.77550924 0.07632094 2.7001684
-0.0060973545 -0.058458474 4.4338136 0.023247031 1.3945692 -3.6077418 0.20222633 0.0878112
-0.20585304 -0.2897887 0.00637649 -0.6651437 -0.07368791 -0.5722334 -0.03580864 -0.05756957
-0.10828649 0.031186718 -0.042263925 -0.73959565 -2.0443282 -1.2279357 -0.09362005 -0.015562065
-0.21503861 -0.13745245 -1.4006803 0.07379348 -1.399133 -0.4887027 0.049161866 -0.056867342
0.04364878 -0.7853576 -0.05853696 -0.5950305 0.025922524 -0.00078205747 -0.18867484 -0.84466505
-0.041335016 -0.0070434096 -0.03412664 0.032265484 -0.08589233 -0.2888203 -0.6862601 -0.88386214
-0.031181492 0.08211139 -0.23326306 -0.35712904 -1.0118366 -0.01675505 -1.2873535 -1.883117
-0.0037684168 -1.2803425 -0.16018772 0.06002125 -0.09270409 -0.06548499 0.004129332 -0.013522907
-0.97514254 -0.25043586 0.034880754 -0.5541009 -0.016636893 -1.4166243 0.008446182 0.10354715
-0.8296312 -1.1507707 0.02352991 0.06555107 -0.6135288 -0.006768256 -0.098286286 -0.17023426
-0.11274069 -1.2016793 -0.084715694 -0.39141744 0.05466452 -0.1388893 -0.24995482 -0.0074433708
0.019185187 -0.34117207 0.0052791573 0.07710193 0.0777206 -0.08245987 -0.9517396 -0.11338539
-0.08407322 -1.522775 0.07875659 -0.33726117 -1.0107425 -0.07482093 -0.50975925 -0.80554867
-0.8599329 0.06710372 0.039900903 -0.5748696 -0.46380228 0.060169667 0.019524485 -0.40727597
-0.91277635 -0.041152887 -0.1846568 -0.038994066 -0.06468734 -0.46049708 0.0679702 -0.81191677
-0.08381979 0.08314275 -1.6264087 -0.033686966 -0.29717827 -1.8884977 0.039142523 -0.06852089
-0.05409887 0.03349815 0.021748379 -0.50502634 -1.4801188 -3.3386626 0.083801806 -0.024657596
-0.02592669 -0.17035627 0.06233489 0.022153933 -1.3448651 -0.066767775 -1.595816 -0.0069081835

bias f4 [84]
00000000: 256e c9c2 5ed8 3cbe 6960 14bf 005c 36bf
00000010: 71f7 8dc0 703d 90c0 093c b7bf ab35 42be
00000020: cede 2fc0 46aa eabe 9ff3 d0c1 995f fec4
00000030: 9094 7bbf bf99 fdbf 610a 78c1 5350 16c2
00000040: e481 b6c1 ae5c 51c4 bb8a c6bd f5a7 02c0
00000050: 08b6 44c3 a98e bcc3 a204 89be 71af 10c0
00000060: 029a 84be 43ef 25bf 17e8 a3be d259 dcbe
00000070: 00d8 00c2 5409 8ebf 9823 e2be a176 8bbf
00000080: a7d0 48c0 697f ddbf 3136 aebe 5832 f8bf
00000090: bd10 08c1 d4a1 36bf 531d 18be ffa3 93be
000000a0: 815e 0abc efd9 8dbf 0a3d cfc3 5175 84c0
000000b0: 5fae 90c1 68b3 1fc2 dfdd 6dbe bc6f 56c0
000000c0: c6c1 84c0 582a 03c1 8604 35bf c8a0 82be
000000d0: fb7c 0ac0 11f3 efc0 4e57 04c1 c7c7 b6be
000000e0: 818f a3c4 b60a 91be 89b4 5fbf f65d 0cbf
000000f0: 8e86 acbf f980 81c1 4999 e5c0 288e b2c1
00000100: baa3 18bf ed4b 5ec0 11eb c9be e20c 63be
00000110: 2264 8fbf 2327 f3be b207 63be 79bf c1be
00000120: f30d 02bf b0bb 20bf 280f 47be f5dc 0cbf
00000130: d6d6 0ac1 000c f0bd 9a0c 3fbe cc82 aec0
00000140: 9600 4cbf c3f6 84bf 13cb a7c1 de3b 8cc1
-100.715126 -0.18441913 -0.5795961 -0.7123413 -4.4364552 -4.5074997 -1.4315196 -0.18965785
-2.747974 -0.45833033 -26.118956 -2034.9874 -0.98273563 -1.9812545 -15.502534 -37.57844
-22.813423 -837.4481 -0.096944295 -2.0415013 -196.71106 -377.11453 -0.26761347 -2.260708
-0.2589875 -0.6481821 -0.32013008 -0.43037277 -32.210938 -1.1096597 -0.4416778 -1.0895578
-3.1377351 -1.7304507 -0.3402572 -1.9390364 -8.5040865 -0.7134068 -0.14854936 -0.28836057
-0.008445383 -1.1082133 -414.47687 -4.139321 -18.085142 -39.9252 -0.23229168 -3.3505697
-4.148654 -8.197838 -0.7071003 -0.2551329 -2.1638782 -7.498421 -8.271315 -0.35699293
-1308.4845 -0.28328484 -0.8738485 -0.54830873 -1.3478563 -16.187975 -7.1749616 -22.319412
-0.59624827 -3.4733841 -0.39437154 -0.22172883 -1.1202433 -0.47490796 -0.22170904 -0.37841395
-0.50802535 -0.6278639 -0.19439375 -0.55024654 -8.67745 -0.11721039 -0.18657151 -5.4534664
-0.79688394 -1.0387806 -20.974157 -17.529232

weight f4 [10, 84]
00000000: 9125 3141 c515 c0bd 3cfd 55be 3a3b d4bd
00000010: d55e 9041 6e5e 1e42 9f02 093f 3e20 9abf
00000020: 7c0b 8bbf 25ad d7bf 268f a141 27c5 eb43
00000030: ed32 8c3c b27c b541 751a ea42 604b 3340
00000040: 156a 1b41 c7aa a242 d6b1 fe3d a203 3abf
00000050: 5f5b 7844 563f 1c42 da8a 033e d8f7 f7be
00000060: ec0c 1cbe d6ee 03c0 1118 1641 1b50 f5bb
00000070: b4c2 8642 e65d 6abd 2f94 de3d 6259 543e
00000080: 2390 d942 75a7 2cbf 1efc 8b3d d6cf b441
00000090: 7f90 1641 66bd 3fc0 aec4 0cbf 822c 53bd
000000a0: 302c b83d 0001 563f 059d 2c42 5be0 ee44
000000b0: 1dc5 1242 f73d 6642 84ae 47bd 8332 1841
000000c0: 00b1 95bf 93fd 0e42 3b6e 47c0 e3dc 29bf
000000d0: 7213 a53f 6235 2242 a167 c943 c1a1 333f
000000e0: 999d 0143 09a6 e53c 52b2 28be fcc9 99bf
000000f0: d86d 8042 1fd9 1e42 c6ce 9c42 bd33 9443
00000100: defa 123e da0d d244 89de de3c 06ca c83d
00000110: f206 5c42 22ec 0dbf bc19 2bbc c0b7 8ebf
00000120: dc53 e1bf c7ee fd3d 3d08 47bd e2ed 1abe
00000130: 6112 ec42 863e 973d 62ef a3bd 79b3 0d43
00000140: fcaf 30c0 1b68 2dbc 02f2 5b43 6eb0 2542
00000150: 3f76 efc1 f727 b7bc 774e 9e3e 8eb5 96bd
00000160: 433d 7541 41b6 9541 cf73 a23e 5c72 fa3f
00000170: 15a7 c43f 8c03 5040 e6b1 8842 519c e943
00000180: 61ee 8abe c50d e941 e18d ccc4 2ed5 1ac2
00000190: 3ad8 6941 c116 4743 be39 0d3e ad58 503f
000001a0: d2a1 89c3 e1e0 d041 f6e5 433e d0fe 0abf
000001b0: 361d 35bd aa13 3340 ce8e 2441 d4d3 833d
000001c0: 95c7 4ec4 bfc1 f2be 2ac5 8bc0 ba3a c4bf
000001d0: 0091 b242 8d7b 763f 8efa 853e f465 9fc3
000001e0: 129d b6c2 cb1b 6a40 a23d fd3e 8178 e0bc
000001f0: b40e 90bf 4c1e 753f 98c9 2442 8266 e944
00000200: 9526 d8c3 5842 8441 4e81 85bc 9243 0742
00000210: 78e6 603d 62aa f1c3 7eef 9140 4775 b33f
00000220: da70 c4c1 e8e2 4e42 6f96 a943 7d37 8a3f
00000230: 889b 5543 11bd 00bf 44fa 85bf 480f 973f
00000240: 3b2d 6242 b398 4342 16e0 84c4 d1bb 86c5
00000250: 5aee 013e 3657 cf44 6d30 97bd 25c0 303e
00000260: 9905 3442 8418 dd3d 7a66 073e 1a95 1a40
00000270: be95 3540 7c96 a5be 77b9 3f3e 55bf 56be
00000280: c212 d5c4 4e6e bf3d 298a f4bd a53b 0643
00000290: df74 6c40 7fc6 2ec0 68ac 44c5 7f23 00c4
000002a0: ebc5 94c2 83ac c7bf 0112 063f 3e62 b0be
000002b0: 88a8 13c3 9ab5 d641 488d 06c1 ce9d 0340
000002c0: b94f 0740 8d6a 3940 3e1c c041 3147 9d43
000002d0: 1f32 55bb ae47 43c3 89b9 f742 5403 b540
000002e0: 9e6e afc2 9a27 2043 65e9 93bd 7071 0d40
000002f0: 85a4 2c44 1af6 a742 ab9c bfbf a390 37be
00000300: ed59 06bc 431a 7340 0e12 a7c2 b49b a1bb
00000310: f912 9f42 6d47 ef3d af02 5d3f e64c 183f
00000320: 3cdb 9142 4761 4a3f 6e71 d43e 71aa bb41
00000330: 53ed 4941 4d2d a940 325c 103f 7f99 c3bd
00000340: e87b 953d 7a25 3c3f 08a7 c242 3963 9f44
00000350: 9b4f 3142 d268 2742 a10a e13d e41d 9841
00000360: 979f ed3f 9c9f 1b42 d1b2 9f40 acca a83f
00000370: 75e7 0640 3037 b3c3 5202 8743 4a35 55c1
00000380: 81eb 7f43 7145 5f3e 74c2 1a3f e65e 1340
00000390: c7b4 2c42 0d56 b4c3 f978 a542 cba1 9743
000003a0: b6cd 693d ab1d 8c44 ea3d 41be 8ea0 c0bd
000003b0: ba8f 1342 dcbc 383f fb28 c93d f545 1e40
000003c0: d896 2740 825e 853e 339d 95bc 63d6 573c
000003d0: 0679 f442 a19f 943b 5b55 9f3e 8eab bd42
000003e0: 6a4c 8640 91e0 ce3e 062d 6643 8935 4242
000003f0: ae0b 8241 c2c8 e63d e927 64bf 2d96 b33e
11.0716715 -0.09379152 -0.20897382 -0.10362859 18.046305 39.592216 0.53519624 -1.204109
-1.086288 -1.6849715 20.194897 471.54025 0.017114127 22.685886 117.051674 2.8014755
9.713399 81.33355 0.12436263 -0.72661793 993.4277 39.06185 0.12845936 -0.48431277
-0.15239304 -2.0614524 9.380876 -0.007486356 67.38028 -0.057218455 0.108681075 0.20737222
108.78152 -0.6744302 0.06835197 22.601482 9.410277 -2.995935 -0.5498761 -0.051556118
0.08992803 0.83595276 43.15334 1911.0111 36.692493 57.560513 -0.048750415 9.512332
-1.1694641 35.74763 -3.116103 -0.6635267 1.2896559 40.55213 402.8096 0.7016869
129.61562 0.028033273 -0.16474274 -1.2014766 64.21454 39.712032 78.403854 296.4042
0.1435351 1680.4329 0.027205722 0.09804158 55.006783 -0.55438435 -0.010443147 -1.1149826
-1.7603717 0.12399059 -0.04859184 -0.15129808 118.0359 0.07384972 -0.08004643 141.70107
-2.7607412 -0.010583903 219.94534 41.422295 -29.932737 -0.022357924 0.3091924 -0.073588476
15.327456 18.713991 0.3172898 1.956615 1.5363489 3.2502165 68.34746 467.22122
-0.27134994 29.131723 -1636.4337 -38.708183 14.61529 199.08888 0.13791558 0.8138531
-275.26422 26.109804 0.19130692 -0.54295063 -0.04421731 2.7980752 10.284864 0.064368874
-827.11847 -0.47413442 -4.367818 -1.5330422 89.2832 0.96282274 0.2616772 -318.7965
-91.30678 3.6579463 0.49461085 -0.02740121 -1.1254487 0.95749354 41.19687 1867.2034
-432.30142 16.532394 -0.016297009 33.815987 0.054907292 -483.33112 4.560485 1.4020165
-24.555103 51.72159 339.17526 1.0798184 213.60754 -0.5028849 -1.0467 1.1801538
56.54417 48.89912 -1063.0027 -4311.477 0.1268858 1658.7253 -0.07382283 0.17260797
45.005466 0.107956916 0.13222685 2.4153504 2.8372645 -0.32341373 0.18723093 -0.20971425
-1704.5862 0.09347211 -0.119404145 134.23299 3.6946332 -2.7308652 -3146.7754 -512.5546
-74.38656 -1.5599521 0.5237122 -0.34449953 -147.65833 26.838673 -8.4094925 2.0565066
2.114241 2.8971283 24.01379 314.55618 -0.0032531095 -195.28 123.86237 5.6566563
-87.71605 160.1547 -0.07222251 2.2100487 690.5706 83.98067 -1.4969686 -0.17926268
-0.008200151 3.798478 -83.53526 -0.0049318913 79.537056 0.11683545 0.8633222 0.5949234
72.92819 0.79054683 0.4149279 23.458223 12.6204405 5.28678 0.5639068 -0.095507614
0.07299024 0.73494685 97.32623 1275.1007 44.32774 41.852364 0.109883554 19.014595
1.8564328 38.90587 4.990578 1.318685 2.107877 -358.43115 270.01813 -13.32551
255.91994 0.21803834 0.6045296 2.3026671 43.17654 -360.67227 82.736275 303.264
0.057080947 1120.9271 -0.18871275 -0.094056234 36.890358 0.72163177 0.098222695 2.4730198
2.6185818 0.26048666 -0.018263435 0.013173672 122.236374 0.004535631 0.3111981 94.83507
4.196828 0.40405706 230.17587 48.55228 16.255703 0.1126876 -0.891234 0.35075513

bias f4 [10]
00000000: 7536 34be 4163 543e 1ed8 2d3e 16fc c6be
00000010: 662d 9dbd 44c1 ad3e 2f62 373e 0284 2fbe
00000020: 14e0 67be 8039 b93c
-0.17598899 0.20740987 0.16976973 -0.388642 -0.07674675 0.33936512 0.17908548 -0.171402
-0.22644073 0.022610426
