Models/Test/BasicModel.pth (torch, 183723 bytes, 10 tensors)

weight f4 [6, 3, 5, 5]
000000 7f 44 e8 bc b1 ae d2 3e 66 31 85 3e 6f e7 55 3e
       -0.028352974 0.41148904 0.2601425 0.20889066
000010 10 f3 02 3c fc 55 16 bb 08 e7 ee 3d d9 a6 40 3e
       0.007992521 -0.0022939434 0.116651595 0.18813647
000020 12 b7 c3 3c f1 68 e5 bc 74 6f 36 bd ab 05 25 3e
       0.023891006 -0.028004142 -0.044539884 0.16115443
000030 1b b3 b5 3d 52 05 03 3d eb c3 33 be 79 fd 25 bc
       0.08872052 0.031987496 -0.17555206 -0.010131233
000040 50 62 0c 3e 9e 29 45 3d 83 64 ac 3d 99 a4 58 3d
       0.13709378 0.048135392 0.084176086 0.052891348
000050 52 4f 83 3d 86 fb 8e 3e e2 e5 3d 3e 72 f5 ce bc
       0.064116135 0.27926272 0.18544725 -0.025263522
000060 f7 b0 81 3d 46 df 27 bd 60 4d 9a 3e 83 c6 b4 3e
       0.063325815 -0.040984415 0.30137157 0.35307702
000070 fd f8 14 3e 64 31 c0 bd 06 35 93 3d 2a 83 7d 3e
       0.14548106 -0.093844205 0.07187848 0.24757066
000080 71 02 d9 3d df 20 5d 3d 6d 8c d8 bc c5 36 c5 3b
       0.10596169 0.053986426 -0.026434148 0.006018492
000090 44 64 70 3d d6 0f c4 3c d2 bf 87 bc b7 13 d4 bd
       0.05868937 0.023933332 -0.01657096 -0.10355323
0000a0 12 8a 85 3c ed 85 47 3e a2 b4 44 3e 95 08 8c bd
       0.016301189 0.19484682 0.19209531 -0.068375744
0000b0 6c 82 be bd 8a d0 8a 3d ad 96 c3 3e 2c 84 33 3e
       -0.0930222 0.06778057 0.38200894 0.17530888
0000c0 31 79 6a 3c d9 72 40 bb e6 21 29 3d af e4 aa 3e
       0.014311121 -0.002936533 0.041292094 0.33377597
0000d0 00 4d 8d 3e 1d 00 e8 3d bb 28 29 be c5 39 de bd
       0.2759781 0.113281466 -0.16519444 -0.108508624
0000e0 ba f3 87 3d 94 98 8a 3e 67 c2 f8 3c cb 4d ba bd
       0.06638284 0.27069533 0.030366136 -0.09096869
0000f0 0a 07 a5 3b 25 3d 45 bd 5c 40 d4 bc 34 14 c3 3c
       0.0050362395 -0.048154015 -0.025909595 0.023813345
000100 57 96 60 bd 0f f6 06 3e cd c4 ba 3d cc 29 40 3e
       -0.054830875 0.13179801 0.09119568 0.18765944
000110 78 25 78 bd bc cb cd 3c ae 88 90 3c f2 0e 8c 3e
       -0.060582608 0.025121562 0.017643299 0.27355152
000120 04 17 80 3d b5 da 38 3d 75 27 3a bc f6 57 98 3d
       0.0625439 0.04513045 -0.011361946 0.07438652
000130 10 91 9d be 49 a6 d9 bd 2c ab 3a 3e 90 9f aa 3c
       -0.30774736 -0.106274195 0.1822936 0.020828038
000140 78 ad 26 3e d7 cb 92 be c9 a1 05 bd 24 81 5d 3e
       0.1627711 -0.28671142 -0.032624993 0.21631294
000150 73 55 db bc 6e d9 83 3d d1 08 88 be 04 e1 3c be
       -0.026774144 0.06437956 -0.26569226 -0.18445212
000160 e0 3d bd 3d 1d c8 b8 3d 04 f5 35 3e 77 2d 63 be
       0.09240317 0.090225436 0.17769247 -0.22185312
000170 4f 20 84 be e1 5e 07 3e ae 36 2f 3e e3 00 29 3e
       -0.258059 0.13219787 0.17110702 0.16504245
000180 66 ce 99 be f1 fe c6 bd b3 b7 38 3e 5c ab 32 3e
       -0.30040282 -0.09716595 0.18038826 0.17448181
000190 52 13 9d bc 02 94 88 be 0d b5 b6 bd fb dd 47 3e
       -0.019174252 -0.2667542 -0.089212514 0.19518273
0001a0 bc e1 cc 3c 97 cc 36 3e a3 c1 9b be 9a a5 ab 3c
       0.025009982 0.17851482 -0.3042117 0.020952988
0001b0 83 4b 7f 3e b3 f4 0e 3e b6 8f 11 3e 13 8b 9f be
       0.24931149 0.13960533 0.14214978 -0.31160793
0001c0 b1 6a 09 be 78 59 86 3e ae 31 0e 3d 0a ef 3e 3d
       -0.13419606 0.26240134 0.034715347 0.046614684
0001d0 40 1e 4f be 66 9e 4b be 85 7f 3b 3e b0 1d 5d 3d
       -0.20226383 -0.19884643 0.18310364 0.05398339
0001e0 76 76 46 3e 1a 18 92 be 6a b7 63 bd 10 2f 09 3d
       0.19381127 -0.28534013 -0.05559484 0.033492148
0001f0 b3 fb 3e 3e 99 32 22 3e aa 22 8a be 54 ad 90 bd
       0.18650703 0.15839614 -0.26979572 -0.0706431
000200 50 c5 e5 3d 5a 54 50 bd 4a f7 0d 3e 25 18 16 be
       0.11219275 -0.050861694 0.13863865 -0.14657648
000210 58 fb 00 bc f2 41 14 3e 26 c0 85 bd 59 88 4b 3d
       -0.007872425 0.14478281 -0.0653079 0.049690578
000220 eb 66 3b be c4 9c fc 3c b4 57 69 3e b0 b9 10 3e
       -0.18300979 0.03083647 0.22787362 0.14133334
000230 3f e8 1b 3e b4 4e ad be d7 6e 96 bd 7a 9f 1a 3e
       0.15225314 -0.33849108 -0.0734536 0.15099898
000240 5c 76 68 3e 40 6f 47 3e df 4e 81 be f0 55 4b be
       0.227014 0.19476032 -0.25255486 -0.19857001
000250 10 13 85 3d 34 3a ab 3b a1 2e d9 3d c0 c2 5a 3d
       0.064977765 0.005225444 0.10604597 0.053408384
000260 cd 9e e7 3d 4d 14 bd 3c 63 14 8e bd 14 50 73 3e
       0.11309586 0.02308097 -0.06937482 0.23761016
000270 ca ce 50 3e 1b ca 11 bd 97 72 31 be 48 11 19 be
       0.20391384 -0.035593133 -0.17328869 -0.14947999
000280 aa d1 62 3d 90 9a 59 3e 71 d5 8d bc ad 76 57 be
       0.055375732 0.21250367 -0.01731369 -0.21041365
000290 96 eb 80 be 3f 89 22 3d ec b1 67 3e 6c d3 7d 3b
       -0.25179738 0.03968167 0.22626466 0.0038730754
0002a0 2d db 4c be e3 39 65 be ef 1f 08 3e 5a c4 29 3d
       -0.20005484 -0.22385363 0.13293432 0.04144702
0002b0 1f 53 f9 bc 2b 85 ee bd 27 26 83 be 83 96 9f 3d
       -0.030435143 -0.116464935 -0.25615045 0.0779238
0002c0 63 99 10 bd 8b 1d f7 3d f5 1a 32 be 72 54 07 be
       -0.03530253 0.12066182 -0.17393096 -0.13215807
0002d0 de 33 41 3e 00 b9 05 3e 82 f6 ae bc 7a 81 19 be
       0.18867442 0.13058853 -0.021357778 -0.14990798
0002e0 dd ed 0b be 30 b6 c7 3d 5f 4b d3 3d fe e5 77 3d
       -0.13664956 0.097515464 0.1031711 0.060522072
0002f0 fc 22 e0 bd 02 45 6b be 12 c2 1a 3e 39 03 28 3e
       -0.10944173 -0.22975543 0.15113094 0.1640748
000300 91 8e 2e bd d2 63 c0 bd ef b2 9b be 45 e4 e5 3d
       -0.04261643 -0.09394039 -0.30409953 0.112251796
000310 8d 5e 3f 3e 4a b2 eb 3d 64 20 e6 bd d0 4d 46 be
       0.18688412 0.11508615 -0.11236647 -0.1936562
000320 7a 5f 2b 3c d9 d2 f9 3b 34 5a fe bc b4 33 87 bd
       0.010459775 0.007624012 -0.031048872 -0.066016585
000330 9e c4 6d bd ad 59 c8 3d 3b 8b 00 3d 7e 31 1d 3e
       -0.058048837 0.09782729 0.03138278 0.15350911
000340 1c 94 07 bd c9 48 50 bd e9 d8 2a 3e 73 08 8a 3d
       -0.033100232 -0.050850663 0.16684307 0.06739893
000350 56 bb b9 3c 0b aa 4c be 8d 18 15 be 64 70 2f 3e
       0.022672337 -0.19986741 -0.14560147 0.17132717
000360 8e 55 77 3d b3 6f db 3d 28 29 10 be 76 c4 13 be
       0.060384326 0.10714664 -0.140782 -0.14430413
000370 ef 63 c8 3d a0 e0 73 3a 6b 39 fe 3d 09 34 8e 3b
       0.09784686 0.0009303186 0.12413295 0.004339699
000380 24 d3 4a be d1 61 1a 3e 17 70 29 3e 86 9b 71 3e
       -0.19807106 0.15076376 0.16546665 0.23594484
000390 e2 76 a3 3b 7e 0c 7b bd ae d5 97 3c 67 9f e2 3c
       0.004988537 -0.06129121 0.018534508 0.0276639
0003a0 7f 0b c7 3d ab b6 3f 3d d0 aa 4d bd cc 57 66 3d
       0.097189896 0.046805065 -0.050211728 0.056236073
0003b0 83 a9 97 3d de 68 cb bd 9e c0 fa bd e9 b3 ab 3c
       0.07405379 -0.09932111 -0.1224377 0.020959811
0003c0 cd 4a 14 bd 78 0a fe bd a8 1a 10 3d 8b 6b 30 be
       -0.036204148 -0.124043405 0.03518167 -0.17228524
0003d0 b7 55 81 bc bf 90 2f bd 4d 4f 22 be 07 44 09 bc
       -0.015787942 -0.04286265 -0.15850563 -0.008378035
0003e0 7f de d6 bd 08 83 85 3d c0 1a 0c 3e a1 d1 77 3e
       -0.104916565 0.06519133 0.1368208 0.24201061
0003f0 38 54 8d 3d d9 ae 9d 3d b1 71 bd bd 6f f6 3a 3e
       0.06900829 0.07699365 -0.092502005 0.1825807

bias f4 [6]
000000 9c 1a 4e bc c6 67 59 3d 08 89 4d 3d 3d 83 eb 3d
       -0.012579586 0.05307748 0.05017951 0.11499641
000010 fc c8 bd 3e 0d a9 89 3d
       0.370674 0.06721697

weight f4 [16, 6, 5, 5]
000000 ce 4f 77 3d fd 5a 5c 3d 72 4e 4c 3c d0 43 9d 3d
       0.060378842 0.05379771 0.012469875 0.0767895
000010 33 7b 50 be 88 3a 3e 3d df cd 81 3d bf 7c 2b 3d
       -0.20359497 0.04644254 0.06338095 0.041867014
000020 8d fe 77 3d 67 85 53 be a2 b6 12 3e 62 58 43 bc
       0.060545493 -0.20656358 0.14327481 -0.011922928
000030 c4 d7 67 bc 82 c0 2c 3e f5 26 12 be ed 5f ea bc
       -0.014150564 0.16870311 -0.14272673 -0.028610194
000040 f7 8e 8c bd d3 70 ab bd d9 09 d1 3d 99 e9 c0 3b
       -0.06863206 -0.08371129 0.102069564 0.005887222
000050 b0 5f ab bd bd 68 57 be 29 e3 72 be 20 e4 6a 3e
       -0.0836786 -0.21036048 -0.23719467 0.22938585
000060 aa 33 c0 3d 12 6c 4c bd f4 69 f3 3b 3b be d1 3d
       0.09384854 -0.04990775 0.007428402 0.10241362
000070 30 2f 9f bd 81 54 c9 bd 44 25 d2 bb 9d 58 2d bd
       -0.07772672 -0.09830571 -0.006413134 -0.042320836
000080 2e 8e 08 3e 3f 9f 60 bc e2 cf af bd d3 ae 45 bd
       0.13335487 -0.013709842 -0.085845724 -0.04826243
000090 24 1b 88 3c 40 f8 68 3e 44 e7 ad 3d d2 58 94 bd
       0.016614504 0.2275095 0.08491376 -0.07243504
0000a0 da dc e6 3c 05 6b 71 3c cc 60 a8 3e 16 47 d3 3d
       0.028181482 0.014734988 0.3288635 0.10316293
0000b0 96 b1 b8 bd 4a 1c 18 3e 41 65 d8 bc bc f3 aa 3e
       -0.09018247 0.14854541 -0.02641547 0.3338908
0000c0 47 ab 04 3e c9 67 16 3c f1 bc 28 bd df 07 8e bd
       0.12955962 0.009180018 -0.041195814 -0.06935095
0000d0 40 58 d0 bc 1a 5b a5 bc 19 35 98 3d a3 21 0c bd
       -0.025432706 -0.020185042 0.074320026 -0.034211766
0000e0 31 70 36 3b 05 af 1a 3d ed cb ed 3c 61 c7 60 bd
       0.0027837867 0.037764568 0.029027903 -0.054877643
0000f0 26 c7 de 3d 73 33 25 3e 10 38 34 3d fd 51 c0 bc
       0.10877828 0.16132908 0.043998778 -0.023476595
000100 67 7f d2 bb af bb c2 3d a0 9b 06 3e c7 76 50 bd
       -0.006423879 0.09508454 0.13145304 -0.050894525
000110 2a 65 10 3d d7 b4 94 3d ec f9 4a 3d e0 a5 0f 3d
       0.035252728 0.07261055 0.04955475 0.0350703
000120 39 aa 7e 3b 7c 6d d3 3b 9f b2 5c 3d 5c 0c 89 bd
       0.0038858785 0.0064522605 0.053881284 -0.066918105
000130 d0 ac bf 3c 8b 7c 16 bd b8 11 09 3d 80 8b 4e 3d
       0.023397833 -0.036739867 0.033464164 0.050426006
000140 8a 6d dc bd 38 eb 97 bd 75 1d 85 bd 10 f7 54 bc
       -0.107630804 -0.07417911 -0.06499759 -0.012998357
000150 41 19 c9 bd 58 17 3f 3d 12 00 e0 3d b5 35 be bc
       -0.0981927 0.04665312 0.109375134 -0.023218969
000160 48 63 3a bd 3c ea 50 3d 79 e1 dc 3d 03 5b 28 bd
       -0.04550484 0.051004633 0.10785193 -0.04110242
000170 57 cd 91 bd af 89 fc 3c 1d 63 31 3d ca 86 02 3e
       -0.071192436 0.030827371 0.043307412 0.1274673
000180 0f ba 5f 3d 73 1f 50 ba 2f a6 ea bc 60 1c ad bd
       0.0546208 -0.00079392566 -0.028643696 -0.08452678
000190 02 ae e7 bd 90 2d 24 bd cf 62 ec bd f1 b5 9a bd
       -0.11312486 -0.040082514 -0.11542284 -0.07554234
0001a0 1c 20 2b be e8 48 1c bd d7 b6 8c 3d da ca bf 3d
       -0.16711468 -0.038155466 0.068708114 0.09364863
0001b0 10 e1 0e bd d7 5e 02 be 8b 2c 2e bd d6 b6 5f 3c
       -0.034882605 -0.12731491 -0.04252295 0.013654431
0001c0 bf b4 11 3e 3f d5 b2 3c a3 91 d1 bc 4c 0b 31 bd
       0.14229105 0.0218302 -0.02558214 -0.043223664
0001d0 c2 66 35 3d 12 b8 23 3e 50 a7 32 3e b2 cd 0c bc
       0.04428745 0.15988186 0.17446637 -0.008593963
0001e0 4a aa ca bb 8e 4d e8 3c 22 f7 80 3e 81 18 13 3e
       -0.006184851 0.028357293 0.25188547 0.14364816
0001f0 7f df 73 3c 7c 60 8b 3d c1 2e 32 3d 06 8d 50 bd
       0.014884829 0.06805512 0.04350162 -0.05091574
000200 07 1f 29 3d 56 e4 91 3d 15 f5 57 3d 62 da 32 3d
       0.041289356 0.0712363 0.052723963 0.043665297
000210 16 53 61 bd c7 83 09 3c 2d 5a 70 bd d4 9b f5 bc
       -0.055010878 0.008393235 -0.05867975 -0.029981531
000220 3f a5 2d bb a6 3f a0 3d 3f 79 3d bc a5 2f 7b bd
       -0.00264962 0.0782464 -0.011564552 -0.061324734
000230 5f 6a 02 bd 04 5e 61 bd 13 d6 44 bd 11 3d 94 bb
       -0.031839725 -0.0550213 -0.04805572 -0.0045238812
000240 e8 37 32 bd 6a ab a4 3d cb 70 65 3c 97 52 9a 3d
       -0.043510348 0.08040507 0.014003943 0.07535284
000250 08 68 44 3d 52 eb 4c 3d fa 74 4d 3d 75 57 63 3e
       0.047950774 0.050029106 0.050160386 0.22201331
000260 8f c4 44 3d 82 6c 6b bd 70 0d de 3c fe 4d 3e bd
       0.048039015 -0.057476528 0.027106017 -0.046461098
000270 d9 e8 40 bd 84 20 04 bc c0 fd 0b be 4c 2e 34 bd
       -0.04709706 -0.008064393 -0.13671017 -0.043989465
000280 3e 99 f9 bb 59 90 0f 3c 6f 9b 3b 3d eb a6 63 bd
       -0.007617145 0.0087624425 0.04580253 -0.055579107
000290 1f e1 1f 3e b9 d7 95 3d b6 c7 5d 3e b4 81 15 bc
       0.1561322 0.073165365 0.21658215 -0.009125162
0002a0 70 31 f1 3d c6 6f d0 3e f1 db 1a 3d 75 b7 cf bc
       0.117770076 0.40710276 0.03780741 -0.025356034
0002b0 26 c1 0b bf dc 69 71 be fc c2 49 3e c0 73 27 bc
       -0.54591596 -0.23575538 0.19703287 -0.010220468
0002c0 84 39 de bd e7 c8 a2 bd a2 1b 1f be 29 92 cd bc
       -0.10850814 -0.07948475 -0.15537885 -0.025094109
0002d0 13 26 f0 bd c4 21 00 bd 4e 82 19 bd a9 6c 38 be
       -0.11726012 -0.0312822 -0.037477784 -0.180102
0002e0 13 6b fa 3c 02 e0 bd bd b7 09 77 bc b0 a1 d1 3d
       0.030568635 -0.09271242 -0.015078 0.102359176
0002f0 a5 3e bd bd 32 d1 65 bd 55 df 0b bd 69 e5 0b bd
       -0.09240464 -0.056107707 -0.034148533 -0.03415433
000300 a0 38 53 3e 96 f6 68 bd 06 b7 d2 bd ff c6 56 3d
       0.2062707 -0.056875788 -0.10288815 0.05243587
000310 60 29 f3 bd 32 da 0e 3e c1 7f b0 3c 3f 40 ab bd
       -0.11873126 0.13950422 0.021545293 -0.08361863
000320 c6 8e 0a be 11 90 f4 3c 31 6f 3d 3d 94 02 0c be
       -0.13531026 0.029853852 0.04624862 -0.13672858
000330 5f 09 8f bd a8 7c e3 bd c6 9a 72 bc 8f 54 99 bd
       -0.06984209 -0.11107761 -0.014807409 -0.074868314
000340 09 a6 01 be 26 93 1b be 53 63 ab bd dc 52 0e bd
       -0.12660994 -0.15192851 -0.08368554 -0.03474699
000350 ec ef e0 bd e2 84 26 be 31 2d 93 bd 26 b7 8c 3d
       -0.109832615 -0.16261628 -0.07186354 0.0687087
000360 a7 70 18 3e b8 b2 88 bc fa 86 e1 bd 6c 31 e1 bd
       0.14886723 -0.016686782 -0.11012073 -0.109957546
000370 d9 a1 cd 3d f5 e5 58 3e 31 b3 a9 bd d1 93 f6 bd
       0.100406356 0.21181472 -0.08286131 -0.120399125
000380 e1 37 16 be 62 ad c3 3b 91 a8 a8 bb 94 1a 03 bc
       -0.14669754 0.0059715966 -0.005147048 -0.008001942
000390 ef 08 1d bb dc 34 28 3b b6 2b 84 bd 57 ed 4b 3d
       -0.0023961624 0.0025666272 -0.0645365 0.04978689
0003a0 d0 fd ae 3c fb 3d ad bd 28 ee 32 bd 02 ac ad 3c
       0.021361262 -0.084590875 -0.043684155 0.021200184
0003b0 bc f1 64 ba 28 29 03 3d c3 bc bc 3c b7 46 d9 bd
       -0.0008733531 0.03202167 0.023039227 -0.10609191
0003c0 2e 63 9d bc a4 7f f0 3d d5 4d 06 3e e2 cd 33 3d
       -0.019212332 0.117430955 0.13115628 0.043897517
0003d0 c1 ef e4 3c 5a 21 12 3e 16 d3 60 3e 71 27 22 3d
       0.027946355 0.14270535 0.21955523 0.039588396
0003e0 8b 7f ab 3d 21 75 d1 3d b0 1f b6 3d 21 0f 25 bd
       0.08373936 0.10227419 0.08892763 -0.04029763
0003f0 b3 83 3e be 11 21 36 be f6 e5 eb bc b2 37 4e bc
       -0.18604927 -0.17786051 -0.028796177 -0.012586521

bias f4 [16]
000000 55 cf b8 bd 93 f4 1c be 03 1f bc 3d bb 3c 96 bd
       -0.090239204 -0.15327673 0.091856025 -0.07335802
000010 f8 b4 12 3e 1b a3 f4 3d fd 21 ce 3d 67 d8 8a bc
       0.14326847 0.119451724 0.100650765 -0.016948892
000020 fb a9 5d 3d db 5c f0 3d 44 4b 34 3e e8 e4 8c bc
       0.054117184 0.11736461 0.17606837 -0.017198995
000030 3d 93 0d bd 10 1c 1d 3e 25 2d b8 3d c0 04 30 3d
       -0.034564245 0.15342736 0.08992986 0.04297328

weight f4 [120, 256]
000000 ec 96 a7 bc 81 b8 24 bc 41 e4 4f bd 6b cf 52 bd
       -0.020457707 -0.010053755 -0.05075479 -0.05146734
000010 05 04 13 3c dd fd 2c bc 3f 25 50 3c 54 84 be bc
       0.008973126 -0.010558573 0.012704193 -0.023256458
000020 84 0f cc 3c de 5e b7 3c 42 eb 41 bd 44 1a 5d bd
       0.024909742 0.022384103 -0.0473435 -0.053980127
000030 4c 66 6a 3d 94 15 1f 3d 21 ed b8 bc 0b 69 1c 3d
       0.057226464 0.038838938 -0.02257401 0.038186114
000040 95 bf 89 3d 06 f2 94 3d 78 ff a8 3d a0 39 57 bd
       0.067259945 0.07272725 0.08251852 -0.05254519
000050 44 5c 1d bd 58 a6 cc 3d 9e ad 41 bb 4e 13 aa 3c
       -0.03841807 0.09992665 -0.0029552947 0.020761158
000060 1f 57 5c bc 43 af 92 3c 22 65 39 bc 61 3f 92 3d
       -0.013448506 0.017905837 -0.011315616 0.07140995
000070 48 c0 a6 3c 2b 8c 10 bd 7f 74 54 bd 65 28 6f bd
       0.020355359 -0.035289925 -0.05186891 -0.058388133
000080 d6 4b 1e bd af e3 46 3d ee b8 a5 3c 28 db a4 3c
       -0.03864654 0.04855698 0.020229783 0.020124033
000090 18 5b 09 3d 42 55 c3 bd 0d 4a 8d bc 82 6d f9 3c
       0.03353414 -0.09537746 -0.017247224 0.030447725
0000a0 f5 d1 c2 3b 55 aa 77 bb 2c f8 95 bd da 74 a4 3d
       0.005945439 -0.0037790735 -0.07322726 0.080301
0000b0 0d 6d d9 bd 93 31 15 bd dc c9 2a bc 11 40 6f bd
       -0.10616503 -0.03642423 -0.010424104 -0.058410708
0000c0 42 c2 e1 bc ad 3c 4b bd 4d 20 27 bd 25 8d 5f bc
       -0.02755845 -0.04961841 -0.04080229 -0.013644491
0000d0 fe 0b 81 bc e3 e1 bb bc 85 77 0f 3d 9a 81 a4 bc
       -0.015752789 -0.02293486 0.035026092 -0.02008133
0000e0 ff 12 43 bc f5 e5 85 3d a6 30 d7 3b c0 bd 9e 3d
       -0.0119063845 0.065380014 0.0065670786 0.07751036
0000f0 76 85 1b bd fc 26 3d 3d a8 82 ec 3c ff 1c 0d 3c
       -0.037969075 0.046179757 0.028870896 0.00861287
000100 2c 2d 42 b9 f0 bb 8e 3a 0f 69 62 3c 28 c5 37 3d
       -0.0001851811 0.001088975 0.013818993 0.044865757
000110 42 19 cb bc 5c 94 4d bc 1d 70 ef bd 85 43 a6 3c
       -0.024792317 -0.012547579 -0.11691306 0.020295868
000120 0a 41 11 bb e4 22 e5 bc 64 cc b2 bd b1 55 65 3d
       -0.002216401 -0.027970739 -0.08730391 0.055989925
000130 1f 2b a7 3d ab 44 b9 3c b1 46 89 bc d9 98 a3 3d
       0.081625216 0.022615751 -0.016757341 0.07988138
000140 73 82 a6 3d ed e1 34 bd 5d aa 80 3c 98 aa 83 3c
       0.0813035 -0.044160772 0.015706236 0.016072556
000150 cd 1f 6f bd e5 8b 7c bd d0 9a 4c bc 26 c0 7b bd
       -0.058379937 -0.06165685 -0.012488082 -0.061462544
000160 9d 1e db 3c fc 96 3a 3d a8 4b 33 bd 76 05 a2 3d
       0.026747996 0.045554146 -0.043773323 0.07911198
000170 f0 68 8e 3c 23 81 2f bd 1b 75 9a bc 4f cb c6 3c
       0.017384022 -0.042847764 -0.018854668 0.024266867
000180 11 c7 ce bd 81 f4 e1 bc c5 84 0b 3e f0 51 7f 3d
       -0.10096563 -0.027582409 0.13624866 0.062334
000190 b9 e8 c3 3c 53 24 99 bc db 31 e9 3c c3 85 ba 3c
       0.023914682 -0.018694079 0.028466156 0.02276886
0001a0 f5 2d 81 bc d1 c1 34 bd 1c 07 cf 3b 5c d7 67 3d
       -0.015768984 -0.04413015 0.006317986 0.056601867
0001b0 89 4b 13 bd 1e 90 e8 bc 14 41 f2 bc 55 97 98 bc
       -0.035960708 -0.028389033 -0.029572047 -0.018626848
0001c0 3d 4d a1 bd ab 12 09 bd 05 f7 1c 3c bf 97 af 3d
       -0.0787606 -0.03346507 0.009580378 0.08573865
0001d0 3f bd 11 bd 07 fb 3c 3b 4b 40 f5 bc 65 41 ba bc
       -0.03558087 0.0028836147 -0.029937884 -0.02273626
0001e0 39 98 92 bd 71 22 1c bd c8 b4 29 bb 8c 59 b9 bc
       -0.071579404 -0.038118783 -0.0025895108 -0.022625707
0001f0 d3 60 71 3c 89 ee f3 bc 43 e7 11 3d 02 28 b0 3c
       0.014732557 -0.029776828 0.03562094 0.021503452
000200 11 cb d4 3b ee 24 16 bd 2c 27 60 bd ba 51 c0 3b
       0.006493934 -0.036656313 -0.054724857 0.0058691176
000210 cb 67 8b bc b3 39 49 bc 10 d9 e3 3c db 4b 9b bd
       -0.017017266 -0.012281823 0.027813464 -0.07582828
000220 80 b8 19 3d e8 66 0b 3d ec b6 94 3c c8 ef b8 bc
       0.03752947 0.034033686 0.01815363 -0.022575274
000230 fb 34 42 bd d2 eb 5f bd 6e c1 db 3c bd 16 aa bd
       -0.047413807 -0.054668255 0.026825633 -0.08305118
000240 41 59 a0 3d 15 30 e6 bc 00 3f 7f bd 34 4a f9 3d
       0.07829524 -0.0280991 -0.06231594 0.12172356
000250 b6 d4 8f 3c 51 54 55 3d 4c 1e d8 bc 4c 8e d9 3d
       0.017557483 0.052082364 -0.026381634 0.10622844
000260 97 f3 36 bd 6c 1e 89 3c d2 8f e2 3c b6 60 1a 3d
       -0.0446659 0.01673814 0.02765647 0.037689887
000270 9d df 0f 3d d4 7b 90 3c 6e 1c 36 bd b0 29 a9 3c
       0.035125364 0.01763717 -0.044460706 0.020649761
000280 a0 9f 3a bd 80 7e aa bd 5e 41 60 bc 7a a4 28 3d
       -0.045562387 -0.08324909 -0.01368746 0.041172482
000290 e1 e3 54 bd 38 ea e3 bc d9 0f ee 3c bb ad 09 bd
       -0.051975135 -0.027821645 0.029060291 -0.033612948
0002a0 8b c2 85 3d a8 81 b4 bc 9a 7c 8e bc 79 65 c9 3c
       0.06531247 -0.022034481 -0.017393399 0.024584519
0002b0 37 8a 75 3d 53 34 3c bd 11 d1 18 bd 7a c0 bc bd
       0.059946265 -0.045948338 -0.037308756 -0.092163995
0002c0 34 ab 56 3d b6 e4 39 3d 85 fb 07 bc 26 e7 96 bb
       0.052409366 0.04538413 -0.008299713 -0.0046051918
0002d0 27 f0 55 3d ac a3 19 bd 6c 70 b9 bc e6 ab 66 3d
       0.05223098 -0.037509605 -0.022636615 0.05631628
0002e0 3d 23 ad 3c d7 bb bf 3c 76 ee 4e 3d 72 f8 ed bc
       0.021134967 0.023404999 0.050520383 -0.029049132
0002f0 91 d7 9f bd ea 6c e8 3b ac 2a 58 bd 6f b7 3d bd
       -0.07804788 0.0070930617 -0.05277507 -0.046317514
000300 5e 8c d6 bd 84 57 4d bd 77 45 9e 3d a7 56 04 3d
       -0.10475992 -0.05013229 0.07728093 0.0323092
000310 c6 81 d1 bc d8 47 07 3d a0 a4 bb 3d c4 2a d5 3c
       -0.025574576 0.0330275 0.09162259 0.026021369
000320 c0 03 32 bd ef 2d 7d bd 8f 28 39 bd 7f d8 c8 3c
       -0.043460608 -0.061811384 -0.045204695 0.024517296
000330 65 8b 87 bd a1 f8 0e 3d 7f 1e a1 bc b7 08 10 3d
       -0.06618384 0.03490508 -0.019667862 0.03516456
000340 aa 5b 29 3d e5 65 c4 3d de c6 08 bd 20 b5 7c bb
       0.041347183 0.09589747 -0.03339278 -0.0038560107
000350 88 49 98 3d bc 9e 0b 3e e4 89 f5 bc 74 51 f1 3d
       0.074359 0.13634771 -0.029972978 0.11783114
000360 b6 59 e8 3b c0 29 b9 bc 25 63 0f 3d 3b ea 42 bb
       0.0070907725 -0.022602916 0.03500666 -0.0029741663
000370 61 86 c5 bd 75 6e 82 bb 0d 42 0a 3d 2d 5b d8 bd
       -0.09644771 -0.0039804527 0.033754397 -0.105642654
000380 87 c3 8b bd 90 26 18 3e df 03 74 bd 7e fa 8e bd
       -0.06824403 0.1485846 -0.059574004 -0.06981371
000390 03 62 1c bd 38 3c eb 3d 46 c9 77 3d c5 dd 93 3d
       -0.03817941 0.11486095 0.060494684 0.072200336
0003a0 38 f8 18 bc 29 99 13 3d 6a 6b 6d bd 38 57 80 bc
       -0.009336524 0.036034737 -0.057963766 -0.01566659
0003b0 63 45 a2 3b 75 73 88 bd b9 6e d6 bc c8 af 13 bd
       0.004952119 -0.06662647 -0.026175844 -0.03605631
0003c0 28 a2 fd ba 2c 34 06 bd 8a cb 9a 3c 28 2a 8c bb
       -0.0019350694 -0.0327646 0.018895883 -0.0042774864
0003d0 b4 42 11 3d 8c f4 c5 bc 40 ac 86 bd 7d 17 4e bd
       0.035464004 -0.02416446 -0.06575823 -0.05031537
0003e0 f9 40 97 3c d5 19 5e 3d 81 fa 7a bd 62 f8 a8 bb
       0.018463599 0.054223854 -0.061274055 -0.0051565627
0003f0 b3 68 bd ba bb 87 89 3d eb 54 74 3c d5 ec a7 bc
       -0.0014450758 0.06715342 0.014912824 -0.020498673

bias f4 [120]
000000 5b 30 71 3d fd 06 8c 3d 96 c4 75 3c f0 4d 8b 3b
       0.058884006 0.068372704 0.015000483 0.0042512342
000010 7d 0b 13 bd fe fa 39 bc d1 2e c5 bc 0a 79 9c 3c
       -0.035899628 -0.011351345 -0.024070175 0.019100685
000020 d7 13 cc bb 8e cb 32 3d e5 6c 3a bd ae 7b 35 bd
       -0.006227951 0.043651156 -0.045514006 -0.044307403
000030 ac f6 9b 3c 40 f5 02 3c 5d e4 11 bb 9d 33 98 3c
       0.01903852 0.0079930425 -0.002226136 0.018579299
000040 c5 29 4b 3d 86 69 7d bd b1 c5 6e 3d db 36 d3 3c
       0.04960038 -0.061868213 0.058294002 0.025782993
000050 7c 62 a0 bb 7a 84 63 3d db 99 1e 3e c0 35 57 bd
       -0.0048945528 0.05554626 0.15488379 -0.052541494
000060 e4 89 40 3d 31 d1 64 3d a5 5d 4e bd 30 83 c5 bc
       0.047006503 0.055863563 -0.050382275 -0.024110407
000070 da 20 27 3d 6a d7 8f bc fc b2 87 3c eb cf 04 3d
       0.040802814 -0.017558772 0.016564839 0.03242485
000080 73 a3 e6 3c 03 f0 f5 3d 4e 36 19 3c 7f e1 9c bb
       0.02815411 0.12008669 0.009351326 -0.0047876234
000090 64 e2 03 bc a3 de a4 3b 1c cf dc 3b cb 27 a9 ba
       -0.008049581 0.005031423 0.0067385565 -0.0012905536
0000a0 7f 57 81 3c e4 3b 84 3d 52 4d 09 3d 67 87 4b 3d
       0.015788792 0.06456736 0.033521004 0.049689677
0000b0 ad 4f e3 bc 87 c4 48 3d ae ba 24 bd 2e e4 ee 3d
       -0.027747953 0.049015548 -0.040217094 0.116646156
0000c0 10 64 16 3d e7 f4 1f 3e fe 31 0a 3d e7 a3 a2 3c
       0.03671652 0.15620767 0.033739083 0.019853545
0000d0 d3 14 7a 3d c7 8c 20 bb 45 11 a6 3b 8d 99 7c 3d
       0.061055016 -0.0024497972 0.0050679767 0.061669875
0000e0 1e 21 18 3d a6 ee 9b bd 35 46 52 3b fa 87 93 3d
       0.037140958 -0.07613878 0.0032085304 0.0720367
0000f0 a7 29 47 bd 63 74 38 3d 31 1b 6f bd 5e ce 9d 3c
       -0.048623707 0.04503287 -0.05837554 0.019263443
000100 86 1e b3 bb 3c a1 33 bc bd fa 62 3d 25 f8 58 3d
       -0.005466285 -0.010963734 0.055414904 0.052971024
000110 00 9b 96 3d 79 22 04 3d 66 35 d7 3c 44 11 c6 bc
       0.07353783 0.03225944 0.02627058 -0.024178155
000120 9d 17 46 bb 30 fb 65 bd 2e 8c 56 bc cc 38 28 3d
       -0.0030226477 -0.056147754 -0.013094945 0.04106979
000130 72 a9 2a bd af 50 cb 3c 66 25 45 bc bd ce 81 bd
       -0.041665502 0.024818746 -0.012032842 -0.0633826
000140 42 1b 8b 3d 9a 7c d4 3c 77 8f 92 3d 38 8b e0 3d
       0.067923084 0.02593832 0.0715627 0.10964054
000150 9b 7d 49 3d 32 08 73 3d 21 cf 63 3d 11 e8 b4 3c
       0.049192052 0.059333988 0.055617455 0.022083314
000160 18 e7 98 3d 90 b9 93 3c 79 96 41 bd 69 d3 04 3c
       0.07465953 0.018032819 -0.047262643 0.008107045
000170 3f 9e f3 3c 6a d3 54 3d b0 d9 21 3d a9 84 66 3d
       0.029738544 0.051959433 0.039514244 0.05627886
000180 fa cd a2 bc a2 d9 0f bd 0c 6d 38 bd 9b 49 6a 3d
       -0.019873608 -0.03511966 -0.04502587 0.057199102
000190 af 83 a1 3d 56 b2 90 3c 8c f1 8a bc e1 f4 fd bc
       0.07886445 0.017663162 -0.016960882 -0.031000556
0001a0 22 a3 00 bd 8f 1f ba bb dd e7 62 bc 11 62 ac 3c
       -0.031405576 -0.0056800316 -0.013849226 0.021042855
0001b0 90 80 19 bc af b6 f8 3c 5d 09 4d bb 28 bb a3 3d
       -0.009369031 0.030360548 -0.0031286099 0.079946816
0001c0 a3 41 34 3d 21 eb 6d bb 7d 27 13 bd 93 23 60 bd
       0.04400791 -0.0036303478 -0.03592633 -0.054721426
0001d0 8f 40 5c 3d 10 ac 60 bd f3 84 de 3a e0 b9 be bc
       0.053772505 -0.05485159 0.0016976878 -0.023281991

weight f4 [84, 120]
000000 5c b0 89 3d 88 d4 1c bc 9b ec 36 bd 35 65 b8 bc
       0.06723091 -0.009572156 -0.04465924 -0.022509197
000010 af 57 29 bc 4d 79 c5 bd 82 e4 4a bd 3c 17 46 bd
       -0.010335847 -0.09642277 -0.04953433 -0.048362
000020 65 63 e4 3b f1 cb a1 bd 2e 4d 05 3d e7 97 0b bd
       0.0069698566 -0.07900227 0.032544307 -0.034080412
000030 34 c2 06 bd a5 21 91 bc 6f a1 ab bd 72 5a 82 bd
       -0.03290005 -0.017716238 -0.083804004 -0.06364907
000040 2c 4f 5b bd 7b 06 7f 3d cd df 93 3d 6a ce b5 bd
       -0.0535423 0.06226204 0.07220421 -0.08877261
000050 06 ec 9d 3c 77 6b 91 3d c9 20 50 3c 64 24 8c bc
       0.019277584 0.071005754 0.012703129 -0.017107196
000060 37 36 81 bd 08 c8 bf 3d 87 34 75 3d 70 ba 26 3d
       -0.06309169 0.09364325 0.059864547 0.040705144
000070 48 1a d8 3d 39 13 26 ba d2 a8 77 bd 88 ca 8a bd
       0.10551888 -0.0006335262 -0.060463734 -0.06776911
000080 62 25 20 3d 0c ba 4f bc de e6 48 bd 18 b0 7d 3d
       0.03909815 -0.012678634 -0.049048297 0.061935514
000090 5d 4d 01 bd 96 01 74 3d 2c 58 a4 3d b3 52 33 3d
       -0.03156792 0.059571825 0.0802463 0.04378004
0000a0 3c f8 53 3d c3 76 91 3d 13 2e bf 3d f4 91 b4 bd
       0.051750407 0.0710273 0.0933496 -0.08816901
0000b0 4d af 69 bc eb 9c 39 bd 18 3d ab 3d e3 79 4a bd
       -0.014262986 -0.045315664 0.08361262 -0.049432646
0000c0 a0 7d b3 bd f1 2b 19 3e d5 ca b6 3d ff 75 a7 bd
       -0.087641954 0.14958169 0.08925406 -0.08176803
0000d0 44 a2 a1 3d a4 10 72 bc e8 93 39 3c e8 fa c0 3d
       0.07892278 -0.014774475 0.0113267675 0.094228566
0000e0 74 aa 24 3d d9 5e c5 bd 91 d6 bc 3d 17 63 0f 3e
       0.04020162 -0.096372314 0.09220613 0.14002644
0000f0 38 fb 0d 3d 90 0a 77 bc 48 32 d1 3c 46 3b cb bc
       0.03466341 -0.015078202 0.025536671 -0.024808537
000100 23 bd 2d bd 46 b8 aa 3c ac 5d bf 3d a5 72 e3 bd
       -0.042416703 0.020839822 0.09344038 -0.11105851
000110 5e 7d 22 3e d2 bb 47 bd 3d a7 0c be 27 ad 67 3d
       0.15868136 -0.048763104 -0.13735671 0.056561615
000120 ab f3 2e 3d 89 3f 83 3d 0f de 8f bc e9 e9 86 bd
       0.04271285 0.06408603 -0.01756194 -0.065875836
000130 27 83 8b 3c 2d 8b b9 3d 59 ea 8b bd 17 14 62 38
       0.017030312 0.09059749 -0.06831808 5.390131e-05
000140 1e 89 9f bd 57 52 6c 3d 5c 13 35 bd 6a b1 9f bd
       -0.07789825 0.057695713 -0.044207916 -0.07797511
000150 bc 78 0b ba d1 81 88 3d 25 0a c3 3d 22 a4 0e bd
       -0.000532042 0.066653855 0.09523419 -0.034824498
000160 76 c1 d5 bc c4 8b 57 3d a2 35 e4 bc c5 83 17 bc
       -0.026093226 0.052623525 -0.027857605 -0.009247725
000170 85 5e a5 bd 63 b9 34 bc b6 59 b9 bd e6 7b ec 3b
       -0.08074669 -0.011030528 -0.09050314 0.0072169183
000180 09 4c d1 bd 0f 7d 5e 3d c6 9d a8 3b 95 11 00 3e
       -0.10219581 0.054318484 0.005145761 0.12506707
000190 2c e1 b4 3b d9 11 c8 bc 51 6b 7b bd db 0f b6 3c
       0.0055200066 -0.024422573 -0.06138164 0.022224357
0001a0 61 4d 96 bc 3e b0 b1 bd a6 26 6e bc 7c 9c 40 3d
       -0.018347444 -0.08676194 -0.014535582 0.047024235
0001b0 5a 89 85 3c be 19 11 3b 75 20 0d 3d 3c 3b b8 3d
       0.016300846 0.0022140588 0.03445478 0.08995673
0001c0 c0 28 40 bd 79 ac 65 bd 89 b7 8e 3d ce b8 c1 3c
       -0.046913862 -0.056072686 0.069686 0.023647692
0001d0 df f6 70 3d a7 64 8f 3d 11 90 9b 3d 50 54 a3 bd
       0.058829185 0.0700162 0.07595838 -0.07975066
0001e0 d4 8b a6 3d 24 b9 80 3d 24 32 9e 3d 22 db 01 bc
       0.08132139 0.06285313 0.07724407 -0.0079257805
0001f0 0e da 6e bd 74 ae e5 bd 78 10 80 3d 3b e7 95 bd
       -0.058313422 -0.11214915 0.06253141 -0.07319494
000200 4d 23 b6 3d b4 be 74 3c 97 8a bd 3c 6b e2 70 3c
       0.08893452 0.014938045 0.023137374 0.01470242
000210 36 9a 98 3d f1 f5 94 bd 1d 9a 58 bd ca 3f c4 3c
       0.074512884 -0.07273472 -0.05288135 0.023956198
000220 da 87 f4 3c 6b 6a 69 bd 44 ad a5 3c 36 62 61 be
       0.029849935 -0.056986254 0.020224221 -0.22010121
000230 c0 68 78 bc d3 bc ed bc b8 61 c9 3d 58 9d ce 39
       -0.015161693 -0.029020702 0.098330915 0.00039408612
000240 73 f5 72 3d 5f a4 e8 3c d3 a2 43 3d f3 3e bd 3d
       0.05931611 0.02839869 0.047762703 0.09240522
000250 77 54 bd 3d 93 87 13 bd 6e c5 05 be da 67 a8 3d
       0.09244626 -0.036017966 -0.13063595 0.08222933
000260 f6 45 b5 3d 74 dd dd bd fb a3 1d be 0a 81 72 3c
       0.088512346 -0.108332545 -0.15394585 0.014801273
000270 a6 fa e5 bd e0 53 d1 bd 32 a9 77 bd 02 d8 2a 3d
       -0.11229448 -0.10221076 -0.06046409 0.041709907
000280 be 47 69 3d 25 b8 18 3e 88 59 3a 3e 8a f1 ac 3d
       0.056953184 0.14913996 0.18198216 0.084445074
000290 af 25 8c 3d 5f e3 94 bd c1 ac 05 be 11 58 03 be
       0.06843125 -0.0726993 -0.13054182 -0.12826563
0002a0 62 17 9a 3d b9 40 0c 3e 9a 1e 64 3c 3b 4d 0b be
       0.07523991 0.13696565 0.013923312 -0.1360368
0002b0 25 0e fc 3d 20 a9 ce bd 6e 99 5a 3e 9e 2a 30 bb
       0.12307385 -0.10090852 0.21347591 -0.002688087
0002c0 6d d2 4e 3c d1 43 02 bd f8 54 bb 3d b2 9f 0e 3d
       0.012623412 -0.031802956 0.09147066 0.034820266
0002d0 c8 e6 27 3d 1a b0 29 bd 9d 22 8e bd 11 09 22 be
       0.040991575 -0.04142771 -0.06940196 -0.15823771
0002e0 61 f8 b2 3d 3e 06 6c 3d dc 8a c4 3d 19 38 22 be
       0.08738781 0.05762314 0.09596798 -0.15841712
0002f0 ac 37 18 3d bc 38 85 3d 54 b0 a0 3c 9d a3 48 3d
       0.037162468 0.06504962 0.01961533 0.04898416
000300 11 6e 64 3c bb 01 14 3d 06 80 90 bb 51 af 22 3d
       0.0139422575 0.036134463 -0.004409793 0.039717976
000310 26 d4 17 3e 6a cb 63 3d ac e7 a4 3d 42 dc 82 3d
       0.14827022 0.055613913 0.080520004 0.06389667
000320 28 bb b6 ba 32 c2 a9 bd e3 45 16 3d cf 9a 0b 3d
       -0.0013941275 -0.08288993 0.036687743 0.034083184
000330 22 4b 13 be 02 08 af bd 63 64 c5 bd c8 db 47 bd
       -0.1438413 -0.08546449 -0.09638288 -0.048793584
000340 27 67 19 be 91 bb c5 3d c0 0a ed 3d fa af b5 3d
       -0.14980756 0.09654916 0.11574316 0.088714555
000350 15 e7 b2 3c b8 d0 10 bd 7f ab ae 3b ae 6c 47 3d
       0.021838704 -0.0353553 0.0053305025 0.04868763
000360 89 01 01 bc 99 02 a9 bd 68 bf 6f 3d 4e dd ad bd
       -0.007873901 -0.082524486 0.05853215 -0.08489476
000370 f4 c5 e0 3d d2 f6 80 3c b3 c6 33 3c bf 11 04 bd
       0.109752566 0.015742693 0.010972667 -0.032243486
000380 57 da ec 3c 5f 29 20 bd ff 68 eb bd 51 a4 ea bd
       0.028912706 -0.039101955 -0.11494636 -0.11457122
000390 91 91 30 3d 5b 97 f7 3c 4e 0d a4 3c cf 16 19 3e
       0.043107573 0.03022354 0.020025875 0.14950107
0003a0 62 dd 24 be 66 07 01 bd 78 1e 77 bc de 39 0a be
       -0.16100076 -0.031501196 -0.015082948 -0.13498637
0003b0 4d f9 8b bb 90 7c bc bc d6 38 69 bd 01 6f ca bc
       -0.0042716623 -0.023008615 -0.05693897 -0.024711134
0003c0 7f 37 79 3d c4 95 90 bd a3 81 ea bd 22 ab ba 3c
       0.06084394 -0.070598155 -0.114505075 0.02278668
0003d0 0a 3b 63 bd 88 4a d8 3d 38 d2 a4 3d 90 24 38 b9
       -0.055476226 0.10561091 0.080479085 -0.00017561228
0003e0 be 0b 5f bd 00 af 54 3d bf fb be 3c e5 96 6f 3d
       -0.054454558 0.051924706 0.023313401 0.058493514
0003f0 a7 28 9c bc 58 e0 dd 3b e1 e0 be bd 80 96 fd 3d
       -0.019062353 0.0067711286 -0.09320236 0.12382221

bias f4 [84]
000000 f0 d4 f9 bc 07 28 28 3e f9 14 a7 bc df 06 b5 3b
       -0.030497044 0.16421519 -0.020395743 0.0055245007
000010 33 5a 15 3d 91 ac f4 3d 11 9a bc bd b7 10 08 bd
       0.036462974 0.11946977 -0.09209073 -0.033219066
000020 56 0f 5c bb 07 be 0a 3e 6c bf fb 3d 1c af f4 3c
       -0.0033578477 0.13549052 0.1229237 0.029868655
000030 3d fd 14 bd 3f 02 78 bd 5f a2 2f 3d d5 1d 35 bd
       -0.03637432 -0.060549017 0.04287946 -0.044217903
000040 9a 61 5a bd 2a 37 31 3e 30 b8 23 bd 3a e9 b1 bd
       -0.053315736 0.173062 -0.039970577 -0.086870626
000050 6b e2 25 bd 5a e5 17 be 66 2b 2a bc 2a ba 25 3e
       -0.040499132 -0.14833584 -0.010386324 0.16184297
000060 12 75 d5 bc 3c 79 ad bd ef 4b 56 bd 50 1c 1c 3e
       -0.0260568 -0.08470389 -0.05231851 0.15245175
000070 28 64 a6 bd 26 ea 93 3d d9 c5 b4 3c 89 36 97 bd
       -0.08124572 0.07222395 0.022066997 -0.07383449
000080 1a 47 49 3c aa 8e 72 bd 89 48 00 bd bd 71 f5 bc
       0.012285018 -0.059218086 -0.031319175 -0.029961461
000090 3e ce 07 bd 12 ee f4 bc 68 15 b1 bb 9b a3 0d 3d
       -0.033155672 -0.029898677 -0.005404163 0.034579854
0000a0 a3 3d 7b 3d 9f 12 fa 3d 55 3d 02 3b 63 14 2b 3e
       0.06133808 0.12210583 0.0019872983 0.16706996
0000b0 a5 f6 8d 3c 83 db 82 3c b1 e8 87 3b ea 8d 59 bc
       0.017329523 0.015973812 0.004147612 -0.013278464
0000c0 0a e0 a0 bc fd 6f 0f bc b9 34 68 3d a2 19 19 3e
       -0.01963808 -0.008754727 0.056690905 0.14951184
0000d0 fa cc ca 3c 72 31 36 bd 0f 5e c4 3d e3 ab c1 bd
       0.024755944 -0.04448075 0.09588253 -0.09456613
0000e0 f5 5c 75 bd 42 3e 08 3d 91 41 aa bd b4 7e 05 3d
       -0.059903104 0.0332625 -0.08313287 0.032591537
0000f0 3c 94 5a 3c eb c1 59 3d b5 21 66 3e c3 5b 92 3d
       0.013341006 0.05316345 0.22473796 0.071464084
000100 0b a0 2c bc 23 fe 32 3d 00 55 a4 bb c7 9f 37 bc
       -0.010536204 0.043699395 -0.0050150156 -0.0112075275
000110 ea e8 db bd d3 dd ac bc aa b5 a4 3d 1f 37 da 3d
       -0.10737784 -0.021101868 0.08042462 0.10655045
000120 b4 b6 8c bd b7 6f c4 bd 6a 78 bf bd 7a 59 35 bd
       -0.06870785 -0.095916204 -0.09349139 -0.044274785
000130 b3 9d 52 3e 20 88 a6 3d b3 8f 17 3c 82 f0 2a 3e
       0.2056797 0.081314325 0.009250569 0.16693309
000140 e4 8e 74 bd 77 44 b4 3b 90 66 22 3e ce 40 80 bc
       -0.059706584 0.0055013257 0.15859437 -0.015655901

weight f4 [10, 84]
000000 28 a5 39 3d f3 88 c8 bd bf b9 a4 bd c1 b6 6a bd
       0.04532352 -0.09791746 -0.08043241 -0.057303194
000010 14 11 87 3d 1e eb 84 3d 21 5a 4b bc 0b b4 e3 3d
       0.06595054 0.064901575 -0.012411625 0.11118325
000020 b1 8f 48 3e ee 98 a3 3e e4 73 52 3e d8 3d 02 be
       0.19586064 0.31952614 0.20552021 -0.12718904
000030 58 39 4b 3d 36 82 ef 3d 0c 6c 6a 3d c0 a2 42 3d
       0.049615234 0.11694758 0.057231948 0.04751849
000040 d2 2e 69 bc d1 fb ff bd 28 a3 03 3e 91 ee 88 bd
       -0.014232354 -0.12499202 0.12855208 -0.06686128
000050 7a a7 b3 bd d8 c9 2c be 8f 6d 08 3d 9c 60 c7 3d
       -0.08772178 -0.16873872 0.03330761 0.09735224
000060 03 32 20 3d 28 f5 32 bd 2b 5c 6f bc 9c 5b 81 3e
       0.039110195 -0.04369083 -0.014609377 0.25265205
000070 84 79 00 3d 69 8a 16 be 34 85 21 3e 9a 9f d5 3c
       0.031365886 -0.14701237 0.15773469 0.02607708
000080 3f 12 c6 3d d2 3b 21 be 1d 03 44 be 18 53 d1 3d
       0.09671449 -0.15745476 -0.19141813 0.10220927
000090 40 94 26 3d 58 a1 3b 3d ba 5f be bd c0 32 d6 3e
       0.040668726 0.045808166 -0.09295602 0.41835594
0000a0 eb f8 f8 3d 60 a6 53 bc 61 13 06 be 5f c1 bf 3e
       0.12156852 -0.012918085 -0.1309333 0.37452218
0000b0 3d d3 bf bb 3e 42 7f 3c 13 6a e8 bc b0 75 e3 bd
       -0.005854039 0.015579758 -0.028370893 -0.111064315
0000c0 b0 49 d6 3c 9d 4f d7 bd 1d d3 94 3d 74 be 32 3e
       0.026158184 -0.10513232 0.07266829 0.17455465
0000d0 95 f0 8d bd 29 54 8b 3c cf 45 2f bd f9 dd 82 ba
       -0.06930653 0.017007904 -0.042791184 -0.0009984366
0000e0 2b 43 3d bb f8 37 14 be b9 9c fe bd 0e 85 de 3d
       -0.0028879147 -0.14474475 -0.12432236 0.10865222
0000f0 6e ee d1 3c 44 bf f5 bb 4f 46 82 3c 4c b0 c9 3d
       0.025626387 -0.0074996073 0.015902666 0.09848079
000100 a7 30 ac 3c de fd f5 3d e8 81 e5 3d bc 55 d7 bd
       0.021019293 0.12011312 0.11206418 -0.105143994
000110 c4 f9 e8 bd ff de 8d 3d 86 d5 49 3e 68 80 d9 bd
       -0.11375764 0.06927299 0.19710359 -0.10620195
000120 8c 84 af 3d 3c b5 e1 3c ab 7b 4d 3d f4 9e 45 3d
       0.08570203 0.02755224 0.050166767 0.048247293
000130 9f a7 88 3e a2 b4 d8 3d 67 75 57 be 80 20 d1 bc
       0.26690385 0.10581328 -0.21040879 -0.025528193
000140 27 7b 96 bd 0f 9b b3 bd 89 c9 8d 3e 76 fa 39 3d
       -0.07347708 -0.087698095 0.27692822 0.045404874
000150 08 ff ea bd de 17 21 be 12 d0 52 3e 7c d9 3e be
       -0.114744246 -0.15731761 0.20587185 -0.18637651
000160 c6 d0 b1 bd 91 c8 a6 bd 5d 9f c0 ba 6b cd 35 3d
       -0.086823985 -0.08143724 -0.0014695931 0.044385355
000170 b7 fd 44 bb 16 be 05 bd 23 94 d0 bd f6 8d 57 3e
       -0.0030058452 -0.032651983 -0.10184505 0.21050248
000180 3d 3c 46 bc 60 94 34 bb 79 b2 11 be e3 6c 85 bd
       -0.012099323 -0.0027554259 -0.14228238 -0.06514909
000190 21 9a 99 bd 58 01 8e bd 7e ea c0 bd 5f 26 9f 3d
       -0.07500101 -0.0693385 -0.09419726 0.077709906
0001a0 94 0b 7f bc 49 25 89 3e c1 68 a1 bd e4 88 8b bb
       -0.015566725 0.2678626 -0.07881308 -0.004258262
0001b0 9b 9d 2e 3c b9 fb 0e be f8 47 eb 3e f8 e7 88 3d
       0.010657693 -0.13963212 0.45953345 0.066848695
0001c0 2f 52 a2 bd 88 6d 6b be ab b3 0d be 89 3f 0d bc
       -0.079258315 -0.22991002 -0.13838069 -0.008621105
0001d0 8c 13 4a bd 7a d2 89 3c fa 8a aa bd a9 c3 93 3d
       -0.049335048 0.016823996 -0.08327289 0.072150536
0001e0 c2 ec c6 bd ff 8a d3 3d fc ce 8a 3d af f2 10 3d
       -0.09713127 0.10329246 0.067777604 0.03538769
0001f0 c1 17 32 be e4 6c a0 3d f0 35 e3 bd 53 81 f8 bd
       -0.17391874 0.07833269 -0.11094272 -0.12134042
000200 5b a4 f3 bd da 17 62 bc 0d 05 a4 3e 6b ac 90 bd
       -0.11896583 -0.013799632 0.32035103 -0.07064136
000210 c3 12 9a 3e e9 c1 55 bd fc 62 67 bd f6 7e 8f bd
       0.3009244 -0.05218688 -0.056490883 -0.07006638
000220 03 66 b4 3d 98 3a c7 3d 55 19 90 bd 52 85 59 3c
       0.0880852 0.09727973 -0.07036082 0.013276415
000230 b9 b9 3c be 58 3b 17 be 1c 18 38 3d 80 1f 41 3d
       -0.18430223 -0.14768732 0.044944867 0.04714918
000240 dc 78 de bc 05 0f 1f be be 12 50 be ab e2 ee 3e
       -0.02715724 -0.15533073 -0.2031965 0.4665731
000250 c7 d3 9d bc 94 14 23 bd e4 19 ea 3c 1b f9 0c 3e
       -0.019266022 -0.039814547 0.028576799 0.13766901
000260 2f 01 b9 3e a6 fb 72 bd 40 6b 1d 3e 11 1b 5e be
       0.36133716 -0.059322022 0.15372944 -0.21690013
000270 a3 a4 52 3d ea d1 67 bd 56 50 40 bd 7d 88 1b bc
       0.05142654 -0.056596674 -0.046951614 -0.009492991
000280 35 6f 27 be 26 39 90 3e 22 6b 11 be 5d b0 6b 3d
       -0.16351016 0.281686 -0.14201024 0.05754124
000290 25 da 97 bd 5d b2 9b bd 00 33 16 be 7c ec 85 3c
       -0.07414655 -0.076023795 -0.14667892 0.016348116
0002a0 f6 fa 02 be ee a0 6b 3d 48 bf d6 3b a5 47 d4 3d
       -0.12791047 0.05752652 0.006553564 0.103652276
0002b0 67 9c 35 3d de eb 19 be 0b d5 d8 bc 32 be 86 3c
       0.04433861 -0.15031382 -0.026468774 0.016448114
0002c0 0e 85 41 3e 8f ec a5 3e 3d 7f ba bd 1c 3b 73 be
       0.18898413 0.32407042 -0.091063 -0.23753017
0002d0 10 a1 6e 3d f6 72 4c be bf 95 51 be df 32 c5 bd
       0.05825907 -0.19965729 -0.2046728 -0.096288435
0002e0 e1 a8 50 bd 31 b1 46 be f1 26 17 3d 89 cd af 3d
       -0.050942305 -0.1940353 0.03690237 0.085841246
0002f0 b3 44 a6 bd f9 b5 f5 bd 47 73 84 3d a1 52 06 3e
       -0.08118572 -0.11997599 0.064673 0.13117458
000300 83 a5 d2 bd 84 52 8c bd 7e db 05 bd e8 9f 6a 3e
       -0.10285475 -0.06851676 -0.032680027 0.22912562
000310 94 7c d4 3d f8 cf ef bd 68 18 2c be b2 22 9d 3d
       0.10375324 -0.11709589 -0.16806185 0.07672633
000320 9c 89 98 3d 88 c6 e6 bd b3 99 4e 3e fd 9d c3 bd
       0.07448122 -0.112683356 0.20175819 -0.09551618
000330 5d 6f a2 3d 08 15 43 3c 70 d6 a9 bc 3c a5 ad be
       0.07931397 0.01190687 -0.020732135 -0.33915126
000340 db 7a 82 3d d6 88 7c 3d be f6 11 be 94 fc 40 3d
       0.06371089 0.061653934 -0.14254281 0.047115877
000350 eb 5f a0 3e ff ab 34 bb 9e 4a 2a bd 1c 12 38 bd
       0.3132318 -0.0027568338 -0.041575067 -0.044939145
000360 c7 2b c8 bc 0f cc 97 3c 41 6b 62 3c bd ca 0d 3e
       -0.024434937 0.01852992 0.013819517 0.1384687
000370 b9 03 13 be 4a 0d 8e 3d 74 d8 16 bd f0 35 02 3e
       -0.14356889 0.069361284 -0.03682752 0.12715888
000380 4b 05 df 3d 3d 90 bb 3d 0e f5 8c 3d c6 82 dc bc
       0.108896814 0.09158371 0.06882678 -0.026917826
000390 f0 d3 51 bd 02 c7 06 be 4d 12 1d bc 77 df 0f be
       -0.05122751 -0.13161853 -0.009586883 -0.14050089
0003a0 4c dc 5d be 93 7e ab 3e 34 49 6c 3d c5 1a 95 bd
       -0.21666068 0.33495006 0.057687 -0.072804965
0003b0 39 44 06 bd 8d 7b b4 3d f4 92 9b 3c 40 b4 dc 3e
       -0.032779906 0.08812628 0.018990971 0.4310627
0003c0 5f 79 b5 bd e8 4b ab 3d a9 10 7c bd b7 ba 41 3d
       -0.0886104 0.08364087 -0.061539326 0.047297206
0003d0 a2 29 0b 3f 58 f6 19 bd 27 c2 98 3e 45 62 25 bd
       0.543604 -0.037588447 0.29835626 -0.04037692
0003e0 a8 2d a2 3d fb 14 e0 3c 92 7a 13 be d3 aa 5b be
       0.079188645 0.027353754 -0.14402226 -0.21451883
0003f0 7f 50 a7 bd 33 94 87 be 34 05 de bd 51 d4 59 bd
       -0.0816965 -0.26480255 -0.10840836 -0.053180996

bias f4 [10]
000000 68 2d d2 3d 10 65 3d be c4 9d de 3d 56 9c 14 3e
       0.10262567 -0.18495584 0.10869935 0.14512762
000010 aa e9 07 bf 38 7a 89 3e 7f af 89 3e 16 51 88 3d
       -0.5309092 0.26851058 0.26891705 0.06656091
000020 2f f2 b0 3d 72 cd c2 be
       0.08639943 -0.38047367
