Models/ModelsForTesting/BasicModelTest.pth (torch, 182235 bytes, 10 tensors)

conv1.weight f4 [6, 3, 5, 5]
000000 ec 5a a7 bf 84 a6 93 3e e9 76 91 3e b8 ea 01 3e
       -1.3074622 0.2883798 0.28411034 0.12687194
000010 8d 3c 21 3e 51 ef 5c bf 0f 21 ee 3e 50 3c 5e 3f
       0.15745755 -0.8630267 0.46509597 0.8681078
000020 e0 47 bf be 33 07 1e be 75 90 d7 3e cf 18 dc be
       -0.37359524 -0.15432434 0.421024 -0.42987677
000030 96 95 28 3e 82 d7 55 3d f5 f0 8b 3d 80 8a 9c be
       0.16463313 0.052207477 0.06833068 -0.30574417
000040 24 a4 ab bd 37 4d 20 3e aa d9 56 3e d8 d3 c0 3d
       -0.08380917 0.15654455 0.2098147 0.09415406
000050 b8 9c f9 bd 8d 30 97 be 73 66 98 bb db b5 c0 bd
       -0.12188095 -0.2952923 -0.004650885 -0.09409686
000060 53 52 85 bd 39 d3 ba bf 75 60 9e 3e a1 0e b9 3e
       -0.06509843 -1.459571 0.30932966 0.36143973
000070 ca 39 15 3e 4b 0b 11 3e 0a 5d 48 bf 4a 17 9f 3e
       0.14572826 0.14164464 -0.78266966 0.31072456
000080 95 3a 38 3f 12 96 89 be e6 ee 21 be 7f 79 9c 3e
       0.7196439 -0.26872307 -0.15813789 0.30561444
000090 bf 1c e3 be 07 7c 57 3e d7 76 06 bb 14 03 d4 bd
       -0.4435787 0.21043406 -0.0020517611 -0.103521496
0000a0 f2 8a d2 be 76 b7 2c 3d 5a ff 1c 3e 0c 10 a5 3e
       -0.41121632 0.04216715 0.15331784 0.32238805
0000b0 9e 00 02 3d 51 c1 8f be 5a c9 23 be 73 29 84 bd
       0.03173887 -0.28077176 -0.15994778 -0.06453218
0000c0 3d cf 9e 3d 97 31 c8 bd dd 03 b9 bf 7c 90 a1 3e
       0.07754371 -0.097750835 -1.4454304 0.31555545
0000d0 f5 3f 7c 3e 94 66 0f 3e 2a 74 ac 3d 79 c0 5c bf
       0.24633773 0.14003974 0.08420594 -0.8623119
0000e0 81 d6 ae 3e 00 66 68 3f a4 4f a4 be cb 60 1b be
       0.34148028 0.9078064 -0.3209201 -0.15173642
0000f0 41 32 e0 3e e9 3f 09 bf e9 bb 91 3e d8 8f 2a 3e
       0.4378834 -0.53613144 0.28463677 0.16656435
000100 78 23 24 3b c7 c1 89 be cd 90 1b bd ab ee 8f 3e
       0.0025045555 -0.26905653 -0.03797989 0.28111777
000110 e2 e4 5c 3e f1 bd 9e 3d 22 e2 f6 bd 5f ca ea bd
       0.21571687 0.07751072 -0.1205485 -0.114643805
000120 d4 91 69 3d 26 bd 23 3d 1d 82 85 bb 1d 9a 07 be
       0.05702384 0.039975308 -0.0040743486 -0.13242383
000130 15 10 d5 3e 7b 32 89 3e 8b 23 23 3e cf 64 8a be
       0.41613832 0.26796326 0.15931527 -0.27030036
000140 98 c2 b2 3e 47 60 b8 3e 5c e2 02 3f fa f8 6a 3d
       0.34914088 0.36010954 0.51126647 0.05736635
000150 0e ad 81 ba c5 e0 55 3e 60 41 94 3d 33 c0 b5 be
       -0.0009893493 0.20886524 0.07239032 -0.354982
000160 24 5d a2 be 52 07 ae 3e 22 12 8d 3e 08 e1 08 bf
       -0.31711686 0.3398996 0.27552897 -0.5346837
000170 92 4b d2 be e8 f0 a8 be d7 2f 31 3d 15 d7 3b bf
       -0.4107328 -0.32996297 0.043258514 -0.73375064
000180 4e e2 27 bf a5 71 bd be 70 b5 4d be 58 06 76 be
       -0.6557969 -0.37000766 -0.20088744 -0.24025857
000190 9c 52 d2 bd 34 85 b1 3e 5e 9a ab 3e 5b 9a f9 3d
       -0.10269663 0.34671938 0.3351621 0.12187644
0001a0 dc dc d0 be c2 ce a6 3e 73 e1 b3 3e 85 9a f6 3e
       -0.40793502 0.3257962 0.35132942 0.48164764
0001b0 1b ed 42 3d a4 a6 95 bb a5 c1 7a 3e 8a 1c 4c 3e
       0.047589403 -0.0045669843 0.24487932 0.19932762
0001c0 5c 5f 37 be f5 f0 3d be 94 a8 94 3e ac 5b 81 3e
       -0.1790747 -0.18548949 0.29034865 0.25265253
0001d0 5b f0 05 bf de ca ca be a4 f7 67 be 4e 3b 70 3e
       -0.5231988 -0.396079 -0.22653061 0.23460123
0001e0 11 e6 36 bf dd 28 2a bf 02 fa 6c be e8 0b bf bd
       -0.71444803 -0.664686 -0.23142245 -0.09328443
0001f0 3f a8 21 be 7d 4d 08 be c1 fd f0 3e 2e 02 c1 3e
       -0.15786837 -0.1331081 0.470686 0.37696975
000200 b5 66 f7 3d c8 45 bc be ab c0 b9 3e e7 7e be 3e
       0.12080137 -0.3677199 0.36279806 0.37206194
000210 03 e4 22 3f e4 8e 71 3c 5a 0f 92 3d b2 ba 71 3e
       0.6362917 0.01474354 0.07131834 0.23606375
000220 09 fc a0 3d 50 fe ad be 95 84 92 be 43 9a e0 3e
       0.07860572 -0.33983088 -0.28616777 0.43867692
000230 b9 51 a1 3e 82 79 15 bf 9d b3 0b bf ce a5 8b be
       0.31507662 -0.5838853 -0.54570943 -0.27274936
000240 c0 ca 40 3e a7 7e 33 bf ea 2b 36 bf 40 73 7d be
       0.18827343 -0.7011513 -0.7116076 -0.24750996
000250 f8 c0 1a be 95 ec 5c be 54 72 f1 bc 84 4d fd bd
       -0.15112674 -0.21574624 -0.029473461 -0.123683006
000260 7e 38 14 bd 27 df a9 3c c0 12 06 3e 32 c6 d2 bd
       -0.036186688 0.02073629 0.1309309 -0.10291709
000270 88 05 b7 3d 67 35 10 3d 08 23 d4 3d 15 41 be bb
       0.08936602 0.03520718 0.10358244 -0.005806098
000280 ae 88 82 3d f7 64 b3 3d 84 84 b0 3d 45 f0 9c 3d
       0.06373726 0.08759492 0.08619025 0.07663015
000290 bd 70 62 bd e7 84 5f ba 30 ea e1 bd f2 df d0 bd
       -0.055283297 -0.0008526579 -0.11030996 -0.10198964
0002a0 80 b8 a6 bd 3a 64 c5 bd a7 9d f5 3c 2c a2 b8 3d
       -0.08140659 -0.09638257 0.029982401 0.09015307
0002b0 47 7e 80 bd b4 46 70 3d 4a 77 ce bc dc 34 10 bd
       -0.062740855 0.058661178 -0.025203366 -0.03520666
0002c0 09 38 a9 bd 4b 50 e3 3c 42 77 b9 3d fc ff 9c bd
       -0.08262641 0.027748248 0.0905595 -0.07666013
0002d0 90 86 c3 bd 5d ce 79 3d 30 80 43 3d 86 b5 fa bc
       -0.0954715 0.06098782 0.04772967 -0.030604135
0002e0 1e f8 4d 3d 0c 5a 48 bd 53 54 8c bd 49 96 02 be
       0.05028545 -0.048914 -0.06852021 -0.12752642
0002f0 ec c5 a4 bd e9 df 00 be be 4b bb bd 58 a7 b3 bc
       -0.08045563 -0.12585415 -0.09145306 -0.021930382
000300 05 0a 3b bd 3e 1c 81 bc 65 f1 14 bb 83 f2 7b bd
       -0.045663852 -0.015760537 -0.002272689 -0.061510574
000310 32 2f 0d bd 1f aa 85 3d a6 d9 c1 bd 1d b1 7f bc
       -0.034468837 0.06526589 -0.09465341 -0.015606192
000320 5c 1b e2 3c 96 02 30 3d 11 12 01 be c2 c3 9f bb
       0.027600937 0.042971216 -0.12604548 -0.004875631
000330 c9 ec 36 bd d6 c0 f4 3c cc e5 eb bd f0 23 d0 bd
       -0.04465941 0.029877108 -0.1151844 -0.101631045
000340 a2 6f a0 3d af f1 67 3d 32 5a e2 ba c9 fd d3 bd
       0.07833792 0.05662697 -0.0017269312 -0.1035114
000350 30 49 93 3d 2c ea 02 bd 36 ee 1d 3c 2a 85 47 3c
       0.07191694 -0.031961605 0.009639313 0.012177745
000360 cc 21 97 bd 1f 10 60 3d 56 5c 0a 3d 3d ac a7 bd
       -0.07379493 0.054702874 0.033779465 -0.08187149
000370 12 81 6b bd 1e 60 9a bd d3 88 54 bd 42 6d 97 3d
       -0.057496138 -0.07537864 -0.0518883 0.07393886
000380 cb 48 7f 3d e3 32 9c bf e8 13 e9 be 5a 03 bd be
       0.06232528 -1.2203029 -0.45523 -0.3691662
000390 fa ff 27 bf fa 14 3f bf aa ca 0c 3e ef d2 1c bf
       -0.65624964 -0.7464138 0.13749185 -0.6125936
0003a0 31 d4 26 bf 24 03 5e bf aa 05 b8 be 56 0f 1c 3d
       -0.6516753 -0.8672354 -0.3594182 0.038100563
0003b0 6b a7 e4 3c f0 c5 49 3d ea b0 05 3f 17 5c 4a 3e
       0.027911862 0.049261034 0.52223074 0.19761692
0003c0 8d 74 6c 3e 57 cd 83 3e ea d6 7a 3e 68 40 e7 3d
       0.23091336 0.257426 0.24496046 0.112915814
0003d0 5f b8 3d be 47 5d 27 3f f6 c6 86 bd 4b 57 9b 3d
       -0.18527363 0.65376705 -0.065809175 0.07585009
0003e0 07 e3 e5 3b 27 05 bc bc 32 c3 93 bf 2f 8a af be
       0.007015589 -0.022951676 -1.1543944 -0.34285113
0003f0 e1 d4 48 be 22 0d 12 bf 5f 2c 54 bf 47 47 16 3e
       -0.19612457 -0.5705129 -0.82880205 0.14675628

conv1.bias f4 [6]
000000 3e 46 97 be 58 11 3a 3e 50 71 c3 bd 04 07 24 3e
       -0.29545778 0.18170679 -0.09543097 0.16018301
000010 cc 7d be 3f dd 63 d6 3d
       1.488214 0.10468266

conv2.weight f4 [16, 6, 5, 5]
000000 19 c0 02 3f 15 1f c6 bd fe 10 ce 3d ab 14 74 3e
       0.5107437 -0.09673897 0.10061835 0.23836009
000010 dd 89 98 be e0 a0 39 be 12 d9 4e be aa b3 55 3d
       -0.2979268 -0.18127775 -0.20199993 0.052173294
000020 96 4d 09 bf c8 71 09 3e ee 00 f5 3c 85 f9 6c be
       -0.5363401 0.1342231 0.02990767 -0.23142059
000030 2a df 12 3c 17 36 b9 3d c5 3a d3 3c f3 20 1d bb
       0.008964339 0.0904352 0.02578486 -0.0023975938
000040 14 87 3e be 3a 55 d0 bd b4 a0 92 bd 7c 0f 9a 3d
       -0.18606216 -0.10172506 -0.07159558 0.07522485
000050 10 ba 1c bf 26 53 02 bf 4d 82 0a be 43 20 d0 3d
       -0.6122141 -0.50908124 -0.13526268 0.101624034
000060 94 c4 93 3f e8 e9 81 be d6 51 82 be ed 02 a5 bd
       1.1544366 -0.2537377 -0.2545306 -0.08057199
000070 d7 0f 89 bd 5f 3f 88 3e d3 83 85 be 96 1e e3 bd
       -0.06692474 0.26610848 -0.26077136 -0.11089818
000080 33 2f b2 3d b2 52 79 be 14 e2 b5 be 79 61 4c be
       0.08700409 -0.24347952 -0.35524046 -0.19959058
000090 b8 5f 28 bd 08 db 9d 3e 81 39 0f 3e 08 2b 0b bf
       -0.04110691 0.3083117 0.1398678 -0.54362535
0000a0 dd e7 72 3e b2 83 fa 3d 80 98 90 3e 9f c7 24 be
       0.23721261 0.1223215 0.28241348 -0.16091774
0000b0 f6 e4 fd be 72 d6 88 3f 9c ac 1d 3f a7 a1 1f 3d
       -0.49588746 1.0690444 0.61591506 0.038972523
0000c0 e1 4b 79 bf a9 82 54 bf 5b fb e2 3c a4 9a c9 bc
       -0.9738141 -0.8301187 0.027707746 -0.024609871
0000d0 e7 e0 a0 bb 11 53 1e bd 1f e3 72 3d 64 3c 97 bc
       -0.004909623 -0.038653437 0.05929863 -0.018461414
0000e0 d1 47 7f bd e3 b5 36 bd f1 c1 6b bd 2c 1b c4 bb
       -0.06232435 -0.044607054 -0.057558004 -0.0059846845
0000f0 a4 91 3c 3c 9f bb 66 bd 78 80 11 3c f4 15 98 bd
       0.011509333 -0.056331273 0.008880727 -0.07426062
000100 68 84 1e bd 05 8d 6d bd 4c bd 83 bb 03 d9 9e 3c
       -0.03870049 -0.057995815 -0.0040203687 0.019390589
000110 72 83 3d 3d 67 84 8b bd a1 01 1e bd 16 48 1a bd
       0.046267934 -0.06812363 -0.038575772 -0.037666403
000120 e9 96 9a bd c2 e2 af 3d 9b b0 7c 3d dc 84 a6 be
       -0.07548315 0.085881725 0.06169186 -0.3252324
000130 49 16 95 3d e0 18 87 3e ff 2e 65 be dc 62 80 3e
       0.07279641 0.26386166 -0.22381209 0.25075424
000140 8e 1b c2 3e 61 e5 4e 3e e7 04 5f bc 0e 9f 92 3b
       0.37911648 0.20204689 -0.013612009 0.004474527
000150 ae af ab 3d 00 ed f9 3b 82 5f 77 bd e3 94 aa bd
       0.083831176 0.0076271296 -0.060393818 -0.08329179
000160 af b2 fa bd f8 58 5d bd 01 fa 2f 3e 49 c7 2b bd
       -0.122411124 -0.054039925 0.17185213 -0.0419381
000170 20 a0 31 be d7 68 dd be a6 c6 85 be 6d 69 4c 3e
       -0.17346239 -0.4324405 -0.2612812 0.19962092
000180 cf fe 34 bc b2 81 9c be 65 0d fd be 41 15 2a be
       -0.011047079 -0.305677 -0.49424282 -0.1660967
000190 de 63 d2 3d 8b 0b 50 be 86 99 13 bf 2f 9e b7 be
       0.102729544 -0.20316903 -0.57656133 -0.35862872
0001a0 b6 eb 8e be 85 4a aa bd d7 7b 57 be 09 be ce be
       -0.27914208 -0.08314995 -0.21043335 -0.4037936
0001b0 d9 0e 93 be 83 57 15 be 6e 79 c4 bb 12 c5 82 be
       -0.28722265 -0.14584164 -0.005995921 -0.25540978
0001c0 29 dd 92 3c 50 eb 3f be f7 bc eb bd ac 20 7c bd
       0.017927723 -0.18742108 -0.115106516 -0.061554596
0001d0 41 d2 b7 bd 39 fc 06 3f 23 88 dd 3e b2 46 ee be
       -0.089756496 0.5272861 0.43267927 -0.4653831
0001e0 98 e8 17 3f 0f b1 b9 3e 35 de 40 3f a5 88 0a 3f
       0.59339285 0.36267897 0.7533906 0.54114753
0001f0 2e 13 67 bf 4f f2 31 be 1c f6 99 be 64 54 ca be
       -0.9026364 -0.1737759 -0.3007058 -0.3951751
000200 89 e1 c7 bd 9b 81 e0 be a3 7b 29 3d 51 bc 69 be
       -0.09759814 -0.4384888 0.041377675 -0.22825743
000210 f3 03 51 be 61 a3 07 3e 09 d2 2a bc 3b d8 5f 3d
       -0.20411663 0.13245918 -0.010426053 0.054649573
000220 eb 43 26 3d b5 3a a4 3e be 78 1b 3d a1 48 87 bd
       0.040592115 0.3207604 0.037956946 -0.0660565
000230 7b ca 60 3e fd 04 4a 3d cd bf 83 3e 9a f1 5e be
       0.2195224 0.049321163 0.2573227 -0.21771851
000240 81 00 93 bc 2a c9 35 3e 24 83 11 3e b8 0e ad 3c
       -0.017944576 0.17752519 0.14210182 0.021125183
000250 9d d0 b6 be 5b 9c 93 be e4 e6 04 3e 3c cf 52 3e
       -0.35706034 -0.28830227 0.12978703 0.20586866
000260 36 d1 61 3f 76 7f a1 3f b9 e4 28 3b 60 80 81 be
       0.88209856 1.2617023 0.0025771095 -0.25293255
000270 e3 a2 be 3e 27 45 ad 3e 9d 5b 60 3e 8e 28 ed 3d
       0.37233648 0.33841822 0.21909948 0.11580001
000280 f4 a0 ab be 6f 53 26 3d 83 df 75 bd ca 6f 2b bf
       -0.33521235 0.040606912 -0.06002761 -0.6696745
000290 b8 a0 0a bf 4b be f6 bd 79 3b 0f bf c7 54 88 bf
       -0.5415149 -0.12048014 -0.55950123 -1.0650872
0002a0 f3 d9 26 bf 44 0b b2 bd 58 45 95 bd 43 70 05 bf
       -0.65176314 -0.08693555 -0.07288617 -0.5212442
0002b0 58 56 90 bf 83 a8 1f bf 24 a2 f9 bc 95 b1 2c bc
       -1.127635 -0.62366503 -0.030472822 -0.010540386
0002c0 15 fc 43 3e 39 bb 6f bd 2e d2 87 be 8f 75 93 be
       0.1913913 -0.05852816 -0.26527542 -0.28800628
0002d0 86 22 43 be 56 db dc 3d a9 af 18 3f d3 7a c1 3d
       -0.19056138 0.107840225 0.59643036 0.09447255
0002e0 9a ef 1d bf 96 5b 0c be 0e a1 72 3a b1 fe bc 3e
       -0.6169373 -0.13706812 0.00092555664 0.36913064
0002f0 de ff c7 bd 4f 2c 46 be 3b ff c1 be 80 cb ca be
       -0.097656 -0.1935284 -0.37890038 -0.39608383
000300 9a f1 4a be 06 db ec 3e e6 22 40 3e a4 62 d8 bd
       -0.19818726 0.46260852 0.18763313 -0.10565689
000310 72 ad c8 3b ff 48 e9 bc f9 10 42 3d ac ed 65 3d
       0.006124192 -0.02847719 0.047379468 0.056134865
000320 6e 08 a7 3d 04 81 44 3d d5 62 2f bd 20 0b 6d 3d
       0.08155905 0.0479746 -0.042818863 0.057871938
000330 ee 75 c3 3c 6a 3c b4 3c 9c fb 7b 3d 80 71 82 3d
       0.023859944 0.022001464 0.06151925 0.06369305
000340 56 f8 4a 3d 69 53 f4 3b df 3a 4d 3d 49 5c 01 bd
       0.049553238 0.0074562323 0.050104972 -0.03158215
000350 8a a5 3d 3d 7e 71 e0 bc 00 ee 95 bd 2a ce a2 3b
       0.04630045 -0.027397867 -0.073207855 0.0049684243
000360 c8 c0 3e 3d 49 9f f8 bc 96 7c 85 3d 9f 25 76 3d
       0.04657057 -0.03034939 0.065179035 0.060094472
000370 cf 3b 2f 3c 8a 97 80 3c ec 06 f6 bb c1 fe 95 3d
       0.010695412 0.01569726 -0.0075081494 0.07323981
000380 d7 1d 87 3c 17 02 84 3e 74 e3 d4 3e 37 e1 17 be
       0.016493721 0.25782844 0.41579783 -0.14832006
000390 8b 6c 93 be 5a 40 bc 3c 64 4d f4 be b0 22 85 be
       -0.2879375 0.022979904 -0.47715294 -0.26003027
0003a0 a4 66 22 be b1 eb 92 be 72 64 be be 6c d4 f0 3e
       -0.15859467 -0.28695443 -0.3718601 0.47037065
0003b0 7a e8 4d 3e 6d e9 1f bd f1 44 52 be 51 d4 07 be
       0.20108214 -0.03904097 -0.20534112 -0.13264586
0003c0 07 5e e7 3d 45 b0 2d 3e 78 fd c0 3d 1c 8f 7f 3d
       0.11297231 0.16961773 0.09423345 0.06239234
0003d0 b3 0b 42 bd 2d 17 1e be 06 db 30 3e 1d 12 2d 3d
       -0.04737444 -0.15438528 0.17271051 0.042253602
0003e0 54 9e 5d be c0 bc e0 3c b4 57 85 bd 18 8a 52 be
       -0.21642429 0.027433753 -0.06510869 -0.20560491
0003f0 d8 64 28 be b1 19 2d bd f1 1c 87 be 56 51 e5 3d
       -0.16444719 -0.04226083 -0.26389268 0.11197154

conv2.bias f4 [16]
000000 00 28 fa 3c d4 4d ad bd 30 52 d0 3e e3 e4 e6 be
       0.030536652 -0.0846211 0.40687704 -0.45096502
000010 96 ca 76 3f 5e 3a 1c bf 58 e3 6f bb 5b cf 03 bf
       0.9640287 -0.6102656 -0.0036604013 -0.51488274
000020 a4 8f 8e bf 6a ca a2 be a1 27 e3 3e 95 cd 8e bd
       -1.1137586 -0.31795055 0.44366172 -0.069728054
000030 23 ea 40 bf 1a 22 11 bf 77 8f 02 bf 85 19 85 3d
       -0.75357264 -0.5669266 -0.5100016 0.06499008

fc1.weight f4 [120, 256]
000000 02 0e 1b be cd 34 f6 bd 65 10 c2 be 65 19 c6 bd
       -0.15142062 -0.1202179 -0.37903133 -0.09672812
000010 f5 12 0b 3e 71 c6 49 bd b0 77 8b be 56 b9 5c bd
       0.1358145 -0.049261514 -0.27239752 -0.053887688
000020 8f 55 5a be ed 47 2d be 82 3e b5 bd b1 11 83 3e
       -0.213217 -0.16921969 -0.08849813 0.25599435
000030 9d 52 f9 bd 08 55 8e 3e 80 7b a1 3d 5a f1 2f bd
       -0.1217396 0.2779925 0.07884884 -0.04295478
000040 18 d0 dd bd 6d 9e 87 bc 40 f3 7e be 31 45 25 3c
       -0.10830706 -0.016555035 -0.2489748 0.010087297
000050 9d 4b 39 bd 2f 82 2f 3e 3c d7 98 bc 2f 2a 1d be
       -0.045238126 0.17139505 -0.01865732 -0.15348123
000060 6e 97 69 bb 84 37 83 3d 29 94 25 3d b3 22 59 be
       -0.0035643238 0.06407073 0.0404245 -0.21204643
000070 41 ea 3b be 95 08 25 be be 1f c1 bd 60 6b 7e be
       -0.1835108 -0.16116555 -0.094298825 -0.24845648
000080 b4 35 22 be 20 0a 48 3e 3d eb 0c 3e 58 23 b5 bd
       -0.15840799 0.19535112 0.13761611 -0.08844632
000090 ca c6 78 3d ae 4e 7f 3e cc ce e7 bd 44 f3 ea bd
       0.060736455 0.24932358 -0.1131874 -0.114721805
0000a0 d8 88 dc bd 2a a1 6d bd 8e 39 d1 3d e2 44 49 3d
       -0.107682884 -0.058015026 0.10216056 0.049137957
0000b0 fa 63 f1 bd d1 a2 c1 bd 5f 46 62 be 4a 5d 3c 3d
       -0.11786647 -0.09454883 -0.22097157 0.045987405
0000c0 b2 4e 12 3d 48 66 00 3e e1 e6 48 be 26 3b b1 be
       0.03571958 0.12539017 -0.19619323 -0.3461544
0000d0 0c 78 5b bb 15 b8 a8 3d 89 e9 7a be c0 d0 60 be
       -0.0033488302 0.08238236 -0.24503149 -0.21954632
0000e0 1d 40 1f 3e 9a 58 7c 3d 77 a8 cf be 07 e3 67 3d
       0.15551801 0.061607935 -0.40558216 0.056612995
0000f0 7b d0 14 3d 2b 0b 50 3e 4e 31 b3 be 58 b8 84 3c
       0.036331635 0.2031676 -0.34998554 0.016201183
000100 05 28 fa 3d b7 c2 cf 3d ad 36 0a 3b bf 70 b3 bc
       0.12214664 0.10144561 0.0021089718 -0.021904347
000110 72 0d 2a be c1 d3 da bd cf 17 b2 bd 90 fb 4e bc
       -0.16606691 -0.1068492 -0.086959474 -0.012633219
000120 3a 38 8b bd 79 f3 25 be 96 1e 9c bd 16 e0 49 3e
       -0.06797834 -0.16206159 -0.07623021 0.19714388
000130 2d 0c 39 bd eb 93 ca bd 83 d3 2a bd 44 db 90 3e
       -0.045177627 -0.09891494 -0.04170562 0.28292286
000140 5a 3e ea bd 29 8d b8 be ae b7 06 bf f4 84 a2 be
       -0.11437674 -0.36045197 -0.5262402 -0.3174206
000150 97 82 08 3e 9b b7 98 bd 75 e9 7e be 96 fe 9f 3e
       0.13331066 -0.07456895 -0.24893744 0.3124892
000160 10 01 82 3e d2 4e 49 3d 3d 7a 2d bb 9d c1 24 bd
       0.25391436 0.049147435 -0.0026470565 -0.040223707
000170 5f 7b e4 3c af 3f ae 3e 1c 7b 35 3e 85 ee 2f 3a
       0.02789086 0.34032962 0.17722744 0.00067112624
000180 0c a6 58 bd 97 6b 0f 3d 95 db 0a 3c ff 2d b7 3c
       -0.05289273 0.035014715 0.008475204 0.0223608
000190 09 f3 57 3d b1 58 03 bd d6 f3 f5 bc 11 ca e2 bc
       0.05272201 -0.032067005 -0.030023497 -0.027684243
0001a0 02 70 83 bb 6e 7c b9 3c c3 84 30 3d 49 84 a0 3d
       -0.004011155 0.02264234 0.04309536 0.078377314
0001b0 a8 fa 8c bd a3 9b a7 bc 4d bf 12 ba 8c b0 6a bd
       -0.068837464 -0.020459956 -0.0005597964 -0.057297274
0001c0 78 cd 88 be c8 46 53 be 70 cd bb bd 02 f2 89 3e
       -0.2671926 -0.2063247 -0.091700435 0.2694245
0001d0 f7 f9 80 be 31 fc 91 bd 36 c8 cd 3d 3b 80 b5 bc
       -0.25190708 -0.0712818 0.10047953 -0.022155872
0001e0 53 3d a0 3d c2 34 0c 3d 20 86 f3 bd 3c 45 4a be
       0.07824197 0.03423 -0.11890817 -0.19752973
0001f0 54 b9 0a 3e 84 39 ac 3e ee bd a5 bd 0c 2e de bd
       0.1354726 0.3363763 -0.08092867 -0.108486265
000200 fe 58 c6 bd 4f 5d 04 be be 73 a0 be 92 01 31 3e
       -0.09684943 -0.1292622 -0.31338304 0.17285755
000210 7c 1c cc bd 45 a6 38 bd ca 0e 74 be b7 39 e4 3d
       -0.099663705 -0.045080442 -0.23833767 0.11143821
000220 bc bb 4b bd 20 02 e1 3d 87 48 ea bd 46 f4 fa bd
       -0.049739584 0.109867334 -0.11439615 -0.12253623
000230 95 0d a0 bc 31 93 a9 3e 1e 86 3a be 5e b6 0c be
       -0.019537726 0.3312011 -0.18215224 -0.13741443
000240 80 49 5f be 58 e2 43 be da 09 ea bd 67 f4 ea bd
       -0.21805382 -0.19129312 -0.1142766 -0.11472397
000250 07 42 52 be 9b c6 d2 3d 7c ea 40 3e cb 64 fe 3a
       -0.20533 0.10291787 0.18839449 0.0019408701
000260 a3 b2 1d be e6 e7 e3 ba 9f a9 2b be 3e ed 1d 3e
       -0.15400176 -0.0017387837 -0.16763924 0.15422532
000270 60 32 f0 bc a9 9d 37 bd 9b 8d 3b be 99 b3 db 3d
       -0.029320896 -0.04482809 -0.18315737 0.10727615
000280 f0 01 26 3d 04 e1 07 3e aa 2a 03 3e fd 6d fb bd
       0.04052919 0.1326943 0.12809244 -0.12276838
000290 f0 41 1c 3d 56 60 59 3c bc e9 94 bc 9f 3e 7e 3d
       0.03814882 0.013267597 -0.01817786 0.06207144
0002a0 44 85 a8 bd cf 2e 89 bd 3d ae 9a bd e1 8c 8a bc
       -0.082285434 -0.06698381 -0.075527646 -0.01691288
0002b0 20 78 04 bd 57 db 03 bd 99 ec 13 ba c2 70 17 3e
       -0.032341123 -0.0321916 -0.0005642861 0.14789107
0002c0 39 30 d8 3d a5 46 b1 3d d1 f5 a5 3d 9c 37 68 3d
       0.10556073 0.086560525 0.081035264 0.05669366
0002d0 02 20 8d 3e f4 0b 14 be 9c e3 54 bd 61 4b 9d 3d
       0.27563483 -0.14457685 -0.051974878 0.07680393
0002e0 ff 3e 6d 3e 3f 67 06 be 42 71 8a bc c2 e2 02 3d
       0.23168562 -0.13125323 -0.016899709 0.031954534
0002f0 4b 14 9c 3d 30 e6 a1 3d 31 95 e3 3d 18 9d d2 bd
       0.07621058 0.07905233 0.111124404 -0.102838695
000300 82 ea 07 3e 6f 90 be 3e e0 36 37 3e 7e a6 82 be
       0.13273051 0.3721957 0.17892027 -0.25517648
000310 65 2d 07 bc b1 04 79 3e 5a db 47 bd 49 55 8e bd
       -0.008250569 0.24318196 -0.048793174 -0.069498606
000320 ba b6 ca bd 91 a3 05 3c b7 f8 4b be 3b c0 43 3d
       -0.098981336 0.008156673 -0.19919096 0.047790747
000330 9a 83 e1 3c 08 6d 49 be 14 d9 79 be 70 6e 61 3e
       0.027528573 -0.19670498 -0.24399215 0.22014785
000340 b0 2a 23 be 01 d3 20 bd 76 bd dc 3e 6e 2d f1 3d
       -0.15934253 -0.03926373 0.43113297 0.11776243
000350 19 d6 8d 3d 3b 1f 4a 3d 52 18 52 3d 7c 81 1a be
       0.069256015 0.04934619 0.051292725 -0.15088457
000360 8d b9 16 be ae a0 db bd 37 fc b2 3d e3 3b 4b bc
       -0.1471922 -0.107240066 0.087395124 -0.012404415
000370 3d 71 b9 bc e1 92 8e 3d d0 db 63 3e 95 b3 b7 bd
       -0.022637004 0.06961609 0.2225182 -0.089697994
000380 8a 27 04 3e 35 d0 31 bc 13 4c 49 be 9d 20 38 3e
       0.12905708 -0.010852863 -0.19657926 0.17981191
000390 72 ae a6 bd 23 41 e1 bc a4 e3 37 be 82 34 2d 3d
       -0.081387416 -0.02749688 -0.17957932 0.042286403
0003a0 a1 c0 5d be 01 4b 5a bc d5 e1 5f be a3 5d 10 be
       -0.21655513 -0.013323546 -0.21863492 -0.1409822
0003b0 38 de 84 be 57 3f 2e 3e bc f7 66 be d7 7a 96 3c
       -0.2595079 0.1701635 -0.2255544 0.018369121
0003c0 6f d4 81 bd 3f 4e ab be 05 02 48 3c 64 1e fe bd
       -0.063393466 -0.33458135 0.012207513 -0.1240814
0003d0 ee 3a 72 3d e5 8b b1 bd 62 7a 7c 3d 75 73 92 3d
       0.05913823 -0.08669261 0.06164015 0.07150928
0003e0 72 27 00 3e 27 f3 1b 3e 7e 37 36 3d 16 1d 3a bd
       0.12515047 0.15229474 0.044486515 -0.045437895
0003f0 4e 3f 38 3e 35 96 92 3e cb b9 71 3e af 8f 7a 3d
       0.17992899 0.28630224 0.2360603 0.061172184

fc1.bias f4 [120]
000000 3e c7 d1 3d 90 ff 91 bd fb 6d bd 3c 2f fa 21 be
       0.102430806 -0.07128823 0.023123732 -0.15818094
000010 ee f8 01 bc 80 52 30 3e 9c ff 67 bc c5 3a bd 3d
       -0.007932885 0.17218971 -0.014160063 0.09239725
000020 95 b2 43 bd 9d a9 db bc 35 1b e5 3a 3d 1a 82 bd
       -0.04777773 -0.026814276 0.0017479422 -0.06352661
000030 fc f2 97 3d 5a 06 d9 bc 95 68 a7 bb 39 f8 8e 3c
       0.074193925 -0.026492286 -0.0051089027 0.017452346
000040 da b7 1b be 31 20 11 bd b1 af ba 3e 9f 8e c5 3c
       -0.15206853 -0.03543109 0.36462167 0.024115859
000050 54 a4 c0 3c df 81 c9 3c 26 fa 98 bc 91 2f 93 bd
       0.023515858 0.02459806 -0.018673968 -0.07186807
000060 90 26 1c bd 38 24 af bd 09 14 18 3e 47 65 d0 bd
       -0.038122714 -0.0855183 0.14851393 -0.10175567
000070 b5 58 c3 bd 6f 40 42 3d 83 b3 8b 3e 1d 1d 65 bd
       -0.09538404 0.04742473 0.27285394 -0.055935968
000080 ab 96 c1 3c de db 02 3e 53 8f 26 3d 18 95 be bd
       0.023631414 0.12779185 0.04066403 -0.09305781
000090 01 22 88 be 8b 9c 01 be a7 cc 61 3d bd b5 bf 3e
       -0.26588443 -0.12657373 0.055126812 0.37443343
0000a0 fc 89 07 be b9 17 4c bd 72 68 23 3d 9b a6 65 bd
       -0.1323623 -0.04982731 0.03989453 -0.05606709
0000b0 21 2b ad 3c fa 1d 82 3d 87 5c 4c 3d ea 43 25 bd
       0.02113873 0.06353374 0.04989293 -0.04034797
0000c0 e3 10 06 bc 1f 6a 5c 3e 07 13 42 3d 9b ea 18 3d
       -0.008182737 0.21524857 0.047381427 0.037333112
0000d0 fb c8 0f 3e 37 71 34 bd 0b 9f 2c 3e bc 76 22 bc
       0.14041512 -0.044053283 0.16857545 -0.009916004
0000e0 c5 2a 6a 3d aa 0f 5f 3d a0 8c c7 3e 8c 2d b2 3e
       0.057169694 0.054458298 0.38974476 0.34800375
0000f0 ba 1c 12 be 5f 79 8a ba db 52 91 bd 11 72 1f 3e
       -0.14268771 -0.0010564736 -0.070958816 0.15570857
000100 dc 91 93 bd 7f fe e0 3e 3f 44 a4 3e 57 7d b2 3d
       -0.07205555 0.43944165 0.32083318 0.08715313
000110 ac fe 34 3e 85 20 8e 3c 94 44 03 bd 51 94 49 bb
       0.17675275 0.01734949 -0.032047823 -0.003075857
000120 4b e5 16 be f7 b2 58 3e 0e 98 83 bd 3b fe 05 3d
       -0.14735906 0.2116202 -0.064254865 0.032713156
000130 4e 46 a9 3d b1 e5 ac 3e 43 2e 1a 3e a7 c7 7c 3e
       0.08265363 0.3376899 0.1505671 0.24685536
000140 d9 e1 e3 bc 71 fc 45 bd b6 39 27 3e 04 0d cf 3e
       -0.027817653 -0.04833645 0.16330609 0.40439618
000150 85 31 ab 3c e6 90 58 bd 66 b5 55 be 41 87 96 bd
       0.020897636 -0.05287256 -0.2086998 -0.073500164
000160 a9 77 2d bd 87 ca c7 3d 76 1e a1 3e fb 1c 70 3d
       -0.042350445 0.09755426 0.31468552 0.058621388
000170 2a 8b 0a bc 4f c8 1a 3e ae 67 e9 be 56 ea b7 3c
       -0.008456031 0.15115474 -0.45586914 0.022450607
000180 70 90 81 bd 07 1e 02 3e 2c 2b bf bd 47 52 15 3e
       -0.063263774 0.12706767 -0.09334406 0.14582168
000190 02 1d a6 3d b1 66 71 3c f5 18 91 3d 99 12 83 bd
       0.081110016 0.014733956 0.07084838 -0.064000316
0001a0 d3 f7 2b bd 5e 7f dd 3d 8a bf c0 3c 97 3b 81 3c
       -0.04198439 0.10815309 0.023528833 0.015775485
0001b0 3d e1 ae be e1 b0 b9 bd fa f1 bc 3b 34 ff 26 3d
       -0.34156218 -0.0906694 0.0057661505 0.040770724
0001c0 4a a0 99 3d 62 91 76 bd d3 e8 d7 3d 9e e6 81 bd
       0.07501276 -0.06019724 0.105424546 -0.06342815
0001d0 cf 26 f8 3c 84 05 e7 bc fb 59 cd bc 37 18 f9 bb
       0.030291943 -0.028200872 -0.02506732 -0.0076017636

fc2.weight f4 [84, 120]
000000 9e 6a ad be ff 33 6f be ab 43 42 be 11 ff 98 be
       -0.33870405 -0.23359679 -0.18971126 -0.298821
000010 e0 14 02 3c 94 73 3a be fa d5 a4 bd f0 43 39 3d
       0.007939547 -0.18208152 -0.08048625 0.045230806
000020 db e3 ad 3d 8d 63 44 3d e4 93 0a be 79 17 1d 3e
       0.084907256 0.0479465 -0.13532978 0.15340985
000030 92 0e 7c 3e 26 d3 26 3d e8 cb cc bd 16 93 2c be
       0.24614933 0.04072871 -0.099998295 -0.16852984
000040 50 f3 01 be fd e6 ca 3d f8 49 a0 be 3f 46 76 3d
       -0.12690473 0.09907339 -0.31306434 0.060125586
000050 18 6a e0 bd 47 ab 52 3c 4e 32 83 be da bd 0a 3e
       -0.10957736 0.0128582185 -0.25624317 0.13548985
000060 a6 9e 5c be 31 75 11 be ab 91 cf bd f9 7a 8c 3d
       -0.21544895 -0.14204861 -0.10135206 0.06859393
000070 37 cd da bc 02 17 17 bd 65 a2 2b 3e 86 83 f6 bd
       -0.026709182 -0.036887176 0.16761167 -0.12036805
000080 8f 61 f8 bd eb 8e f2 bd 26 0f 3b be 03 bd 33 be
       -0.12127983 -0.11843666 -0.18267497 -0.17552571
000090 f8 42 54 be c7 21 17 bd ac 6b ed 3b 90 8d c2 bd
       -0.20728672 -0.036897447 0.0072455015 -0.09499657
0000a0 94 79 0a be 02 13 4f be 26 9d 07 be 39 68 86 3d
       -0.13522941 -0.20222095 -0.13243541 0.06562848
0000b0 81 d3 68 3b 02 c4 0b 3d c4 bd a8 be 30 4f 3c be
       0.0035526457 0.034122474 -0.3295728 -0.18389583
0000c0 81 57 ca bc b1 c7 e6 3d 6f 5d 12 be 1e 3d bd bd
       -0.024699928 0.11268557 -0.14293455 -0.09240173
0000d0 a6 5a 2b be 86 a8 a4 3d b0 31 5b 3e e7 c0 a9 3d
       -0.16733798 0.08039956 0.21405673 0.08288746
0000e0 56 fc 5e 3e 97 8b 16 be 29 20 28 3e 83 97 38 3d
       0.21775946 -0.14701687 0.16418518 0.045066368
0000f0 cd 14 6e be ad 97 03 3e d5 49 ff bc a4 ee 6a 3e
       -0.23250122 0.12850828 -0.031163136 0.22942597
000100 11 71 38 bd 4e 15 16 3d ab 4d 9a be cc 72 d7 bb
       -0.045029704 0.03664141 -0.3013738 -0.006574964
000110 6d 34 05 3e e3 e5 b0 bd e4 b6 f4 3c 03 07 c9 3a
       0.1300828 -0.086375974 0.029872365 0.0015337173
000120 43 70 9f be d9 b0 e2 be e4 c3 87 3c e8 12 6e bc
       -0.31140336 -0.4427555 0.0165729 -0.014530875
000130 db 72 91 3d a2 1e db 3d 95 fa 6a 3d 18 a9 b6 bc
       0.07101985 0.10699202 0.05736788 -0.022297427
000140 d0 67 40 be 48 42 fa bd a5 c0 04 be 4c 73 70 be
       -0.18789601 -0.122196734 -0.12964113 -0.23481482
000150 1d 4a 01 3e 6e a5 72 3b b5 f7 41 be 26 f7 c8 bd
       0.12625928 0.0037024873 -0.18942149 -0.09812765
000160 28 6b d0 bd 51 77 0a 3e 8c 57 1e bd ac 18 01 3e
       -0.101766884 0.13522078 -0.03865771 0.12607068
000170 1a 47 1b 3e 41 d6 36 be e1 d2 1a be 79 cd 04 3d
       0.15163842 -0.17855169 -0.15119506 0.032422516
000180 52 24 9c bd 15 b3 21 be 2c 06 83 bc b7 3e 3b be
       -0.07624115 -0.1579097 -0.015994154 -0.18285643
000190 d9 11 ad 3d 80 61 af bd 10 22 21 be a9 31 ae bd
       0.0845067 -0.085635185 -0.1573565 -0.08505566
0001a0 04 02 4c be 2e ed 51 bd 79 84 03 be fa e2 03 be
       -0.19922644 -0.051251583 -0.12843503 -0.12879553
0001b0 00 e9 18 be f5 83 98 3c 4e 50 12 be 0c f6 98 3d
       -0.14932632 0.01861761 -0.14288446 0.07468805
0001c0 94 57 ee bd 2a 6d ba 3d f6 8d 4c 3d da ce 90 3d
       -0.11637798 0.09102853 0.049940072 0.07070704
0001d0 97 69 a6 bd 74 e9 06 be e3 52 ce bc 68 19 d8 3d
       -0.081256084 -0.13174993 -0.025186008 0.10551721
0001e0 c4 fc 88 bc 2e fa ce 3c 70 5f ec 3c f4 2e fc 3d
       -0.01672209 0.02526578 0.028854102 0.12313643
0001f0 7a be 9e 3d 1b 75 f1 3c 28 ab d3 bd b5 3a 6a bd
       0.07751174 0.029474786 -0.1033538 -0.057184894
000200 c3 12 d6 3d 94 7e 80 3c 05 04 20 bd 28 a7 c7 bb
       0.10452797 0.015685357 -0.039066333 -0.0060929246
000210 c4 fc 03 bd 81 02 7d 3d 49 03 95 bc d6 dc d5 bd
       -0.032223478 0.061769966 -0.018190043 -0.10442512
000220 ea 96 da bd ee e0 33 bb 44 53 ab bd f1 d7 b1 bb
       -0.10673316 -0.00274473 -0.08365491 -0.0054273535
000230 3d 23 a4 bd b6 76 78 bd 18 6e 2d be 59 2b 4d bd
       -0.08014534 -0.060660087 -0.16936529 -0.050090168
000240 4d 05 53 3d eb 6f 9e bb 80 d9 bd bb 6a fa 4b bd
       0.051518727 -0.004835119 -0.0057937503 -0.04979936
000250 bb 38 aa bd 3f aa 86 3c b4 2c e3 bd 0d db 84 bd
       -0.08311602 0.016438602 -0.11092511 -0.06487093
000260 da e5 1c 3e fe a1 ac bd 26 ae 03 be 75 46 f9 3d
       0.15322056 -0.08429335 -0.12859401 0.12171642
000270 14 23 b5 bd 1a ea 1a 3c ac 05 24 bc 91 04 86 bd
       -0.08844581 0.009455228 -0.010011118 -0.0654384
000280 20 58 59 3d 38 79 fa bd 02 cb db 3d 08 0a 83 bd
       0.05306256 -0.12230152 0.1073208 -0.06398398
000290 88 a6 4b 3d ab ae e6 bd b4 56 35 3e df 60 df 39
       0.049719363 -0.11263784 0.17708856 0.0004260605
0002a0 f8 3c 1d 3d ac 53 58 3d 9e 0c 02 bd 55 dd ea bd
       0.038388222 0.05281417 -0.031750314 -0.11467997
0002b0 57 87 ef bc 8c 61 80 bd b1 de 22 bc d3 cf 8f 3c
       -0.02923934 -0.062686056 -0.009940789 0.017555153
0002c0 dd 87 aa 3c a8 a6 85 bd 67 ca 5c bc 50 5e f7 bd
       0.020816738 -0.06525928 -0.013475991 -0.120785356
0002d0 22 8f b9 3d f1 c1 9c 3c 33 b7 de bb 99 58 22 bd
       0.090605035 0.019135447 -0.0067967414 -0.039635275
0002e0 93 ef 6f bd 7e 6e 7f 3d 83 4b 1e 3d 5f eb 76 3d
       -0.058578085 0.062361233 0.038646232 0.06028306
0002f0 24 f4 c6 3d 51 72 b4 3c 94 c9 ab bd 39 11 cd 3d
       0.09714535 0.022027167 -0.08388057 0.100130506
000300 c2 43 20 bc 6c 0e 2c bd a9 e7 40 3d f1 b6 79 bc
       -0.00978178 -0.04200594 0.04709593 -0.015241371
000310 98 7c 82 3d 84 cf fb bd d6 5c 54 3c 36 86 4c be
       0.063714206 -0.1229544 0.012961587 -0.19973072
000320 fb 6a 6d 3d 01 02 1b bc 32 b1 47 bd 23 7f 03 3d
       0.057963353 -0.009460927 -0.04875297 0.03210367
000330 b3 5a 9b 3c f8 38 a4 bd db de b3 bd 1d 95 25 3d
       0.018964147 -0.080186784 -0.08782741 0.04042541
000340 49 bd a3 bd 5f 6b c9 bc 87 b1 98 bd 5d b7 31 be
       -0.07995088 -0.024587331 -0.07455736 -0.17355104
000350 08 92 90 bd b8 24 8f 3d 90 11 e3 bc 5b 5b ac 3d
       -0.07059103 0.069894254 -0.027718335 0.08415862
000360 0b ee 41 3d a3 f7 39 be 77 fb a9 bd e5 e9 3b be
       0.047346156 -0.18160872 -0.08299916 -0.18350942
000370 dd 22 be bd cd 0a 5a 3c 9d bd 9c 3c 3a 06 e8 bd
       -0.092839934 0.013308239 0.019133383 -0.113293126
000380 97 8e a8 3d 7c 49 b3 bd b2 6a 99 bd ce 94 0a bd
       0.08230322 -0.087542504 -0.07491054 -0.033833317
000390 9d 85 23 be 5f 3d 30 bd bc c0 38 3d ab ea c1 bc
       -0.15968938 -0.043027278 0.04510568 -0.023671469
0003a0 a3 ed d6 bc 83 ce 09 be 19 79 09 3d 59 df 65 3d
       -0.02623636 -0.13457684 0.033562753 0.056121204
0003b0 f7 f6 e0 bd 84 24 7f 3c 3c 51 8c bb d7 45 f7 3c
       -0.10984605 0.015572671 -0.004282145 0.03018467
0003c0 d8 da b1 3d 03 f9 bc 3c e3 20 fa bd 23 51 d2 bd
       0.08684319 0.023067957 -0.12213304 -0.10269382
0003d0 62 5a 0f bd ca f4 b7 be 3e 4e 34 bc 3b 9b f4 be
       -0.034998305 -0.35928947 -0.0110049825 -0.4777468
0003e0 d8 63 a8 bd 96 d0 82 3d 7b 38 05 bc 1e f7 5f be
       -0.08222169 0.06387441 -0.008131142 -0.21871611
0003f0 c8 43 fd bd d1 bb a5 3c 36 46 47 3d 7e b1 9d bd
       -0.12366444 0.02023116 0.048650943 -0.076998696

fc2.bias f4 [84]
000000 41 4f 5a 3e 0f 26 d7 3c 8e 75 08 3f f0 7b 8a 3e
       0.21319295 0.026263265 0.53304374 0.27047682
000010 d8 50 f6 3d b2 ec 05 be f7 0a f3 3d 33 91 a8 3e
       0.120271385 -0.13078573 0.11867326 0.32923278
000020 17 d9 1d 3c 93 b0 b3 bd f3 38 1b 3d f4 63 c9 3e
       0.009634278 -0.08773913 0.037896108 0.3933407
000030 2a 6c de bc 27 49 be bd e7 07 04 bd 42 2d 20 3f
       -0.027151186 -0.092912965 -0.0322341 0.6256906
000040 4e 4e 60 bd 83 e0 c4 bd 3f 08 da 3e 6f fc c7 bd
       -0.054762177 -0.09613135 0.42584416 -0.09764945
000050 f8 d7 06 3f c8 aa 11 3f 1b 3c 5f 3f 3c f9 ad bb
       0.5267329 0.56901217 0.8720109 -0.005309252
000060 81 df 1f be 21 0c ce 3d 44 c6 01 be ed 32 d5 3d
       -0.15612604 0.10060907 -0.12673289 0.10410104
000070 93 22 80 3d 6e d3 06 be b4 f0 df 3e e1 1a 0d 3e
       0.062565945 -0.13166592 0.4373833 0.13779785
000080 6d 6e c6 3c 34 a1 f5 3e 5c 51 22 be cf 38 df bd
       0.024222577 0.4797455 -0.15851349 -0.10899507
000090 1f 8a 6a bd 3b 81 c6 3e fa 6d 03 3e 02 0d a6 bc
       -0.05726063 0.3877047 0.12834921 -0.020269874
0000a0 7c 6a 67 bc 65 b3 52 bd 7a 5e b9 bd 8a 92 56 3f
       -0.014124509 -0.051440615 -0.09051223 0.8381735
0000b0 db c6 0c be 15 db 4d bd cf bb 25 3f 2b 50 32 bd
       -0.13747732 -0.05025776 0.647397 -0.043533485
0000c0 b2 26 0d be 9d 51 ac 3d 7a 17 cc bd 22 56 23 3d
       -0.13784292 0.08414004 -0.09965415 0.039877065
0000d0 07 2f 9f b9 32 37 89 bc 97 10 81 bc 9d d7 7b bd
       -0.0003036188 -0.016749952 -0.015754981 -0.06148492
0000e0 d7 79 51 3e bd e2 5c 3e 61 95 e5 3e 1c fc d2 3d
       0.20456634 0.21570869 0.4484053 0.10301992
0000f0 d1 f9 5e 3e 3b 1e 07 3f ec cd e5 3e 5c a4 49 3c
       0.21774985 0.52780503 0.44883668 0.012307253
000100 66 e1 93 3e bb f0 37 3e 1b 06 dd 3e c8 fb 71 3c
       0.28882903 0.17962925 0.4316872 0.014769502
000110 64 56 99 3d 86 78 85 3d 6d f3 79 bd 25 8e f7 3a
       0.07487181 0.06517129 -0.061023165 0.0018886967
000120 d6 2c a8 bd aa fd b2 3e 24 14 32 bd 37 07 98 3e
       -0.08211677 0.34959155 -0.04347624 0.29693004
000130 1d 0f 15 bd 2b 70 11 3f 50 80 a7 3e d0 78 9a 3d
       -0.036391366 0.5681178 0.32715082 0.075425744
000140 41 e5 bf 3e 75 2d 3d 3e d2 be cf 3e ec f3 2c 3f
       0.37479594 0.18474372 0.40575272 0.67559695

fc3.weight f4 [10, 84]
000000 9b d9 33 3f cb 40 35 be 4e ee e3 be 15 13 f3 3e
       0.70253915 -0.17700498 -0.4451775 0.47475496
000010 08 88 f8 3e a3 58 5b 3b a0 88 a2 3e 9d ce a5 3d
       0.48541284 0.003346958 0.31744862 0.08096049
000020 bc 27 bb 3d 96 b2 09 3e e1 d1 6e 3e b4 4d be 3e
       0.09138438 0.13447031 0.2332225 0.37168658
000030 d4 1e a5 3d 02 f4 c2 3d de 0e 9d bc 25 91 08 be
       0.080625206 0.09519197 -0.019172128 -0.13336618
000040 30 51 5e bd 41 3f 79 3d 00 06 22 bd 45 dd 1e bc
       -0.054276645 0.06085134 -0.039556503 -0.009696309
000050 de 28 dd be 3a de 43 3e f5 20 43 3f 28 ca 10 be
       -0.43195242 0.19127741 0.76222163 -0.14139616
000060 98 98 50 3d 0d 50 e7 bd 7c 59 1c bc 53 26 17 3e
       0.050926775 -0.11294565 -0.009542819 0.14760713
000070 ee f0 58 be 03 aa 1f bd 09 28 ad 3e 12 9e 9a bd
       -0.21185657 -0.038980495 0.33819607 -0.07549681
000080 05 f7 32 be 69 97 37 3f 75 8b bb bd a7 7c e7 3d
       -0.17477043 0.7171541 -0.09157459 0.113030724
000090 da 46 ad 3d d0 88 5e be 0f 47 b6 3e 0b d2 7d 3d
       0.084607795 -0.21731877 0.35601088 0.06196789
0000a0 8c 63 c3 bd 62 37 dc 3c f4 0a 1b be 73 ea 8b 3d
       -0.095404714 0.026881877 -0.15140897 0.06831827
0000b0 9b 15 77 be 1c 53 6b be fe b9 eb 3d 94 23 ca 3d
       -0.24129336 -0.22980922 0.115100846 0.09870067
0000c0 31 32 c3 bd 3e 30 21 3c cf 84 b0 bd 2c e2 e0 bd
       -0.095310576 0.009838162 -0.08619081 -0.10980639
0000d0 45 9c ce 3d 72 e8 3a 3e c4 ff 8f be 05 db a9 bd
       0.100884 0.18252733 -0.2812482 -0.08293728
0000e0 36 23 56 bd 68 62 4b bd 42 82 9a 3e 11 ac 63 be
       -0.052279674 -0.049654394 0.30177504 -0.22233607
0000f0 3a fe 2a be 9c f2 0f be b6 2c bc 3e c9 00 28 be
       -0.16698542 -0.14057392 0.36752862 -0.1640655
000100 dc 24 67 3e 6b 94 2b 3d 4e 2d 07 3f 35 4d 32 be
       0.22572654 0.04188959 0.52803504 -0.17412265
000110 40 84 16 3d e0 f0 2c 3d 1b 98 b8 3d b0 75 8b be
       0.036747217 0.042221904 0.09013387 -0.27238226
000120 81 e1 a7 3c 4f 1d 5a be bc 6e 58 3d 91 d4 95 bd
       0.02049327 -0.21300243 0.05283998 -0.073159344
000130 c8 d7 82 be 67 5d df be f3 72 81 3e 08 c3 a8 3d
       -0.25555253 -0.43625948 0.25283012 0.08240324
000140 42 42 82 3d b3 fe c6 3e 2a 07 d0 3e 55 44 8e be
       0.06360294 0.38866195 0.40630466 -0.27786508
000150 aa 5c d2 be 18 be 01 be ac dc 1e be 80 d4 5b 3d
       -0.41086322 -0.12670171 -0.15513867 0.053669453
000160 02 9c ed 3d 9c 0e 82 bd b6 58 a3 3c 35 12 c4 3e
       0.11602022 -0.06350443 0.019939762 0.3829514
000170 57 89 f8 bd ad b6 b9 3d 29 c0 13 3e b5 d5 bc be
       -0.121355705 0.09068046 0.14428772 -0.36881796
000180 dc 50 65 3e 2c e7 80 3d b3 5c a7 bb 22 cf 67 be
       0.22394127 0.062940925 -0.005107486 -0.22637609
000190 60 fe d7 bd e6 ba dc 3c 65 ff 74 be 26 77 a3 3c
       -0.10546565 0.026944589 -0.2392555 0.019954275
0001a0 5b cb 9f be 47 89 97 bd 2a 54 98 be 5f b1 c6 bd
       -0.31209835 -0.073992305 -0.29751712 -0.097017996
0001b0 3b 08 35 3d 2b 7c 70 3e 2a 90 95 bd ec c8 16 3c
       0.044197302 0.23484866 -0.07302888 0.009203177
0001c0 b9 f0 e1 bd 75 7a 4f 3c ce ac 36 3e c0 11 87 3e
       -0.11032242 0.012663473 0.17839357 0.2638073
0001d0 ec 35 47 3d e4 53 2d be f3 60 36 3e 6f 38 01 bd
       0.04863541 -0.16926533 0.1781042 -0.03154796
0001e0 3d 55 2b bd 8f dc 2f 3e 5c c5 6f 3e 3f a8 7a bc
       -0.041829336 0.1717398 0.2341513 -0.015298902
0001f0 e2 63 fb 3d a6 d1 c8 bc 23 62 12 3e d8 ae 1b bd
       0.122749105 -0.02451403 0.14295249 -0.03800854
000200 af 6d 99 be 80 7c 44 be 09 17 e6 3d 1b 88 a2 3d
       -0.29966494 -0.19188118 0.11234862 0.07936116
000210 90 92 60 bd 06 f2 15 be ae 13 83 bc f5 36 17 3e
       -0.054827273 -0.14643106 -0.016000595 0.14767058
000220 9a 34 fe bd 3d 38 98 3e fd a4 3b be e5 1e 30 3d
       -0.12412377 0.29730406 -0.18324657 0.042998213
000230 c0 4a 03 3f 8e a4 3d 3c 52 4c 31 3d d2 3a 2a be
       0.51285934 0.011574877 0.043285675 -0.16624
000240 26 34 09 be cb 40 01 bf 52 ae 6a bc d8 6f ed bd
       -0.133988 -0.5048949 -0.014323788 -0.11593598
000250 64 df 2e 3c 22 73 63 3c 0c 75 07 3d 71 d4 03 3e
       0.010673378 0.01388243 0.03307061 0.12874009
000260 58 a8 17 be f7 90 15 3f 14 c2 29 bd a1 fa 09 be
       -0.14810312 0.58424324 -0.041444853 -0.13474514
000270 ec 18 f2 bc 4f 21 12 bd 74 4f f9 3a 4d c0 cf 3e
       -0.0295529 -0.035676297 0.0019020871 0.405764
000280 f7 b5 fa bd bc 8d 15 be 47 80 45 be 72 b1 4b 3e
       -0.12241738 -0.14604849 -0.19287215 0.19891909
000290 2e 77 49 3d 9f 6d b3 3e c1 9d 8a be 9a 3a aa be
       0.049185924 0.35044572 -0.27073482 -0.33247834
0002a0 dc bb 6c 3e 19 ee c8 bd a7 d7 4e 3f f6 95 d4 be
       0.23118538 -0.098110385 0.8079781 -0.4152066
0002b0 3d 23 4c be 84 18 01 be b5 78 06 3f 03 d7 92 be
       -0.19935317 -0.12607008 0.52527934 -0.28679666
0002c0 ce d0 19 3d ff fb 8e 3d 70 ca 40 3e fb 6b ba 3e
       0.037552647 0.06981658 0.18827224 0.36410508
0002d0 5d 18 fb bd 85 b2 65 bd be 70 fd 3d ca cf 2e bf
       -0.12260506 -0.056078453 0.123750195 -0.6828581
0002e0 78 5f 25 be 87 4e ce bd 91 9f 68 be ad a2 ba bd
       -0.161497 -0.10073572 -0.2271712 -0.09113059
0002f0 dc 8e 5a 3f 75 4b 18 3f b9 f3 02 3f 5e 36 bb bd
       0.85374236 0.5949014 0.5115314 -0.09141229
000300 aa 88 c0 3d ed 94 4e bd 38 9a 0f 3e b0 ed 84 3c
       0.094010666 -0.050434995 0.14023674 0.01622662
000310 61 df 92 3d 88 2a ad 3c 8a 7a 5b 3e ba a6 e4 bd
       0.071715124 0.021138445 0.21433464 -0.11164613
000320 46 15 6d bd e4 eb ee 3e 7d 77 b5 3d ed cc a0 bc
       -0.057881616 0.46664345 0.08860681 -0.019628966
000330 51 80 7f bb 75 0c 8a bd 51 c4 92 be 63 4e 36 be
       -0.0038986395 -0.06740657 -0.28665403 -0.1780334
000340 47 a1 32 3e 15 58 77 3d 7e 84 65 bd 17 1b 10 3f
       0.17444335 0.060386736 -0.056034558 0.56291336
000350 39 84 81 be 38 1b 93 be 72 0b c0 3e 17 5e c5 3d
       -0.2529619 -0.28731704 0.37508732 0.09637087
000360 df 89 23 bd fb 53 24 3b d0 63 7b be 61 61 29 be
       -0.039926406 0.002507447 -0.24549794 -0.16541053
000370 93 42 8d 3d f7 e2 a0 bd 28 c3 02 be 00 2c 84 3d
       0.06897464 -0.0785579 -0.12769759 0.06453705
000380 65 19 86 bd b2 74 03 3f 68 45 b7 3e 67 51 d9 3d
       -0.06547812 0.5134994 0.3579514 0.106112294
000390 4c 25 ab 3d df 49 09 3f fd ac 46 bd 4b 9c 64 3d
       0.08356723 0.53628343 -0.04850482 0.055813115
0003a0 5e 22 83 3d 21 0f 1d be 3b 26 0b bf d6 0a 48 bd
       0.064030394 -0.15337802 -0.5435521 -0.04883846
0003b0 a5 b1 56 3e 43 30 a8 3d d3 f4 13 3e d1 3f 5e be
       0.20966204 0.0821233 0.14448862 -0.21704032
0003c0 1c cb 4f 3d fa 1f 86 be 14 2b 2b be ce 0a f5 3d
       0.05073081 -0.2619627 -0.16715652 0.119649515
0003d0 96 c1 3b be 44 03 7e 3e 20 ed a0 be 1a da 44 3d
       -0.18335566 0.24805933 -0.31430912 0.04805956
0003e0 ec c5 31 be c7 cf 2e be c1 04 c0 3d a9 94 59 3e
       -0.17360657 -0.17071448 0.09375907 0.21248116
0003f0 aa 99 67 3c 68 50 2b bb 63 98 13 3f cc 0c c8 3e
       0.014135757 -0.0026140455 0.576544 0.39072263

fc3.bias f4 [10]
000000 7a fb 03 3e 85 84 06 bf d2 f6 fe 3e b9 e4 ef 3e
       0.128889 -0.5254596 0.49797684 0.4685419
000010 2c 38 71 3e ed 27 07 bf fa c9 2f 3f 58 78 3f be
       0.23556584 -0.52795297 0.68667567 -0.18698251
000020 93 6c 22 bd 29 85 44 bf
       -0.039654326 -0.76765686
