Models/ModelsForTesting/BasicModelTest.pth (torch, 182235 bytes, 10 tensors)

conv1.weight f4 [6, 3, 5, 5]
0.07249903 0.05817803 0.040769376 0.054625258 0.18537225 0.17557885 0.19621734 0.04601148
0.21372616 -0.06422381 0.028146926 0.18481767 0.22765236 0.11035361 0.1032552 0.19239593
0.1504651 0.26381522 0.12588285 0.018239727 0.104578584 0.25856915 0.2501285 0.06996979
0.11912734 0.1745992 0.077392295 0.10113171 0.09923615 0.039598774 0.045235425 0.2652506
0.19542442 0.06531516 -0.030671705 0.15422067 0.28023872 0.25915977 0.1655172 -0.011764956
0.12911113 0.16231363 0.19973256 0.014282325 0.10455651 0.13162373 0.10756114 0.11370658
0.09903469 0.011751884 0.011839185 0.14718091 0.15132761 0.10738008 0.14357224 0.21328402
0.2419521 0.18763474 0.16713579 0.104004934 0.061108325 0.17134057 0.06528392 0.12171108
-0.045867607 0.07398468 0.17845684 0.20189294 0.08338 0.11271489 0.059883945 0.07789004
0.2726852 0.1861973 -0.0430892 0.15332991 0.049018178 0.027642876 -0.0012137246 -0.00021767609
0.04300142 0.12699789 0.1356646 -0.046252694 0.08083717 0.007344031 -0.07611827 0.037998546
-0.0058035287 0.008703342 0.08262856 0.13591906 -0.0126229655 -0.015619734 -0.06663144 -0.06350965
0.06166629 0.015591737 -0.10367215 -0.10420931 0.103849426 0.18690643 0.06120619 -0.06973153
-0.10601856 0.09825796 0.07454906 0.13710283 -0.0545456 0.045808937 -0.0017357134 0.022002492
0.0316441 -0.006057741 -0.018754287 0.017487263 0.14420894 0.04558983 -0.11740297 -0.103939325
-0.031012472 -0.08297362 0.07994866 -0.11797281 -0.0976302 0.07724008 0.12875722 -0.014188688
-0.076170705 0.08514086 0.014471684 0.09896136 -0.06028689 0.013791328 0.038778767 -0.03724712
0.06217442 0.11678761 -0.12651756 0.05731619 0.0633458 -0.055148114 -0.07662465 -0.08422428
0.0016594756 -0.07420335 0.033715207 0.07385997 -0.10301204 -0.045854867 0.11996007 -0.0004439996
-0.01332873 -0.063725926 -0.13168235 0.12211252 0.19673419 -0.0043226196 -0.0019647758 0.0027519055
0.13196675 -0.032880515 0.06688945 0.11657998 0.012609046 0.0018239742 -0.002468644 0.12969553
0.1141396 0.042055722 0.09397265 -0.045955103 0.12895228 -0.0806326 8.94501e-05 -0.06878924
0.19477731 0.047499016 -0.07776622 0.075926065 0.0033936214 0.20100242 0.13081901 -0.099061266
0.05250413 -0.03200507 0.18276587 0.109394915 -0.04485306 -0.020637942 0.022088183 0.04387557
0.15473703 0.113890074 0.020439684 0.0142179215 0.13192919 -0.030680621 0.056846667 -0.006679447
0.14757836 0.03355893 0.04215404 -0.07112342 -0.06951189 0.059260342 0.15189439 0.13717274
0.041984145 -0.080095455 0.08662702 0.084640086 0.06895329 -0.08621204 -0.035226107 -0.021925468
0.052024268 0.032579605 -0.08521957 0.03638158 0.16109653 -0.023317967 0.10699886 0.09178066
0.059628658 0.14222468 0.0590731 -0.030175412 -0.16392812 -0.0957036 -0.00021157024 -0.0286223
-0.12815882 -0.21694693 0.072194695 0.09988673 0.14111726 -0.08791178 -0.24035467 0.012963456
0.12946993 0.1311559 0.03536772 -0.23501483 0.000592275 0.21335208 0.11400608 0.02080448
-0.092691585 -0.090909615 0.1145465 0.09041822 -0.13874233 -0.17255056 0.095764264 0.13934353
00000000: 5f7a 943d 164c 6e3d cafd 263d bcbe 5f3d
00000010: 39d2 3d3e f1ca 333e 33ed 483e 8976 3c3d
00000020: 08db 5a3e c687 83bd 6294 e63c d840 3d3e
00000030: b31d 693e 1301 e23d 7677 d33d 7003 453e
00000040: 8613 1a3e ca12 873e 6fe7 003e 7b6b 953c
00000050: 4c2d d63d 2d63 843e d810 803e 524c 8f3d
00000060: 09f9 f33d 22ca 323e da7f 9e3d 241e cf3d
00000070: 533c cb3d 5332 223d c848 393d edce 873e
00000080: 571d 483e f4c3 853d 3a43 fbbc 06ec 1d3e
00000090: 737b 8f3e 97b0 843e 577d 293e cdc1 40bc
000000a0: b535 043e 8b35 263e b186 4c3e 6a00 6a3c
000000b0: b921 d63d 5fc8 063e 0449 dc3d ffde e83d
000000c0: b3d2 ca3d f98a 403c 24f9 413c 98b6 163e
000000d0: a0f5 1a3e 16ea db3d 9a04 133e 2067 5a3e
000000e0: 4bc2 773e 5223 403e a525 2b3e 8a00 d53d
000000f0: b94c 7a3d e773 2f3e 93b3 853d a943 f93d
00000100: acdf 3bbd 4885 973d 64bd 363e 06bd 4e3e
00000110: 22c3 aa3d 10d7 e63d de48 753d d084 9f3d
00000120: 659d 8b3e 81aa 3e3e 4d7e 30bd 8402 1d3e
00000130: 49c7 483d 5073 e23c d715 9fba fb3f 64b9
00000140: 4222 303d bc0b 023e a9eb 0a3e 7773 3dbd
00000150: f58d a53d 32a6 f03b e5e3 9bbd 5da4 1b3d
00000160: 872b bebb 7698 0e3c 2a39 a93d 5e2e 0b3e
00000170: 8ed0 4ebc eae9 7fbc 1076 88bd 5911 82bd
00000180: cb95 7c3d 7c74 7f3c 1052 d4bd b16b d5bd
00000190: 02af d43d 6664 3f3e 58b3 7a3d 68cf 8ebd
000001a0: 4220 d9bd 783b c93d 2dad 983d af64 0c3e
000001b0: 356b 5fbd 27a2 3b3d e180 e3ba 923e b43c
000001c0: 3e9d 013d 0480 c6bb 97a2 99bc 7341 8f3c
000001d0: 82ab 133e 67bc 3a3d f870 f0bd 24de d4bd
000001e0: de0d febc 13ee a9bd 20bc a33d bb9b f1bd
000001f0: 58f2 c7bd 0c30 9e3d efd8 033e ac77 68bc
00000200: 63ff 9bbd 555e ae3d a41a 6d3c 41ac ca3d
00000210: 63ef 76bd 06f5 613c 7cd6 1e3d 7090 18bd
00000220: 9baa 7e3d 582e ef3d d28d 01be 62c4 6a3d
00000230: 71bb 813d fde2 61bd 62ed 9cbd c87d acbd
00000240: c382 d93a edf7 97bd f518 0a3d e543 973d
00000250: faf7 d2bd 50d2 3bbd a0ad f53d 9ec8 e8b9
00000260: bf60 5abc bd82 82bd bdd7 06be 2116 fa3d
00000270: b074 493e c3a4 8dbb 78c3 00bb 5059 343b
00000280: 4b22 073e b8ad 06bd 56fd 883d 7cc1 ee3d
00000290: 2c96 4e3c 6b12 ef3a f9c8 21bb e8ce 043e
000002a0: 06c2 e93d 9f42 2c3d bc74 c03d 6b3b 3cbd
000002b0: 110c 043e b422 a5bd 2897 bb38 60e1 8cbd
000002c0: b473 473e 548e 423d e543 9fbd 207f 9b3d
000002d0: 8567 5e3b 94d3 4d3e 6bf5 053e a2e0 cabd
000002e0: 920e 573d c017 03bd fa26 3b3e 710a e03d
000002f0: d8b7 37bd e710 a9bc 47f2 b43c dfb6 333d
00000300: 6273 1e3e 333f e93d 2071 a73c 49f2 683c
00000310: 7218 073e ed55 fbbc 0dd8 683d 43df dabb
00000320: c81e 173e 1775 093d b7a9 2c3d 28a9 91bd
00000330: 405c 8ebd f9ba 723d 348a 1b3e 0377 0c3e
00000340: 91f7 2b3d 1609 a4bd 8269 b13d c857 ad3d
00000350: 6237 8d3d f08f b0bd 4049 10bd 0a9d b3bc
00000360: 6617 553d 3172 053d 9987 aebd da04 153d
00000370: 7df6 243e 5205 bfbc 3822 db3d 80f7 bb3d
00000380: 2e3d 743d 59a3 113e a3f6 713d 6d32 f7bc
00000390: c6dc 27be 4000 c4bd f4d8 5db9 5079 eabc
000003a0: 113c 03be 5627 5ebe d0da 933d 6a91 cc3d
000003b0: 0b81 103e 170b b4bd 891f 76be ad64 543c
000003c0: c493 043e bb4d 063e bedd 103d baa7 70be
000003d0: e742 1b3a f878 5a3e 057c e93d 286e aa3c
000003e0: 16d5 bdbd d22e babd 5b97 ea3d 302d b93d
000003f0: 7812 0ebe 18b1 30be 0e20 c43d 12b0 0e3e

conv1.bias f4 [6]
-0.068528906 0.06908107 -0.006964925 0.29321188 -0.0812584 -0.09091395
00000000: e258 8cbd 607a 8d3d 073a e4bb de1f 963e
00000010: ce6a a6bd 1831 babd

conv2.weight f4 [16, 6, 5, 5]
0.09884545 0.1851264 0.2672624 0.13799326 -4.8855527e-05 -0.039548118 0.090193085 0.16274837
0.12149869 -0.040278144 -0.07599193 0.019921731 0.05839544 -0.067411534 -0.09547536 -0.019650718
-0.11077078 -0.047035635 -0.11102606 0.03127473 -0.18558328 -0.2394633 -0.17278312 -0.046235915
-0.13301587 -0.034199674 0.046729565 0.059164118 0.011440239 -0.03411653 0.031195078 -0.02042713
0.020676538 0.09043432 -0.0024493602 0.036789224 0.014382308 0.10982494 0.07819329 -0.033796247
0.025510985 -0.03235309 0.07534999 -0.0742073 0.0046164417 -0.044769447 0.059813093 -0.002242305
-0.06764663 0.011154656 0.10131835 0.08804051 -0.0017650278 0.024766045 0.1077943 -0.04228918
-0.013135834 0.027567767 0.0017450186 0.099507615 -0.02829601 -0.01088792 -0.0058744317 0.078785
-0.07283303 -0.044272482 -0.039190896 0.03657397 -0.07546755 0.0058078696 0.025844833 -0.13145334
-0.03789655 -0.108045086 -0.06517508 0.0834378 -0.015292261 -0.006392753 0.117873 0.008763414
0.050826617 -0.02806088 0.1385768 -0.0032566017 -0.020173242 0.0129453195 0.023563579 0.14866614
0.13119185 0.07737328 -0.008700378 0.08769556 0.06442269 0.1254886 0.076804444 0.14257579
0.005066629 0.09980941 0.064296424 -0.067988455 0.076818824 -0.07710197 -0.048239768 0.022780467
0.013864176 -0.0029155377 -0.00971256 0.03288257 -0.076398 -0.028689584 0.079410315 0.00028976303
0.05411871 0.040096465 -0.02112304 -0.06546032 -0.035725478 -0.068591624 0.073691465 0.04766702
-0.009467991 -0.052991416 -0.06506459 1.7368144e-05 -0.021703381 -0.07004102 0.013929929 0.06039977
-0.066912375 0.023419414 0.07557995 0.024333386 -0.0045711244 0.066858724 -0.04222793 -0.010562667
-0.028498115 0.039537877 -0.021732269 0.0036306966 -0.03706248 0.010639733 0.015820099 0.035076708
0.02911583 -0.028074244 0.06474329 0.025536798 0.00020204236 0.018575609 -0.2190168 -0.15952577
0.049926564 -0.1858062 -0.31914976 -0.025334138 0.024545636 0.1419567 -0.09645389 -0.35291624
-0.05271603 0.10538924 0.26270786 0.026201848 -0.16904357 0.097648785 -0.0093414355 0.12796281
0.028564002 -0.10298831 -0.019061608 0.09334225 0.119983934 0.1599691 -0.015177887 0.06750724
-0.092273556 -0.063099444 -0.004247098 0.04185924 0.062810175 -0.051177356 0.050672106 0.029124577
0.009952385 0.08825602 -0.04711319 0.1169283 0.07575505 -0.103965364 0.06910796 -0.07323757
0.10261474 0.025523627 -0.049580403 -0.03125828 -0.065952204 0.074501164 0.064169616 0.04548766
-0.12372771 -0.09484553 0.05954213 0.009493902 -0.064144135 -0.061093602 0.018674368 0.11241328
0.07294312 -0.059195 -0.057054773 0.050658893 0.16556922 0.12826239 -0.02143798 0.046059366
0.05574234 0.008319469 0.048208006 -0.058896974 0.0019070536 -0.03275145 0.12123002 0.016382828
0.015083847 0.027913896 0.010525272 0.11239399 0.085191764 0.032185826 0.083780505 0.07924174
0.17697997 0.16286989 0.11542609 0.11100316 0.045615833 0.05493202 0.19122744 0.07305938
0.1244591 0.0026623402 0.07438706 0.04108449 0.02218658 0.018309793 -0.0367284 0.07307931
0.08755446 0.060691983 -0.032518134 -0.010955652 -0.042825464 -0.042055033 -0.08061931 0.034418974
00000000: 7c6f ca3d c691 3d3e 9ed6 883e 1b4e 0d3e
00000010: 39ea 4cb8 35fd 21bd 27b7 b83d 82a7 263e
00000020: 4ed4 f83d b2fa 24bd a8a1 9bbd e632 a33c
00000030: 0f30 6f3d 0f0f 8abd 9688 c3bd 8bfa a0bc
00000040: cadb e2bd 70a8 40bd a261 e3bd ee19 003d
00000050: 8b09 3ebe de35 75be 0fee 30be df61 3dbd
00000060: 5035 08be f514 0cbd 8067 3f3d 1356 723d
00000070: d76f 3b3c c6bd 0bbd d28c ff3c cc56 a7bc
00000080: d861 a93c a135 b93d 7285 20bb 4cb0 163d
00000090: c6a3 6b3c e6eb e03d ce23 a03d ef6d 0abd
000000a0: 6afc d03c ac84 04bd 1851 9a3d fff9 97bd
000000b0: 8545 973b 2b60 37bd 93fe 743d a3f3 12bb
000000c0: 518a 8abd 05c2 363c ff7f cf3d 954e b43d
000000d0: 8158 e7ba 29e2 ca3c 42c3 dc3d 6b37 2dbd
000000e0: ae37 57bc ccd5 e13c 1cb9 e43a a6ca cb3d
000000f0: 09cd e7bc 3f63 32bc 4e7e c0bb 085a a13d
00000100: 7c29 95bd 1057 35bd a286 20bd 96ce 153d
00000110: bb8e 9abd f14f be3b 8bb8 d33c b49b 06be
00000120: 6a39 1bbd be46 ddbd 837a 85bd 70e1 aa3d
00000130: 648c 7abc 4d7a d1bb 6667 f13d 6c94 0f3c
00000140: 922f 503d eedf e5bc 14e7 0d3e b66c 55bb
00000150: 5b42 a5bc 9b18 543c 6808 c13c f03b 183e
00000160: 2857 063e e275 9e3d 088c 0ebc bb99 b33d
00000170: 0bf0 833d 1580 003e a64b 9d3d 63ff 113e
00000180: f705 a63b e068 cc3d d8ad 833d 883d 8bbd
00000190: 3053 9d3d a3e7 9dbd 1097 45bd 1a9e ba3c
000001a0: 9226 633c 9b12 3fbb 6e21 1fbc e0af 063d
000001b0: 8e76 9cbd 6b06 ebbc e0a1 a23d 56eb 9739
000001c0: 95ab 5d3d 313c 243d 3a0a adbc 0f10 86bd
000001d0: e154 12bd c479 8cbd 8deb 963d 7e3e 433d
000001e0: a21f 1bbc 870d 59bd 9540 85bd ceb1 9137
000001f0: 4acb b1bc ab71 8fbd 5b3a 643c c065 773d
00000200: 5b09 89bd 12da bf3c a9c9 9a3d cf56 c73c
00000210: 5fc9 95bb 3aed 883d 32f7 2cbd 090f 2dbc
00000220: e174 e9bc 78f2 213d df07 b2bc fbf0 6d3b
00000230: d4ce 17bd 4652 2e3c 2799 813c 98ac 0f3d
00000240: 5284 ee3c f5fb e5bc 2198 843d 8c32 d13c
00000250: 55db 5339 e02b 983c f145 60be b95a 23be
00000260: cc7f 4c3d fb43 3ebe 9967 a3be 8a89 cfbc
00000270: ee13 c93c 195d 113e 9e89 c5bd 70b1 b4be
00000280: c4ec 57bd 50d6 d73d a581 863e 42a5 d63c
00000290: c219 2dbe 16fc c73d d20c 19bc af08 033e
000002a0: 0eff e93c 89eb d2bd 1727 9cbc 392a bf3d
000002b0: 23ba f53d f1ce 233e acac 78bc 3c41 8a3d
000002c0: ebf9 bcbd 483a 81bd 3e2b 8bbb 9874 2b3d
000002d0: 9fa2 803d 599f 51bd 8e8d 4f3d aa96 ee3c
000002e0: 540f 233c 92bf b43d c3f9 40bd 1b78 ef3d
000002f0: 7725 9b3d cbeb d4bd 7988 8d3d 94fd 95bd
00000300: ad27 d23d ed16 d13c d214 4bbd af08 00bd
00000310: f311 87bd 1194 983d 5c6b 833d 4551 3a3d
00000320: f464 fdbd 603e c2bd 73e2 733d 508c 1b3c
00000330: 005e 83bd 493d 7abd fdfa 983c ef38 e63d
00000340: 3463 953d 7576 72bd 44b2 69bd b37f 4f3d
00000350: fa8a 293e 3757 033e b49e afbc bfa8 3c3d
00000360: 1452 643d 624e 083c c275 453d f43d 71bd
00000370: 1af6 f93a 6226 06bd 7247 f83d 4835 863c
00000380: 3d22 773c afab e43c 3172 2c3c d22e e63d
00000390: 0579 ae3d 49d5 033d 1d95 ab3d 7e49 a23d
000003a0: 3d3a 353e 5dc7 263e 8464 ec3d a055 e33d
000003b0: abd7 3a3d 6600 613d 20d1 433e 28a0 953d
000003c0: 6ae4 fe3d a87a 2e3b 3e58 983d 3648 283d
000003d0: a1c0 b53c 6bfe 953c 8570 16bd 9baa 953d
000003e0: c14f b33d 2898 783d bc31 05bd 567f 33bc
000003f0: c169 2fbd e641 2cbd bd1b a5bd e9fa 0c3d

conv2.bias f4 [16]
0.08614491 0.14109273 -0.040924057 0.100270994 0.044373903 0.042667724 -0.009090995 0.11027236
-0.033654097 -0.012868028 -0.003421053 -0.030357594 0.039076354 -0.0012073815 -0.05818471 -0.07372743
00000000: be6c b03d 9d7a 103e fc9f 27bd e15a cd3d
00000010: 69c1 353d 5ac4 2e3d 66f2 14bc 7ad6 e13d
00000020: e1d8 09bd 6cd4 52bc bf33 60bb 7db0 f8bc
00000030: 870e 203d 0041 9eba 1753 6ebd 68fe 96bd

fc1.weight f4 [120, 256]
-0.04617083 0.05986438 0.018899398 0.035810437 0.09269765 0.0036532849 -0.005762877 -0.015299686
0.059699398 0.030838687 0.036155555 0.019030996 0.0076836864 -0.03569498 0.030424124 0.052805178
0.024734415 -0.0620569 -0.076547936 0.030052168 -0.0012242432 0.040823873 -0.05180453 -0.035864368
-0.02106363 -0.048882328 -0.014744389 -0.019778533 0.040259734 0.025557054 -0.02053442 0.047384325
0.059884265 0.025173951 0.014517091 0.019765984 -0.03621529 -0.05035525 0.0018198501 -0.045490365
0.019878034 -0.018591411 -0.020578742 0.011898275 0.044234898 0.026370184 0.0355375 -0.009166975
0.10001294 0.08539694 0.032032024 0.04565006 -0.0025334484 0.032669563 -0.022489272 -0.050521467
0.00979212 0.051372677 0.020110717 0.032075528 0.029771464 0.022994468 -0.09901286 -0.074373506
0.039046574 -0.025750978 -0.027373932 -0.037903015 -0.005907445 0.0015347649 0.038311068 0.028054412
-0.011090085 0.030641165 -0.03425608 -0.055520177 0.01376685 -0.05742463 0.043760203 0.06393655
0.020664131 0.01766327 -0.09016105 -0.0061056097 -0.0005047392 0.0264854 0.026329061 -0.03931113
-0.06092946 -0.045055773 -0.017374404 -0.042861994 -0.06305393 0.034731727 0.060324393 0.01940988
-0.057092275 -0.022561966 0.049997173 0.058867488 0.04438138 -0.046636198 0.041949954 -0.014948806
-0.062584326 -0.045272008 0.038768973 -0.018122738 0.028475534 0.03806734 0.013223888 -0.043718424
-0.0022365993 -0.0610868 0.017987218 0.025083618 0.048539262 0.063517116 -0.063381866 0.020776678
0.039895408 -0.041210696 -0.0499523 0.015125046 0.049194273 0.021944668 0.017016217 -0.0013597382
0.04019311 -0.033528812 0.031307437 -0.05090429 0.020796612 -0.0551612 -0.015505015 0.03924322
0.0033128723 0.026602492 -0.0386841 0.029185861 -0.05125633 -0.035008825 -0.030426778 0.038074993
0.015259018 0.015509905 0.006648059 -0.03715562 -0.0006718154 -0.045338992 -0.03133156 -0.009780916
-0.0066573317 -0.031054556 0.030697618 -0.0082610445 0.06849388 0.0039976453 -0.01656251 0.062287245
-0.011124209 0.036750846 -0.027828733 -0.019181464 -0.036798384 -0.054759145 0.005535944 0.05856793
0.014888718 -0.029150188 -0.01693234 0.023477042 0.036493693 0.056836084 0.0078586135 0.032490943
0.047243766 0.07430391 -0.012796102 0.062229916 0.04302537 -0.067942776 -0.057336222 0.028230777
0.058232673 -0.051044054 -0.059511192 -0.06525657 0.030545745 -0.008776699 -0.08404001 -0.03650437
0.0995441 0.0022425824 0.0064580026 -0.0117915375 0.015403778 -0.037535194 -0.0833606 -0.010193401
0.021994442 0.038515475 -0.0059946827 -0.07602287 -0.0065663573 0.0013584833 0.011204631 -0.064709514
0.04753339 0.067777775 -0.05663519 0.021217344 0.062093444 -0.050847244 -0.05085092 -0.018053416
0.06358447 -0.02112213 2.4322919e-05 0.000116813666 -0.03148872 0.0404228 -0.07703129 -0.00024693058
0.010637621 -0.012278559 0.035283707 -0.040849704 0.040840477 0.013587487 -0.049394507 0.053707596
-0.0052003656 0.047699437 -0.05477257 0.063384004 -0.0080510955 -0.01807971 -0.011535621 0.0334537
0.026804414 -0.05287166 -0.00076100475 -0.0033335015 0.08358869 -0.10028157 0.027493296 0.00859594
0.026423967 -0.03307715 0.03029307 -0.035038926 -0.014983592 0.015792752 -0.07687632 0.003262878
00000000: a01d 3dbd 5a34 753d e9d2 9a3c f7ad 123d
00000010: 44d8 bd3d f36b 6f3b 84d6 bcbb 89ab 7abc
00000020: 5b87 743d 6aa1 fc3c d917 143d e4e6 9b3c
00000030: 6fc7 fb3b e634 12bd 033c f93c 3e4a 583d
00000040: d49f ca3c 602f 7ebd 2ac5 9cbd f72f f63c
00000050: c976 a0ba ef36 273d fd30 54bd 84e6 12bd
00000060: a28d acbc d638 48bd 7392 71bc 9706 a2bc
00000070: 64e7 243d 075d d13c cd37 a8bc 1116 423d
00000080: 3449 753d 9a39 ce3c 18d9 6d3c 46ec a13c
00000090: 7c56 14bd 4e41 4ebd 0988 ee3a 1b54 3abd
000000a0: 42d7 a23c 044d 98bc c094 a8bc fcf0 423c
000000b0: a72f 353d 4906 d83c c58f 113d 1431 16bc
000000c0: 96d3 cc3d 97e4 ae3d 0334 033d 8ffb 3a3d
000000d0: 3608 26bb 85d0 053d 6c3b b8bc 99ef 4ebd
000000e0: 216f 203c 286c 523d 3bbf a43c a161 033d
000000f0: 49e3 f33c e55e bc3c 41c7 cabd 2351 98bd
00000100: 4def 1f3d b7f3 d2bc 4c3f e0bc 3140 1bbd
00000110: 3e93 c1bb 2a2a c93a 11ec 1c3d 5ed2 e53c
00000120: 30b3 35bc 2e03 fb3c 1a50 0cbd 2069 63bd
00000130: 5b8e 613c 1736 6bbd e63d 333d 2af1 823d
00000140: d347 a93c 90b2 903c 5ba6 b8bd 9111 c8bb
00000150: 7950 04ba e9f7 d83c 0bb0 d73c b504 21bd
00000160: 2b91 79bd 678c 38bd c454 8ebc 0f90 2fbd
00000170: 6b22 81bd db42 0e3d b616 773d 7801 9f3c
00000180: 97d9 69bd dfd3 b8bc d6c9 4c3d 091f 713d
00000190: 40c9 353d 9905 3fbd b7d3 2b3d d6eb 74bc
000001a0: 362c 80bd 246f 39bd 37cc 1e3d 2376 94bc
000001b0: 8645 e93c 80ec 1b3d 02a9 583c 1712 33bd
000001c0: e993 12bb 2736 7abd ee59 933c 297c cd3c
000001d0: 1bd1 463d 4315 823d 5ace 81bd da33 aa3c
000001e0: 5e69 233d 8ccc 28bd c89a 4cbd 0acf 773c
000001f0: ef7f 493d 4ec5 b33c 9865 8b3c 3e39 b2ba
00000200: 88a1 243d 8255 09bd 3a3c 003d 0481 50bd
00000210: a85d aa3c b6f0 61bd bf08 7ebc 80bd 203d
00000220: c61c 593b 78ed d93c 3873 1ebd 3017 ef3c
00000230: 28f2 51bd 6a65 0fbd 9441 f9bc 86f4 1b3d
00000240: f600 7a3c 421d 7e3c f6d7 d93b 7e30 18bd
00000250: c51c 30ba 61b5 39bd 8655 00bd 2340 20bc
00000260: bf25 dabb 2066 febc 9279 fb3c 5559 07bc
00000270: 8546 8c3d aefe 823b 1aae 87bc e920 7f3d
00000280: 5042 36bc 0e88 163d 15f9 e3bc 7222 9dbc
00000290: e7b9 16bd 204b 60bd dd66 b53b ede4 6f3d
000002a0: cfef 733c 60cc eebc b1b5 8abc ed52 c03c
000002b0: 697a 153d f4cc 683d 6ac1 003c 3915 053d
000002c0: ae82 413d a62c 983d bea6 51bc cce4 7e3d
000002d0: 5f3b 303d 9525 8bbd 63d9 6abd 3b44 e73c
000002e0: 6285 6e3d 9213 51bd 02c2 73bd 3da5 85bd
000002f0: 123b fa3c 25cc 0fbc 2b1d acbd 9b85 15bd
00000300: c7dd cb3d 4af8 123b a79d d33b 4b31 41bc
00000310: 2160 7c3c 81be 19bd f6b8 aabd 3902 27bc
00000320: b02d b43c 67c2 1d3d 0b6f c4bb e1b1 9bbd
00000330: 992a d7bb 230f b23a a193 373c 6c86 84bd
00000340: 5fb2 423d 13cf 8a3d 4dfa 67bd ffcf ad3c
00000350: b255 7e3d 3345 50bd 0e49 50bd c2e4 93bc
00000360: 9338 823d 5108 adbc 1209 cc37 dcf9 f438
00000370: 51fa 00bd 6192 253d 95c2 9dbd 7676 81b9
00000380: 6b49 2e3c 022c 49bc a685 103d 0552 27bd
00000390: 5848 273d 0d9e 5e3c e551 4abd 7ffc 5b3d
000003a0: d467 aabb 7c60 433d 3459 60bd 79cf 813d
000003b0: bee8 03bc e61b 94bc e7ff 3cbc bf06 093d
000003c0: ee94 db3c f48f 58bd 2a7e 47ba e076 5abb
000003d0: 8c30 ab3d 6c60 cdbd 9f39 e13c fcd5 0c3c
000003e0: 1377 d83c e87b 07bd 2c29 f83c fa84 0fbd
000003f0: bd7d 75bc cd5f 813c 5571 9dbd 02d6 553b

fc1.bias f4 [120]
-0.0075686243 -0.030129071 -0.030589854 0.04972298 0.059961658 0.003682485 0.038113073 -0.049971953
0.06931147 -0.013230714 -0.050957236 0.0018928425 0.003157053 -0.039633334 -0.054885916 -0.012588149
-0.04214116 0.012630478 0.07102159 -0.0213352 -0.03955953 -0.036443625 -0.03410771 -0.017474456
-0.035790432 -0.023469806 -0.029579652 -0.049199395 0.014729166 -0.06556166 0.067932166 -0.042045332
0.033781514 0.04857891 0.07172472 0.010803293 0.0039585843 -0.046759304 0.030743346 0.041543618
0.021079136 0.0323144 0.023850236 0.0077831154 -0.013696261 -0.00017724984 -0.0090929745 0.10264344
-0.0086135 0.0059744134 -0.01875242 -0.05070603 -0.039702132 -0.05535271 -0.03420817 -0.020254578
-0.024724748 -0.0141115775 -0.086142644 0.019032111 0.10375894 -0.0023716998 0.0011764026 -0.015163803
-0.04962787 0.0115568135 0.07363776 -0.0047507617 0.0061357967 -0.024863264 -0.005659112 -0.0070830807
0.034898523 0.025882581 0.025415396 -0.035681278 0.013747601 0.00819879 0.008265518 0.07642852
0.042501666 0.053018298 -0.0076678437 -0.024237799 0.037020583 0.042882446 0.040463135 0.05591734
-0.0015662218 0.050866853 -0.012011784 -0.012587254 -0.024668884 0.088540725 0.006477498 0.027498731
0.025586797 0.009032226 0.09464046 0.0113073 -0.043053277 -0.026484042 0.029402018 -0.008783983
0.03963073 0.037434284 0.04203569 -0.030099956 0.009062872 -0.037325334 -0.03328033 0.069120094
-0.015298204 0.025581341 -0.04856467 0.04661356 0.07367406 0.03157343 0.025624415 -0.02137771
00000000: 3902 f8bb 3ed1 f6bc 9397 fabc 53aa 4b3d
00000010: 5b9a 753d d955 713b 741c 1c3d 64af 4cbd
00000020: 2cf3 8d3d a3c5 58bc 89b8 50bd 4119 f83a
00000030: 8fe6 4e3b 9056 22bd 0ed0 60bd 863e 4ebc
00000040: 369c 2cbd 10f0 4e3c c473 913d 28c7 aebc
00000050: 2c09 22bd e945 15bd 87b4 0bbd 9726 8fbc
00000060: fd98 12bd c043 c0bc 0751 f2bc 4e85 49bd
00000070: 9a52 713c 3145 86bd 0520 8b3d ba37 2cbd
00000080: 7c5e 0a3d aefa 463d 69e4 923d 4c00 313c
00000090: 03b7 813b af86 3fbd 78d9 fb3c a429 2a3d
000000a0: 27ae ac3c 1b5c 043d 9261 c33c 8109 ff3b
000000b0: 4866 60bc 24dc 39b9 b3fa 14bc b936 d23d
000000c0: a31f 0dbc 03c5 c33b ad9e 99bc 20b1 4fbd
000000d0: b49e 22bd 86b9 62bd de1d 0cbd eeec a5bc
000000e0: 8e8b cabc 3f34 67bc 8e6b b0bd 3be9 9b3c
000000f0: 917f d43d 856e 1bbb 8531 9a3a 9971 78bc
00000100: 9846 4bbd ca58 3d3c 65cf 963d 47ac 9bbb
00000110: cb0e c93b 0bae cbbc 1270 b9bb 3019 e8bb
00000120: c1f1 0e3d b507 d43c f333 d03c 8826 12bd
00000130: 9e3d 613c 3854 063c 186c 073c 8e86 9c3d
00000140: 3a16 2e3d b729 593d 8942 fbbb 598e c6bc
00000150: e5a2 173d 81a5 2f3d acbc 253d 9509 653d
00000160: af49 cdba c359 503d 13cd 44bc c53a 4ebc
00000170: 6616 cabc d754 b53d 3141 d43b 0545 e13c
00000180: 679b d13c e7fb 133c dcd2 c13d 4142 393c
00000190: a258 30bd 10f5 d8bc 80dc f03c b2ea 0fbc
000001a0: d553 223d b154 193d 9e2d 2c3d 2f94 f6bc
000001b0: 717c 143c 73e2 18bd f550 08bd d68e 8d3d
000001c0: 51a5 7abc f68f d13c bfeb 46bd dced 3e3d
000001d0: 6de2 963d 2453 013d 4bea d13c 4f20 afbc

fc2.weight f4 [84, 120]
0.07828815 0.06840867 -0.035260744 0.053297613 -0.06546871 0.014615143 0.06579923 -0.034383427
0.08123876 0.03426066 -0.010614912 -0.028497647 0.003280882 -0.058803745 -0.0050166915 -0.032461297
-0.043748774 0.007891069 -0.07313419 -0.0014296061 0.008919098 0.077261336 0.06379085 -0.034826703
0.028026592 0.016115332 -0.06937693 -0.050904866 -0.03213954 -0.06872367 -0.044043954 0.056006595
-0.059890036 -0.06257952 0.05616504 0.021311672 -0.021738477 -0.058884583 0.059580937 -0.07313457
-0.06231674 0.039680194 0.037949797 0.027034566 -0.009259215 0.06149126 -0.012162941 0.016632838
0.06012773 -0.0038754852 -0.06255182 -0.10051314 0.05942798 -0.018865746 -0.046093713 -0.0053183613
-0.09358859 0.07158112 0.017197272 -0.063687995 -0.008123291 0.048173692 0.003094496 -0.0058210474
-0.017335285 0.023025144 -0.03744516 0.031673193 -0.03887966 0.088238105 0.02698641 0.06612294
-0.089149944 0.03737133 -0.05982212 0.08954677 -0.0014438739 0.010340281 -0.07806139 0.029061524
0.023969095 -0.080792755 0.07671506 -0.0493586 -0.07020833 0.08112611 -0.07511725 0.10244066
-0.045156732 -0.08179923 -0.046126567 -0.075458825 -0.09651558 -0.053140566 0.028590932 -0.063109905
-0.06826002 0.078580245 -0.014836283 -0.010451369 0.07123265 0.0051243547 0.084223926 -0.04190053
0.0804587 0.037495293 0.032716583 -0.014431214 0.06386017 0.022184502 0.020399306 0.045846038
-0.053872153 -0.05583451 -0.0554708 -0.088914245 0.009612674 -0.017618308 -0.11346062 0.07797337
-0.0323335 0.066756725 -0.058375508 0.03698193 0.027222304 -0.023272235 0.04561243 0.046378054
0.047933504 0.111955285 0.031960357 -0.0112494035 0.016793685 -0.051254146 -0.033843864 0.059008
-0.017068384 0.0219232 -0.0732592 0.06156459 0.031133538 0.018746095 0.052479424 0.008101417
0.061142556 -0.06841906 -0.05611079 0.03785358 0.016952638 -0.08818007 -0.03873789 0.06103335
-0.06507572 -0.020811187 0.015461411 -0.0658844 -0.04602687 0.08655637 0.07907729 -0.09164451
0.08430213 0.020924624 -0.041685324 0.005739898 0.038939264 -0.093485534 0.020884143 -0.06665333
0.031964414 0.021832608 -0.026868802 0.11690464 0.06292403 -0.04072336 0.01594603 -0.052678052
0.049863443 0.024823764 0.104076646 0.07943014 -0.06147546 0.071131535 -0.048605546 -0.019922735
0.015703963 0.026717285 0.013948016 -0.04233192 0.007706194 -0.06712132 0.08990453 -0.00958394
-0.07366227 0.049212977 0.102253675 0.029434225 -0.06810447 0.072953336 0.07230407 0.008399782
-0.10103789 -0.029291589 0.05732205 -0.08208153 0.021228436 -0.08658303 0.018202826 -0.019883117
-0.05586519 -0.033901025 0.038953196 -0.027648821 0.062293127 -0.005980743 -0.053581536 -0.045932513
0.040898032 -0.0061165295 0.07789311 0.012501091 0.077562675 -0.0673135 -0.048362527 -0.029628538
0.03674159 -0.017724626 -0.062183116 -0.017427336 -0.039494302 0.029881177 0.016338626 0.07036302
0.05801335 0.0030284855 -0.06788409 -0.048223797 -0.03784886 0.041639313 -0.05085856 -0.028936377
-0.10251645 0.024848212 0.07745067 -0.08946772 0.032419525 -0.020242548 0.009053188 0.020636171
-0.01561041 0.03997314 0.11216725 0.06335553 0.08397096 0.018837882 0.06393672 0.08780754
00000000: 8a55 a03d d819 8c3d 926d 10bd 994e 5a3d
00000010: 7614 86bd 5a74 6f3c bfc1 863d a3d5 0cbd
00000020: 8260 a63d e854 0c3d 2bea 2dbc e673 e9bc
00000030: 1104 573b 32dc 70bd 0f63 a4bb 23f6 04bd
00000040: ea31 33bd 8b49 013c 61c7 95bd 9f61 bbba
00000050: 6921 123c 313b 9e3d c7a4 823d 72a6 0ebd
00000060: 0698 e53c 4d04 843c 7e15 8ebd 9f81 50bd
00000070: c0a4 03bd ffbe 8cbd 6f67 34bd 2c67 653d
00000080: 414f 75bd b129 80bd 500d 663d d195 ae3c
00000090: e414 b2bc f630 71bd 240b 743d 94c7 95bd
000000a0: d73f 7fbd b387 223d 3f71 1b3d 9877 dd3c
000000b0: f6b3 17bc 42de 7b3d 1247 47bc 9741 883c
000000c0: 7f48 763d dafb 7dbb 2b1b 80bd d5d9 cdbd
000000d0: c16a 733d 568c 9abc c3cc 3cbd a645 aebb
000000e0: 60ab bfbd 1f99 923d 4be1 8c3c da6e 82bd
000000f0: 8d17 05bc c751 453d 07cd 4a3b 7cbe bebb
00000100: ba02 8ebc 3a9f bc3c 1960 19bd c0bb 013d
00000110: 4740 1fbd 2eb6 b43d 9b12 dd3c 776b 873d
00000120: 3f94 b6bd ae12 193d 0a08 75bd 4c64 b73d
00000130: 5e40 bdba 486a 293c a6de 9fbd 6f12 ee3c
00000140: d65a c43c ac76 a5bd c91c 9d3d 3e2c 4abd
00000150: 63c9 8fbd 7225 a63d 13d7 99bd 69cc d13d
00000160: 44f6 38bd 5b86 a7bd 36ef 3cbd 288a 9abd
00000170: f6a9 c5bd eca9 59bd 8837 ea3c c43f 81bd
00000180: e9cb 8bbd aeee a03d e213 73bc 383c 2bbc
00000190: 6ce2 913d 34ea a73b 987d ac3d e49f 2bbd
000001a0: 88c7 a43d aa94 193d d301 063d e670 6cbc
000001b0: 1fc9 823d 46bc b53c 721c a73c 0ec9 3b3d
000001c0: 0ca9 5cbd bab2 64bd 5935 63bd ac18 b6bd
000001d0: 7a7e 1d3c 4554 90bc 0b5e e8bd 81b0 9f3d
000001e0: 2270 04bd c0b7 883d 281b 6fbd 5d7a 173d
000001f0: 4f01 df3c 6aa5 bebc 19d4 3a3d eaf6 3d3d
00000200: ec55 443d d048 e53d dde8 023d 6b4f 38bc
00000210: e992 893c deef 51bd dd9f 0abd 5fb2 713d
00000220: ffd2 8bbc 4898 b33c eb08 96bd 272b 7c3d
00000230: c30b ff3c 6991 993c aaf4 563d cebb 043c
00000240: 9e70 7a3d 4b1f 8cbd 6ed4 65bd 5b0c 1b3d
00000250: 42e0 8a3c c197 b4bd 9fab 1ebd 1bfe 793d
00000260: 6b46 85bd 397c aabc dc51 7d3c 66ee 86bd
00000270: ac86 3cbd 7744 b13d 46f3 a13d 1eb0 bbbd
00000280: 98a6 ac3d 1e6a ab3c 3bbe 2abd c115 bc3b
00000290: c77e 1f3d 5875 bfbd 3915 ab3c 8b81 88bd
000002a0: 1eed 023d 4cda b23c f61b dcbc b36b ef3d
000002b0: 50de 803d 8acd 26bd 40a1 823c f1c4 57bd
000002c0: 9c3d 4c3d 355b cb3c 2326 d53d 45ac a23d
000002d0: b1cd 7bbd 69ad 913d 9c16 47bd 0135 a3bc
000002e0: 99a5 803c 35de da3c 3886 643c 3c64 2dbd
000002f0: 3e84 fc3b e776 89bd de1f b83d f505 1dbc
00000300: 3fdc 96bd 8c93 493d 606a d13d 0b20 f13c
00000310: 5b7a 8bbd 8f68 953d 2814 943d 3d9f 093c
00000320: f4ec cebd eaf4 efbc 87ca 6a3d 5c1a a8bd
00000330: 42e7 ad3c 7252 b1bd 181e 953c ebe1 a2bc
00000340: e6d2 64bd cddb 0abd 638d 1f3d c87f e2bc
00000350: 1427 7f3d 1cfa c3bb 5078 5bbd bb23 3cbd
00000360: b284 273d 2b6d c8bb 6c86 9f3d 60d1 4c3c
00000370: 2ed9 9e3d a9db 89bd c917 46bd 8cb7 f2bc
00000380: 597e 163d 3c33 91bc b9b3 7ebd c6c3 8ebc
00000390: c7c4 21bd 5fc9 f43c 95d8 853c 7d1a 903d
000003a0: 689f 6d3d 8e79 463b d006 8bbd 5186 45bd
000003b0: 6807 1bbd fc8d 2a3d 1151 50bd fb0b edbc
000003c0: 25f4 d1bd 7a8e cb3c 759e 9e3d da3a b7bd
000003d0: 56ca 043d b3d3 a5bc d353 143c 300d a93c
000003e0: cec2 7fbc e0ba 233d f1b7 e53d 8bc0 813d
000003f0: f7f8 ab3d e751 9a3c 41f1 823d 71d4 b33d

fc2.bias f4 [84]
-0.009397164 -0.119938776 0.023793267 -0.108897984 -0.03392872 0.03445895 -0.03929237 0.09567898
-0.016075904 0.07346557 -0.0019939477 -0.026290048 0.06732215 -0.06607506 0.023811817 0.0058968016
0.059506003 0.14388946 -0.028325813 0.17507972 -0.01281983 -0.07548247 -0.040780146 8.0182394e-07
0.037962496 0.05317463 0.029244015 0.084008776 0.008725138 0.12035371 -0.030230062 -0.032449275
0.027115712 0.12815091 0.07011576 -0.061355818 -0.09602839 -0.037786238 -0.019642595 0.06949191
-0.017758198 -0.034330677 -0.05792287 0.022998288 -0.013986839 -0.046360314 0.051704615 0.11350562
0.13565062 0.06224242 -0.08959348 -0.06444257 -0.016910862 -0.060808644 0.12265935 0.011293322
0.11459501 -0.01670785 0.027027372 0.008377124 -0.05445898 0.06145372 0.054839965 -0.061885577
-0.0573884 -0.042267006 0.09903254 0.06530886 0.017482715 -0.013185935 -0.0735559 -0.11914275
0.06034231 -0.08428658 -0.027455522 0.022188466 0.09998352 0.10949722 -0.05128126 -0.047514427
-0.047516055 -0.022709506 0.07134215 -0.046828844
00000000: 90f6 19bc 76a2 f5bd 19ea c23c e805 dfbd
00000010: d7f8 0abd d424 0d3d 09f1 20bd 57f3 c33d
00000020: 9db1 83bc 1e75 963d e4ac 02bb 3a5e d7bc
00000030: 32e0 893d 5c52 87bd 0011 c33c f539 c13b
00000040: 91bc 733d c257 133e 890b e8bc 1948 333e
00000050: 440a 52bc 8e96 9abd 1509 27bd ec3c 5735
00000060: 907e 1b3d a4cd 593d 2591 ef3c cb0c ac3d
00000070: e2f3 0e3c 027c f63d 09a5 f7bc 88e9 04bd
00000080: c521 de3c fe39 033e da98 8f3d 3d50 7bbd
00000090: 88aa c4bd bec5 1abd 82e9 a0bc c651 8e3d
000000a0: a479 91bc 539e 0cbd 8840 6dbd e866 bc3c
000000b0: 0e29 65bc 50e4 3dbd 38c8 533d a275 e83d
000000c0: ffe7 0a3e e8f1 7e3d c97c b7bd 77fa 83bd
000000d0: a688 8abc 7c12 79bd d334 fb3d a007 393c
000000e0: cab0 ea3d e7de 88bc 8268 dd3c 3440 093c
000000f0: 6110 5fbd e5b6 7b3d df9f 603d bb7b 7dbd
00000100: 1910 6bbd 2b20 2dbd 93d1 ca3d a7c0 853d
00000110: e937 8f3c d209 58bc 7aa4 96bd 1d01 f4bd
00000120: 8029 773d 719e acbd 67ea e0bc 96c4 b53c
00000130: 29c4 cc3d 1440 e03d 4c0c 52bd 7d9e 42bd
00000140: 32a0 42bd 4909 babc d51b 923d 9acf 3fbd

fc3.weight f4 [10, 84]
0.024354866 -0.07225633 -0.1771944 -0.048819624 0.2506897 -0.11570003 0.07086036 0.16265571
-0.13871883 -0.031689335 -0.0970587 0.026797546 -0.09542919 0.072912775 -0.098985665 -0.04127864
0.014694918 -0.14339536 0.031935878 0.26437828 0.101544335 -0.05604457 -0.102698535 0.20695643
0.010895499 0.2106771 0.101752535 -0.036439206 0.045380317 0.09774467 -0.046474326 -0.0073617203
-0.0059066173 0.074518785 0.16643648 0.076467834 -0.06814067 -0.052045207 -0.020149913 -0.15244757
-0.097798765 -0.07094586 -0.026079051 0.01852481 -0.018790029 -0.0792175 -0.046787497 0.19764328
-0.12649684 0.041291095 0.054134037 0.018384945 0.04139574 -0.09313583 0.002102015 0.03143406
-0.27871513 0.0014666219 0.22808543 0.05504769 0.057620566 0.04953278 -0.012397295 0.03332834
0.13703388 -0.046717133 -0.04471233 0.0012332312 0.08189118 -0.20408586 -0.07909732 -0.12502034
0.10015748 0.06132242 0.052468766 -0.11647502 0.0071831923 -0.1347769 0.03010774 0.07040023
0.09242283 -0.015455668 -0.12165578 0.13084215 -0.093512595 0.05301807 0.22560415 0.1285287
-0.09781578 0.15052018 -0.103032574 0.2142194 -0.31487364 -0.09978569 0.07355791 0.085566774
-0.097492374 0.02187381 0.047845483 -0.106492445 -0.100745045 0.0013164505 0.013650239 -0.020787362
-0.047535118 -0.066559546 0.0032713762 -0.2926477 0.064438514 0.08298769 0.01927103 -0.15744454
0.24661808 0.20661762 -0.030406583 -0.0542626 0.033376526 0.096270464 -0.0014249025 -0.04845847
-0.05517848 -0.0011966139 -0.02915959 -0.22876427 0.09048802 0.00807121 -0.051527917 -0.029408976
-0.025185198 0.21795262 -0.05357079 0.20269662 -0.10448317 -0.09570588 0.09731446 0.05311651
0.03957858 -0.040979367 -0.016538085 0.068302654 -0.07039537 -0.20721446 -0.20725703 -0.07389229
-0.058776848 -0.07923167 -0.0010740333 0.08748113 0.012099053 0.002026598 -0.05149031 0.34377375
0.054697532 -0.22051927 -0.018333267 0.09876796 -0.08816315 -0.08769889 -0.07488387 0.010950789
0.06603624 -0.029457591 -0.007846699 -0.017262729 -0.07310235 -0.09060466 -0.07909305 0.013338375
-0.0880299 -0.07806384 -0.14941128 -0.005893829 -0.2891875 -0.045980647 0.023406325 -0.18322533
0.04839161 -0.24655184 0.096882015 -0.07065377 -0.1201115 -0.029239345 -0.10790132 0.068067886
-0.10798717 0.034940057 0.028510667 0.063447066 -0.10896728 -0.048123263 0.01732861 0.26217356
-0.053354546 0.1264343 0.022004372 0.00502112 -0.25859842 -0.08274751 -0.07464107 -0.22412959
0.0392484 0.09378841 0.23226883 0.09345741 0.064854085 0.07738031 0.08938736 0.002738058
-0.09950223 0.044146113 -0.04459255 -0.0032444557 -0.07926998 0.050478514 -0.14837202 0.051951457
-0.026010986 -0.07598319 -0.08136282 -0.071989655 -0.034888007 0.10750765 -0.010130536 0.027960075
-0.0877569 0.064037226 0.24130838 0.108692326 -0.12349172 0.33396804 -0.13628085 0.08740514
0.17073403 0.081021644 -0.043076325 -0.014731737 -0.1326261 0.22151442 0.040784236 0.06902663
0.062258776 0.062271014 -0.07282715 -0.059250154 -0.07415175 0.01893591 -0.019162335 -0.006362333
0.0028983834 0.005102938 0.001664138 -0.06337987 0.02393605 0.09749782 0.16864942 -0.0042243334
00000000: db83 c73c 20fb 93bd 7372 35be 16f7 47bd
00000010: 665a 803e 23f4 ecbd 3d1f 913d 388f 263e
00000020: 4f0c 0ebe adcc 01bd b6c6 c6bd 8786 db3c
00000030: 6170 c3bd 4b53 953d ffb8 cabd cb13 29bd
00000040: f4c2 703c 3cd6 12be 32cf 023d 975c 873e
00000050: 7af6 cf3d fe8e 65bd 9c53 d2bd 63ec 533e
00000060: 0983 323c bdbb 573e a263 d03d 4741 15bd
00000070: b6e0 393d 5c2e c83d dd5b 3ebd 963a f1bb
00000080: 4c8c c1bb 4e9d 983d 536e 2a3e 2b9b 9c3d
00000090: 568d 8bbd 5b2d 55bd 6e11 a5bc 371b 1cbe
000000a0: b84a c8bd 104c 91bd bca3 d5bc 58c1 973c
000000b0: 8ced 99bc c93c a2bd 3fa4 3fbd 0063 4a3e
000000c0: 6388 01be da20 293d a7bb 5d3d 069c 963c
000000d0: 948e 293d ffbd bebd f6c1 093b 00c1 003d
000000e0: c0b3 8ebe aa3b c03a 3a8f 693e b079 613d
000000f0: 8b03 6c3d e2e2 4a3d 061e 4bbc 4c83 083d
00000100: 9c52 0c3e 775a 3fbd 4724 37bd 5fa4 a13a
00000110: 90b6 a73d e2fb 50be c7fd a1bd 5505 00be
00000120: 5d1f cd3d 382d 7b3d 7de9 563d 758a eebd
00000130: fc60 eb3b f502 0abe 82a4 f63c ff2d 903d
00000140: 2e48 bd3d c539 7dbc aa26 f9bd 7cfb 053e
00000150: 8883 bfbd 7a29 593d c604 673e 079d 033e
00000160: a453 c8bd f621 1a3e be02 d3bd 555c 5b3e
00000170: 1e37 a1be 715c ccbd 88a5 963d a23d af3d
00000180: 15aa c7bd b430 b33c a0f9 433d b618 dabd
00000190: 6b53 cebd c08c ac3a 41a5 5f3c 424a aabc
000001a0: 2fb4 42bd 5f50 88bd 9664 563b ebd5 95be
000001b0: 57f8 833d 73f5 a93d 47de 9d3c 2439 21be
000001c0: 7389 7c3e 9293 533e 3a17 f9bc 7642 5ebd
000001d0: d3b5 083d 7329 c53d cbc3 baba 637c 46bd
000001e0: d402 62bd b3d7 9cba 18e0 eebc 2e41 6abe
000001f0: c851 b93d 1c3d 043c f00e 53bd 18eb f0bc
00000200: 3051 cebc f92e 5f3e 0b6d 5bbd b48f 4f3e
00000210: 46fb d5bd 7201 c4bd ce4c c73d b390 593d
00000220: 261d 223d fbd9 27bd e17a 87bc 43e2 8b3d
00000230: 732b 90bd 0730 54be 303b 54be d754 97bd
00000240: febf 70bd 3744 a2bd 94c6 8cba 4f29 b33d
00000250: 1b3b 463c acd0 043b 81e7 52bd 1d03 b03e
00000260: 850a 603d cecf 61be a62f 96bc db46 ca3d
00000270: e28e b4bd 7a9b b3bd b75c 99bd f06a 333c
00000280: 023e 873d 0c51 f1bc 718f 00bc 916a 8dbc
00000290: afb6 95bd f08e b9bd 89fb a1bd 3389 5a3c
000002a0: 0549 b4bd efdf 9fbd 45ff 18be 0521 c1bb
000002b0: 6210 94be 3456 3cbd 9fbe bf3c 6c9f 3bbe
000002c0: 4836 463d 1678 7cbe 146a c63d ecb2 90bd
000002d0: 05fd f5bd 5a87 efbc 5efb dcbd 2d67 8b3d
000002e0: 6128 ddbd 4e1d 0f3d 348f e93c 89f0 813d
000002f0: 3d2a dfbd e61c 45bd bbf4 8d3c 9d3b 863e
00000300: 4c8a 5abd fe77 013e 8342 b43c 3588 a43b
00000310: 0367 84be 8777 a9bd 6bdd 98bd 3a82 65be
00000320: eec2 203d 2314 c03d e1d7 6d3e 9966 bf3d
00000330: 38d2 843d 9179 9e3d b810 b73d fe70 333b
00000340: d3c7 cbbd 8ed2 343d ada6 36bd efa0 54bb
00000350: 4d58 a2bd 8fc2 4e3d d6ee 17be 0dcb 543d
00000360: fe14 d5bc 139d 9bbd 8da1 a6bd 506f 93bd
00000370: bae6 0ebd f92c dc3d 8cfa 25bc 870c e53c
00000380: e4b9 b3bd f325 833d 8b19 773e 159a de3d
00000390: 3ae9 fcbd dcfd aa3e 358d 0bbe 7701 b33d
000003a0: e7d4 2e3e adee a53d cd70 30bd 625d 71bc
000003b0: 23cf 07be add4 623e 5f0d 273d d55d 8d3d
000003c0: 0f03 7f3d e40f 7f3d 6726 95bd 4ab0 72bd
000003d0: dfdc 97bd 7b1f 9b3c 54fa 9cbc 1e7b d0bb
000003e0: cef2 3d3b 8c36 a73b 351f da3a 4ecd 81bd
000003f0: 8915 c43c f0ac c73d 6fb2 2c3e 476c 8abb

fc3.bias f4 [10]
0.036637973 -0.042080797 0.15127507 0.06694764 -0.27404168 0.37290525 0.19582297 -0.16692679
-0.21841627 -0.23986046
00000000: b311 163d ea5c 2cbd dae7 1a3e d81b 893d
00000010: 314f 8cbe 70ed be3e d185 483e dbee 2abe
00000020: 84a8 5fbe fb9d 75be
