Models/ModelsForTesting/BasicModelTest.pth (torch, 182235 bytes, 10 tensors)

conv1.weight f4 [6, 3, 5, 5]
000000 33 77 81 3d 91 1e 17 3e 57 97 3e 3e 16 d7 bc bb
       0.063215636 0.14757754 0.18612419 -0.005762945
000010 f8 ed 04 bc b6 25 ba bc 5f a4 34 3e 52 83 81 3d
       -0.008113377 -0.02272306 0.17640828 0.063238755
000020 e6 80 99 3d 68 10 14 3c af c9 1d 3e 15 15 2a 3e
       0.074952886 0.009037115 0.15408967 0.16609605
000030 aa 71 24 3e 9e 89 96 3d 28 66 ba bd 69 01 25 3e
       0.16058984 0.07350467 -0.09101516 0.16113819
000040 67 9a 12 3c f1 75 01 3e 5c ca fb 3d f6 9b 9a bd
       0.008947945 0.12642647 0.12294456 -0.075492784
000050 6d 76 f2 3d 3c 29 6e 3d a3 9f 0d 3d f2 7c c2 3c
       0.11838994 0.058144793 0.03457607 0.02374122
000060 88 89 38 3c 1a 5f 07 bd 35 2c 32 3e 3f 9e 2d 3e
       0.011263259 -0.03304968 0.17399676 0.16954897
000070 be 7c c6 3b 65 df 05 3d 4e 5f 38 bc a1 e7 91 3b
       0.006057351 0.03268375 -0.011253191 0.004452661
000080 93 ab 1f 3d 5b f1 20 3e 16 82 ee 3c f1 8a ab 3c
       0.038981985 0.1571707 0.029114764 0.020940276
000090 9f ce 2b 3e ad 9b d6 3c 5b 92 01 3e 42 3a 94 3c
       0.16778038 0.026197279 0.12653486 0.018094186
0000a0 65 88 e8 3d 00 79 2f bd b6 3e 3a bd af fb f4 3d
       0.1135414 -0.042840004 -0.045469962 0.11962067
0000b0 63 63 ee bc 29 ca fc 39 f5 a3 a6 3d f8 74 dd 3d
       -0.029100126 0.00048215807 0.08136741 0.10813326
0000c0 3e bf 64 3c 2c c8 34 3d ff 93 53 3b b4 c2 12 3e
       0.013961611 0.04413621 0.0032284257 0.14332086
0000d0 67 de fa 3d 68 03 2c 3e a0 03 e0 3d b8 08 c1 3d
       0.12249451 0.16798174 0.109381914 0.09425491
0000e0 c2 1c e0 3d cc ed 88 bc 1f 31 1d bd c7 3c b4 bc
       0.10942985 -0.016714953 -0.038376924 -0.022001637
0000f0 8a fc ca 3c ec 5c 15 bd ef 3e 9c 3c 5a fd 90 bc
       0.024778623 -0.03646557 0.019072978 -0.017698932
000100 a4 f2 b6 bd 94 01 1e 3e 85 80 92 bc bc 71 c0 3d
       -0.08932999 0.1543029 -0.017883549 0.09396693
000110 de 1a 95 3d d9 22 f3 3d 33 51 6f bd 51 5a 2c 3d
       0.07280515 0.11871881 -0.058427047 0.04207832
000120 f1 08 39 3c 48 bc 9b bd fd fd cc bb a8 c8 35 bc
       0.011293636 -0.07604271 -0.0062558637 -0.011095203
000130 05 80 81 3e a5 34 20 3e 52 0b 04 3e 7a 2d 6a 3c
       0.25292984 0.15645082 0.12894943 0.014293069
000140 a1 2e 0c 3d 1c f7 6b 3d bc dd 48 3e 73 6e a2 bd
       0.034224156 0.05760871 0.19615835 -0.07931223
000150 aa 31 09 3d 68 22 65 3e 55 b3 6f 3d f7 6a 8e 3d
       0.03349463 0.22376406 0.058520634 0.06953996
000160 2c f5 a3 3c 0c ea ea bd 33 a2 fa 3d 3c 20 25 3e
       0.020014368 -0.11470422 0.12237968 0.16125578
000170 50 d0 f4 3d 76 de 52 bc c2 fa 95 3c c4 e7 04 3e
       0.11953795 -0.012870422 0.018308047 0.12979037
000180 e7 9c 4f 3e 7b 6b 60 3d ea 91 77 bc 19 86 8f bd
       0.20274697 0.05479 -0.015110472 -0.07007999
000190 53 dd 38 bd 77 9f 3b 3e 18 59 5c 3e ec d4 7e 3d
       -0.045132946 0.1832255 0.21518362 0.062214777
0001a0 44 73 13 3d a6 da 35 3d 82 cd 6d 3e bd 42 db bc
       0.035998598 0.044397973 0.23222926 -0.026765222
0001b0 6b b9 fd 3d 71 36 02 be 90 7a bb 3d c7 c7 7a 3d
       0.12388881 -0.1271608 0.09154236 0.06122568
0001c0 27 29 21 3c 9c 51 a0 3b be 43 72 bd 41 7d f4 3d
       0.009836472 0.004892541 -0.059146635 0.11937953
0001d0 01 62 b1 3d 4e 53 ba bc 79 32 50 bd 3f 34 1b 3d
       0.08661271 -0.0227448 -0.050829384 0.037891623
0001e0 57 4e 45 3d 4a e8 02 3e 47 dd 09 3e 6c 3f cd 3d
       0.048170414 0.12783924 0.13463317 0.100218624
0001f0 e0 f2 9a bd c9 60 87 3c d5 0a 64 3e a0 95 af 3d
       -0.07565856 0.016525643 0.22269757 0.085734606
000200 75 31 8a 3c 32 f4 89 3d c5 da 36 3e e1 c4 f3 3d
       0.016869286 0.0673603 0.17856891 0.11902786
000210 64 89 aa 3d c5 31 f1 3d 88 69 69 3d bd fe 21 3c
       0.083269864 0.11777071 0.056985408 0.0098873945
000220 15 14 d7 3d 8e 16 46 3e 03 09 23 bb 5b ab 02 be
       0.10501877 0.19344541 -0.0024877198 -0.1276068
000230 cf e1 3d 3e b5 86 10 3c f3 6c 19 3e 0d 7d 99 3d
       0.1854317 0.008821179 0.14982967 0.07494555
000240 4c 6f 08 bd ff 8c e3 3d a0 24 3b 3e 13 80 d1 bb
       -0.033309266 0.11110877 0.1827569 -0.0063934415
000250 79 72 c0 bd f9 56 a9 3d c1 08 df bd 85 45 2d be
       -0.09396834 0.08268542 -0.108903416 -0.16921051
000260 85 37 c4 3b 6f 85 cc bc d3 e0 dc 3d 79 58 4d 3d
       0.0059880638 -0.02496597 0.10785069 0.050133202
000270 ed a7 08 be 32 11 43 3b bd b7 8d 3d fc 78 56 bd
       -0.13345309 0.0029764888 0.06919811 -0.052361473
000280 d7 fd e7 bc 42 5c 88 bd d6 30 e0 3d cf d4 a0 3c
       -0.028319282 -0.06658222 0.10946815 0.019632725
000290 1d 84 11 3e bf a5 b9 bd 5b 56 03 bd cd 0e 74 bd
       0.14210553 -0.09064817 -0.032064777 -0.059584428
0002a0 62 ed a3 bc c5 9b 06 3d 60 d0 84 bd 02 6e 92 bd
       -0.020010654 0.032863397 -0.06485057 -0.071498886
0002b0 2f ce cd 3d 50 73 b8 3d 50 99 91 bd 95 ab 21 be
       0.10049092 0.09006369 -0.0710932 -0.1578811
0002c0 11 11 4c bc ad 7a cc bc 9b 14 d8 3d 97 66 06 3e
       -0.012455241 -0.02496084 0.10550805 0.13125072
0002d0 83 2b 76 bd d9 62 0a be 02 1d 70 bd e6 da 8e 3d
       -0.06010009 -0.1351427 -0.058621414 0.06975345
0002e0 fb 48 d9 3d 34 ab 84 bd 3f 4a 12 be 16 6c f1 bc
       0.10609623 -0.06477967 -0.14286135 -0.029470485
0002f0 03 7f 28 3d 61 57 90 3a 35 8e 77 bd b1 c8 3c ba
       0.041136753 0.0011012369 -0.060438354 -0.0007201536
000300 87 d1 0a 3e 70 3e ea 3d bb 43 5a 3d 11 ee 84 3d
       0.13556491 0.1143769 0.05328725 0.0649072
000310 81 53 82 bd fc 4e af 3d e0 56 b7 3d 89 ae 4a 3d
       -0.06363583 0.08559987 0.08952117 0.049482856
000320 44 66 0c be 89 b1 56 3a 42 47 d6 bd bd b9 a6 3d
       -0.13710886 0.0008189907 -0.1046281 0.081408955
000330 f2 a2 b4 bc 87 7e 22 bc 41 4c 13 bd 53 b9 1e 3c
       -0.022050355 -0.009917862 -0.035961393 0.009687739
000340 78 35 75 3d 6f b7 ed 3c 07 ee 12 3d 46 bf f2 3c
       0.059865445 0.029018132 0.03587153 0.029632222
000350 93 7d ca 3d 11 38 9e bc f5 ce 06 3e 91 d3 77 bc
       0.09887233 -0.019313844 0.13164885 -0.015126125
000360 02 06 ba bc cb 39 8c 3d 06 08 f7 3c fd ca 1a 3d
       -0.022707943 0.06846961 0.030155193 0.03779124
000370 32 5c cc bd 4d 81 c6 3d 5c 2e 52 3d cc 62 2e 3e
       -0.09978522 0.09692631 0.051313743 0.17029876
000380 0f c5 e8 3d 53 0b 82 bd 51 a6 1c 3e cb ce 19 3a
       0.11365711 -0.06349816 0.1529782 0.00058673014
000390 98 5b 87 3d 5b 74 95 3c 36 82 ce 3c df f6 a8 3d
       0.06609267 0.01824396 0.025208574 0.08250212
0003a0 ce 3b 2b 3e d4 69 5a 3e ef 16 e0 3d 55 48 d5 bd
       0.16722032 0.21329433 0.10941874 -0.10414187
0003b0 94 46 a9 bd 51 9b a1 3d bd 7c 20 3e 28 5f 26 3e
       -0.08265415 0.078909524 0.15672584 0.16247237
0003c0 a1 91 83 3b 92 f8 d6 3d 92 f6 19 3e 92 0c a0 3d
       0.004015163 0.1049663 0.15035465 0.078148976
0003d0 3d 99 c8 3d f0 af 4c bd 51 68 2d bd 31 73 fb ba
       0.09794853 -0.049972475 -0.042335812 -0.001918411
0003e0 fa 6e 45 3e 02 2a 12 3e 34 42 03 be 89 40 f0 3d
       0.19280615 0.14273837 -0.12818223 0.11731059
0003f0 50 4a 39 3e 33 d4 59 3e 54 af 42 3d bd 5e 25 bd
       0.18094754 0.21272354 0.047530487 -0.040373553

conv1.bias f4 [6]
000000 aa 00 c0 bd 9e 86 1c bc 12 9c 02 3c f0 b9 05 bc
       -0.09375127 -0.00955358 0.00797178 -0.008162007
000010 7e 04 64 3e f1 91 67 3d
       0.22267339 0.056535665

conv2.weight f4 [16, 6, 5, 5]
000000 d1 84 6c 3d 04 c7 83 3d 97 53 2b 3d c0 ac 8f bc
       0.05774385 0.064344436 0.041827764 -0.017538428
000010 27 a7 62 3d 4a 99 cd 3c 12 f8 64 bd f3 47 77 3c
       0.05533519 0.025097508 -0.05590064 0.015092838
000020 b3 6f 21 bd 62 b4 20 3d 63 c5 67 bd e6 64 72 3d
       -0.039413165 0.039234526 -0.056584727 0.059178255
000030 bf f7 45 3d 03 c1 4f 3d 07 c2 0b bd 19 f4 2e 3d
       0.048331972 0.05072118 -0.034120586 0.04271326
000040 9f 19 1a bd 7b f0 ea 3c 95 77 ad 3d f2 0a 13 3d
       -0.03762209 0.028679123 0.08470074 0.03589911
000050 0b b7 8e bd 27 68 d0 3d 24 f3 c3 3d 8e ba b2 3b
       -0.069685064 0.101761155 0.0956786 0.005454368
000060 9e f2 d0 3d b9 bb 05 3d 20 a1 ba b8 0e d5 72 3d
       0.102025256 0.03264973 -8.899183e-05 0.059285216
000070 11 b1 a9 3d 9c 56 3f bd 99 22 bd bd b3 a9 84 bd
       0.08285726 -0.046713457 -0.092351146 -0.0647768
000080 e3 bd 82 3d ab a9 94 3d 8d 4b a1 3c c2 f3 da 3c
       0.06383874 0.07258924 0.019689346 0.02672756
000090 45 af 8a bd e4 0d 5f 3d f4 09 c7 bc d6 83 1e 3d
       -0.06771711 0.054456607 -0.024296738 0.038699947
0000a0 a6 7b 74 bd 50 c1 28 bd 60 83 b6 bc 0b e0 b3 3d
       -0.059688233 -0.041199982 -0.022279441 0.08782967
0000b0 a0 19 05 bc db 05 af bd 77 8e 09 3c bf e2 ec ba
       -0.008123785 -0.08546039 0.008395783 -0.0018072947
0000c0 19 57 c6 3c 90 f0 db 3d 69 b4 98 3d 0f 66 7c bd
       0.024211453 0.10739243 0.074562855 -0.06162077
0000d0 f4 a0 a7 bd 2a 18 c8 bd de 7f 84 bc 34 f0 86 bd
       -0.08184996 -0.09770234 -0.016174253 -0.06588784
0000e0 c1 61 24 bc 9f 03 8f bd 14 5d a8 bd ba 7f b9 bd
       -0.010033072 -0.069831125 -0.08220878 -0.09057565
0000f0 11 e2 80 3d 7a d7 3c 3d 2e 50 80 bd 4e e9 25 bd
       0.06293119 0.046103932 -0.06265293 -0.0405057
000100 20 f0 36 3d a3 52 a2 3c 53 55 da bc 63 a9 b7 bd
       0.044662595 0.019814795 -0.026652014 -0.08967855
000110 25 ab a3 bb cd e4 bb bd bb e8 53 bd 3b 40 9f 3d
       -0.0049947673 -0.091745 -0.05173562 0.07775923
000120 d3 d4 cd bb 84 52 85 bc a3 84 b4 bd 47 f6 93 3c
       -0.006281474 -0.016274698 -0.08814361 0.01806177
000130 84 b7 94 bc 3d cd a7 bc ed 9d 22 3b 5c 91 24 bc
       -0.018153913 -0.020483607 0.002481337 -0.010044422
000140 38 b8 d9 bb 00 37 06 bd fd 31 38 bd 29 e8 48 3c
       -0.006644275 -0.032767296 -0.044969548 0.012262383
000150 b7 f1 4e 3d cf 0f 25 3d f8 c2 a6 3d ce 43 26 bc
       0.050523486 0.04029828 0.08142656 -0.010148002
000160 b2 a4 90 3d f1 3d ba 3c 37 f5 71 3d d7 d1 40 3d
       0.07062663 0.022734614 0.059071746 0.04707512
000170 52 15 f0 3c 7f 3d 91 bc f1 1a 08 3e 93 93 41 3d
       0.029307041 -0.017729519 0.13291527 0.04725988
000180 e2 76 bf 3c 75 94 85 3d d8 41 83 3d 30 1f e3 3d
       0.023372117 0.065224566 0.06409043 0.11089933
000190 8b d2 c6 bd cc 17 08 be 49 f6 59 bd 40 85 9c bc
       -0.09708127 -0.13290328 -0.05321339 -0.019106507
0001a0 64 b4 ec bc 6c 1e b4 bd 61 fb 20 bd f8 44 de bd
       -0.02889461 -0.08794865 -0.039302234 -0.108529985
0001b0 d5 74 5e bd 7e b1 95 bc 74 a0 91 3c 7b bd bb ba
       -0.05431064 -0.018273111 0.017776705 -0.0014323437
0001c0 da 2f 04 be 00 50 3a bd 7c 0c 43 3c e4 58 13 bd
       -0.12908879 -0.04548645 0.011904832 -0.035973445
0001d0 13 75 25 bd a6 89 13 be fb e4 07 be 30 4a 62 bd
       -0.040394854 -0.14407977 -0.13270943 -0.055246532
0001e0 97 4b 31 bd d6 34 c5 bd 15 28 71 bb dc d9 3d bd
       -0.04328498 -0.09629218 -0.0036797572 -0.046350345
0001f0 8d 4b e7 bc c6 a6 38 bd db de 48 3b 8a 2a 9f bd
       -0.028234268 -0.045080923 0.003065041 -0.077717856
000200 c7 71 fb bd b5 0e 9d bb ed 1a 4e bd cc e9 00 bd
       -0.12277561 -0.004793013 -0.050318647 -0.031472966
000210 7a 56 a7 bd 67 58 de bd 70 42 e8 bd a6 a0 23 3c
       -0.08170791 -0.10856705 -0.11340797 0.009987032
000220 31 12 c8 bd 1e 68 a0 bd 14 05 d2 bc 2c bf d8 bd
       -0.09769095 -0.07832359 -0.025637187 -0.10583338
000230 54 3a db 3c 34 4a b2 bd 54 c0 c2 3a b4 36 aa bd
       0.026761211 -0.087055594 0.0014858344 -0.08311215
000240 84 a4 a7 bd 81 cf ad bd 33 20 e8 bc 4e bc 3b bd
       -0.08185676 -0.08486844 -0.028335666 -0.04583388
000250 1a b5 0b be 91 f7 bc bd 06 2d 07 bd 5e 7a ae 3d
       -0.13643304 -0.09226907 -0.033001922 0.085194334
000260 53 7e 75 3c ca d0 94 3d 58 11 90 3d a8 2a 79 bc
       0.014983731 0.07266386 0.07034558 -0.015207924
000270 41 05 6e bd 56 dc b3 3c e9 0e 01 3c b4 34 e8 3c
       -0.05811048 0.02195565 0.00787709 0.028345443
000280 1b 16 53 bd b2 3c 76 3c b0 02 19 3c a2 61 b5 bd
       -0.051534753 0.015029119 0.00933902 -0.088565126
000290 82 6f 12 3d ff 64 1f bd 9e 0d 81 3c de 56 81 3d
       0.035750873 -0.038914677 0.015753563 0.06315397
0002a0 50 b5 57 bd 0f 6c 28 bd c5 c9 7b bc 5d e5 cf bc
       -0.052663147 -0.041118678 -0.01536793 -0.025377924
0002b0 b1 98 98 bc 29 eb d8 3b 45 7d 18 bc 4d 06 b2 3d
       -0.018627496 0.00661983 -0.00930721 0.08692608
0002c0 ea 92 f1 bc 36 80 4d bc b5 ab 74 bd f5 9f a4 3d
       -0.029489 -0.012542775 -0.059734065 0.08038322
0002d0 28 8b d9 3d cf 4c 15 bc cf 23 d0 bc f2 e7 9a 3c
       0.10622245 -0.009112551 -0.0254077 0.018909428
0002e0 7f b4 11 bd f5 e3 0f 3d 8f 99 1e 3d ee e9 88 bd
       -0.035572525 0.035129506 0.038720664 -0.066852435
0002f0 24 b8 69 bd 02 5b 94 bd d6 75 7f 3d 87 df 2c 3d
       -0.057060376 -0.07243921 0.062368236 0.04220536
000300 55 82 c9 3b 28 cb 66 3d cb e7 99 bd 92 8b 7a bd
       0.00614957 0.05634609 -0.07514914 -0.06116826
000310 74 30 8d bc 99 82 15 bd 36 73 02 bd af 7f a0 bd
       -0.017235018 -0.0365015 -0.031848155 -0.07836854
000320 b5 cf 34 3d d5 88 cb bc 1f 21 36 bd 07 be 44 bc
       0.044143397 -0.02484552 -0.04446518 -0.012008197
000330 7c c1 75 bd a0 3a 05 bd 23 93 94 bd f0 04 dd 3c
       -0.059998974 -0.032526612 -0.072546266 0.026979893
000340 77 63 9a bd cc 44 0b 3c 4a 54 7a bd de 2d 89 3d
       -0.07538503 0.008500289 -0.06111554 0.066982016
000350 22 51 33 3c f0 64 11 bc f8 fd 78 bd db 54 1b 3d
       0.010944637 -0.008874163 -0.06078908 0.03792272
000360 49 aa cf bc b1 f3 17 bd 50 3a 06 bd 80 db 71 bd
       -0.025349753 -0.037097637 -0.032770455 -0.059047222
000370 f3 bb 9a bd f0 0f 4a bc 4c 78 68 3d a0 45 0d bd
       -0.0755538 -0.012332901 0.05675535 -0.034490228
000380 eb cf 4d 3d 1e fa f4 3d 72 3c 81 bc 99 39 32 3d
       0.050247114 0.119617686 -0.015775893 0.04351196
000390 82 06 a3 3c b4 b8 e0 3d 93 90 9c 3d e0 76 7a bd
       0.019900564 0.10972729 0.07644763 -0.061148524
0003a0 97 23 7e bd ba 62 93 bd cf 71 06 bd 43 25 40 bd
       -0.06204566 -0.07196565 -0.03282338 -0.046910536
0003b0 ac 49 82 3c 51 3a 28 bc 1f d6 08 3d a7 9a b7 bd
       0.01590427 -0.01026781 0.033407327 -0.089650445
0003c0 0b 45 30 bc 94 0d 8f bd f0 f7 7d 3c 6c 62 f4 bc
       -0.010758649 -0.06985012 0.015501007 -0.029832087
0003d0 0f eb 41 3d 36 05 5e 3d 8d 2d 80 bd 3d 6f 49 bd
       0.04734331 0.05420419 -0.06258688 -0.04917835
0003e0 36 c4 43 3d b5 38 63 bd 49 c5 e3 3c 51 da 94 3c
       0.047794543 -0.055474002 0.027804034 0.018170508
0003f0 5a d3 3b 3d 59 f5 9b 3c 95 40 e7 bc b9 c9 18 bd
       0.045855857 0.01903789 -0.028229037 -0.037301753

conv2.bias f4 [16]
000000 1c cd 57 bd 97 0c d9 3c 6e 0f d4 3d 27 0f ec 3d
       -0.052685842 0.026495261 0.103545055 0.115263276
000010 16 e6 8a 3d e6 b6 b0 bd 4b e0 07 3e cc 44 77 bd
       0.06782167 -0.08628635 0.13269155 -0.060368344
000020 71 9b 4b bc d5 41 4d 3d d5 5f 50 bd 25 57 39 bd
       -0.012427197 0.05011161 -0.050872643 -0.045249123
000030 8a 87 3e bc 54 15 eb bc fc 90 60 3d bb bd 8e 3d
       -0.011628995 -0.028696693 0.054825768 0.06969782

fc1.weight f4 [120, 256]
000000 48 5e 8d bd 98 fa 9f bd 86 92 d5 bb 5b 74 0b bc
       -0.06902748 -0.07811469 -0.006517711 -0.008511628
000010 3d b1 3e bd 43 f0 21 3c 97 5a 4f bc 26 03 a2 3c
       -0.046555746 0.009883943 -0.012655876 0.019776892
000020 37 17 d5 bb 91 17 f1 bc 6d 98 a3 3c 5b 55 6a bd
       -0.0065030116 -0.029430183 0.019970143 -0.057210308
000030 ed b8 85 3c 79 0f a1 bc b5 64 b4 3d c9 4e 1d bd
       0.016323531 -0.019660698 0.08808271 -0.038405214
000040 3d 89 04 bc 8d d1 bb bc 2d c6 36 3d 09 cd 58 bd
       -0.008089361 -0.02292707 0.04462259 -0.05292991
000050 5c 72 11 3d 80 d2 f6 3c 16 a3 44 3d e5 c6 37 bc
       0.035509452 0.030129671 0.048007093 -0.011216854
000060 3d af 4f 3d d4 a4 32 bd 6d 16 38 3c 4c 63 8f bc
       0.05070423 -0.043614224 0.0112358155 -0.017503403
000070 38 99 5f 3d 4f 40 8c bc c2 38 20 3d 92 42 31 3c
       0.05458948 -0.017120508 0.03911663 0.010819094
000080 13 2b 99 bc be 8d af 3d da dc 99 3b 13 8e 7e 3c
       -0.018697297 0.08571957 0.004695517 0.015536803
000090 e5 19 a5 3d fd 38 18 3c f4 10 c9 bc 8f dc 81 3d
       0.080615796 0.009290931 -0.024544217 0.06340896
0000a0 56 f7 3c 3c f5 db de bb e1 21 35 bc 34 1e 7b 3d
       0.011533579 -0.0068011233 -0.011055441 0.0613081
0000b0 bd d8 90 bc ba 86 33 bb 71 ea 9a 3b 8b b4 a2 bc
       -0.017681474 -0.0027393536 0.0047276546 -0.01986148
0000c0 85 1e 68 bd 58 3d a6 bb ac 4d 06 3d e5 5d c9 bc
       -0.05666973 -0.0050732307 0.032788917 -0.024580905
0000d0 06 90 a3 3a 42 19 3c bd b8 11 3a 3d 82 f0 c8 bc
       0.0012478835 -0.045922525 0.045427054 -0.024528746
0000e0 dc c4 db bc e4 ac b1 bb 4d 9c 0c bb d1 27 48 bd
       -0.026827268 -0.0054222215 -0.0021455467 -0.048866097
0000f0 46 b8 58 bd 5b 58 27 bd 2f fb 85 3d 71 76 d3 3b
       -0.05291011 -0.040855747 0.0654205 0.0064533283
000100 02 7a 94 3c 1c c4 47 3d d2 53 81 3d 0e c7 57 3b
       0.018124584 0.04877101 0.063148156 0.0032925042
000110 a2 85 21 3c 70 c9 6f 3d 5a 85 84 bd 8b 2a 43 bc
       0.009858521 0.058541715 -0.06470747 -0.0119119985
000120 0b df 95 bc a9 cd 4c bd 05 4f bd 3b fe c2 26 bd
       -0.018294832 -0.05000082 0.005777242 -0.040713303
000130 78 f5 9b 3d 82 63 fa 3c 3e 4f 38 ba d0 8f 15 bd
       0.07615179 0.030565027 -0.0007030851 -0.036514103
000140 cf 96 40 3d 62 90 52 3c 11 3d 6e bd 96 7f d7 bc
       0.047018822 0.012851806 -0.058163706 -0.026305955
000150 bf 4c 21 3d d4 55 2f bd e8 5c 35 bd f8 36 82 bd
       0.03937983 -0.04280646 -0.044278055 -0.06358141
000160 78 21 2e 3d c8 b9 10 bd e7 6c b5 bb c2 9e d9 bc
       0.042512387 -0.035333425 -0.005536664 -0.02656496
000170 95 12 fe 3c b5 db 9e bc 6a 5c 7d 3d be c8 5d 3d
       0.03101472 -0.019391874 0.06185571 0.05414652
000180 91 8a af bb fe c3 0c bc 20 58 b5 bb d9 39 16 bd
       -0.0053570946 -0.00859165 -0.005534187 -0.03667626
000190 24 4a 28 bc 14 3b 5b 3d 34 4a 36 bd 60 b7 68 bc
       -0.010271583 0.05352314 -0.04450436 -0.014203876
0001a0 63 ca 87 bc 64 25 35 ba a6 5b 26 3d bc b8 38 3d
       -0.016575998 -0.00069101737 0.040614747 0.04509805
0001b0 c0 60 65 bd bb 4b 9e bc 9c c0 cb bc 59 ec 6e 3d
       -0.05600047 -0.01932322 -0.024872117 0.058330867
0001c0 74 29 3b 3d 9e 48 29 3c 44 5d c5 bb b8 b2 cc bc
       0.04569383 0.010332255 -0.006023081 -0.024987563
0001d0 85 bb ad 3c 65 b8 a8 bc 2c 8a 5e bd 64 e5 88 3c
       0.02120758 -0.020595739 -0.05433099 0.016710944
0001e0 b6 ca 45 3d f4 16 de 3c 20 aa b6 3b fc 35 c2 bc
       0.048289023 0.027110554 0.0055744797 -0.023707382
0001f0 a2 bf 0b 3d 90 5f 05 3c f8 c1 9c 3c 80 58 e5 3c
       0.034118302 0.00814046 0.01913546 0.027996302
000200 76 ef 82 3d 52 9f dc 3c 6e 76 48 bd 8c e4 68 bd
       0.0639333 0.026931439 -0.04894107 -0.056858584
000210 c9 49 00 3b 99 0a 5c bc 0c a5 44 bd ed c8 a9 3c
       0.001957523 -0.013430261 -0.048008963 0.020725692
000220 2b fc 73 bd 84 a0 81 3b 86 5c 37 bc 94 3c 47 3d
       -0.059566658 0.0039559025 -0.011191493 0.048641756
000230 c4 4a 14 3a 3b 20 ca 3d 83 c2 39 bd 73 43 25 3d
       0.0005656893 0.09869429 -0.045351516 0.040347528
000240 c7 72 69 bd 41 8b 54 3d cf 44 ac bd 91 ca 5f bd
       -0.056994226 0.051890615 -0.08411562 -0.05463654
000250 e2 19 2b bd 4e a5 16 bd 43 ba a9 3b 53 9c 40 bc
       -0.04177273 -0.03677874 0.005179675 -0.011756021
000260 f3 6b 04 3d e4 26 46 bd 66 bd d2 bc c5 c3 2e 3d
       0.03232951 -0.048376933 -0.025725078 0.04266717
000270 9e 9d 9e bb 77 bc 73 3d c8 8f a8 3c 57 5b 19 3d
       -0.004840567 0.059505906 0.020576373 0.037440624
000280 47 ed e2 3c b7 fb a7 bc f4 5a a6 bc 9f 4c 2b 3c
       0.027701033 -0.02050577 -0.020307042 0.01045528
000290 b3 f9 3a 3d 14 76 5a bd 6b 0a 63 3d fc 41 ea 3c
       0.045648288 -0.053335264 0.055429857 0.028595917
0002a0 e4 aa bb bc 7a 10 12 3d b0 f2 10 bc 50 1a 2f bd
       -0.022908635 0.035660245 -0.008846924 -0.042749703
0002b0 78 24 ae bc 4a a1 31 ba 2e 5b 77 bd 54 e5 3c bd
       -0.021257624 -0.0006776048 -0.06038969 -0.04611714
0002c0 af 48 84 3d 69 b6 6a 3c 0f c2 75 bd 6d e2 0d bd
       0.06459176 0.0143257165 -0.05999952 -0.034639765
0002d0 7e ca f8 3c ab fc 0c 3d 3b 90 18 bd bc d9 cd bc
       0.030369993 0.03442065 -0.037246924 -0.025128238
0002e0 0f d2 7f 3d 36 59 42 3d d4 e4 08 bd f9 4e 48 3b
       0.062456187 0.04744836 -0.033421353 0.003056465
0002f0 bd d4 3f 3d 5f f8 6f 3d ef b5 3f 3d 76 f3 78 3d
       0.046833742 0.058586475 0.046804365 0.060779057
000300 80 68 95 bb e3 6d 16 3d 51 b3 c4 bc 7b b0 30 3d
       -0.0045595765 0.03672589 -0.024011286 0.043137055
000310 33 45 70 3d 44 71 3f 3d 11 a4 93 3d dd 12 3f bd
       0.058659744 0.046738878 0.072090276 -0.04664885
000320 33 ee 22 bd 6b 88 35 3d 7f e1 47 3d 31 30 cd bc
       -0.039777946 0.04431955 0.048799034 -0.025047394
000330 a8 9f 81 bb 1d 5f 4f bd e8 55 27 3d e2 69 3a 3d
       -0.0039558 -0.050627816 0.04085341 0.045511134
000340 ac 7f 7c 3d 93 78 61 bc 13 5a fc 3c b3 07 5b bd
       0.061645195 -0.013761657 0.03080467 -0.05347414
000350 3b bb 79 bc 66 fb 45 bd d4 b8 8d bb f6 ec 10 3d
       -0.015242393 -0.048335455 -0.0043250117 0.035382234
000360 94 d5 ff 3c 96 5f 1b bc 3f d4 66 3d 00 2d 82 3d
       0.031229772 -0.009483239 0.056354757 0.06356239
000370 34 92 33 bc 74 a7 c8 bc 11 a2 cc bc 56 90 16 3d
       -0.0109601505 -0.02449391 -0.024979623 0.036758743
000380 c0 75 2b 3d 50 45 c8 3c 2d 00 5d 3d 21 7b 1d bd
       0.041860342 0.024447113 0.053955246 -0.038447503
000390 ba 47 2f 3b cf 92 d7 bc fd db 0a bd c8 9b 17 3d
       0.0026745633 -0.026315121 -0.033901203 0.0370138
0003a0 83 e2 e0 bb 1f 34 69 bd 00 dc 5d 3d 54 b6 38 3c
       -0.00686294 -0.056934472 0.054164886 0.011273939
0003b0 47 a9 ca 3d e2 7c 9a bd 15 76 3e 3d 9d ad 7d 3d
       0.09895568 -0.07543351 0.04649933 0.06193315
0003c0 85 70 e7 bc 20 29 dc 3c 22 62 bb 3c 31 04 3d bd
       -0.028251896 0.026875079 0.022873942 -0.046146575
0003d0 93 8b b3 3c ed 4c 10 3d 0b 8e df bb 23 65 9b bd
       0.02191714 0.035229612 -0.0068223528 -0.0758765
0003e0 8e 52 8a bd 12 9d aa bc d8 16 4c bb 60 9d 54 3d
       -0.06754027 -0.02082685 -0.0031141546 0.051907897
0003f0 0f fb b1 bc 60 d0 b9 bc 6f 0b 61 3c 1c 1b e2 3c
       -0.02172616 -0.022682369 0.013735636 0.027600817

fc1.bias f4 [120]
000000 1c f6 9f 3d e2 ea 18 bd 42 2d c5 b9 fa 7a 06 3d
       0.078106135 -0.037333377 -0.00037608488 0.032832123
000010 0c 96 57 3d 1d 57 21 3c 48 6b 10 bd 6d d9 88 3d
       0.05263333 0.00984743 -0.03525856 0.06682096
000020 c2 49 93 3c f1 43 a1 bc 4d 78 d2 3c 4e 73 06 bb
       0.017979506 -0.019685717 0.02569213 -0.0020515504
000030 7b df 98 3d 2d ff db 3c a1 7c b5 3d 97 82 69 3d
       0.074645005 0.026855076 0.08861662 0.057009306
000040 28 67 68 bc 64 21 12 bd 16 53 a2 3c ed 1e c7 bb
       -0.014184751 -0.035676375 0.01981501 -0.0060766847
000050 d0 2f 68 3c b6 c2 ac 3c e4 b4 fd 3c e0 3f f7 bc
       0.014171556 0.02108894 0.030970044 -0.030181825
000060 50 fb c7 3d bf 0b 80 bd 4f 95 ed 3c 2d 58 91 bd
       0.09764731 -0.062522404 0.02900186 -0.07096896
000070 7f 6c f1 3c e0 36 99 bc e0 d7 d9 3d 91 77 04 bd
       0.02947068 -0.018702924 0.10636878 -0.03234059
000080 bb 22 02 3c fe fb 2f 3c 79 3f 36 bd c8 48 9f 3c
       0.007942851 0.010741232 -0.044494126 0.019443884
000090 ac e1 3e bd ba 67 29 bd 64 39 5b 3d e1 f2 92 3d
       -0.046601936 -0.041358687 0.05352153 0.07175232
0000a0 fe 69 84 3c 2c 45 83 3d 9f f4 9b bc e7 79 36 3c
       0.016163822 0.06409678 -0.019037543 0.011137462
0000b0 b3 0f 2b bd 17 ea 70 bc ee 39 5f bd 82 62 51 3d
       -0.04176302 -0.014704249 -0.054498605 0.051119335
0000c0 78 5e 64 3d 9f 32 68 3c e7 54 af bc f6 8b a8 3d
       0.055754155 0.014172225 -0.02140279 0.082298204
0000d0 55 30 05 3c 24 62 29 3d a6 55 f9 3c 22 6f 4c 3d
       0.008129199 0.04135336 0.030436348 0.049910672
0000e0 33 19 d9 3b 31 da 8b 3d f6 1a a8 3c 1b c6 0d 3d
       0.0066253184 0.06828726 0.020520668 0.034612756
0000f0 12 14 14 3d 56 9b 94 3c 14 98 44 bd 52 ab 37 bc
       0.036151953 0.018140476 -0.047996596 -0.01121028
000100 f6 7d bf 3b 81 ed 18 3c c0 5e b7 bd 48 62 55 bd
       0.005843873 0.009333969 -0.08953619 -0.05209568
000110 f3 b3 2e 3d 72 cc 1c 3d 97 d5 ab bc 52 07 a3 bc
       0.04265208 0.03828091 -0.020975871 -0.019900952
000120 d7 fe 1e bd db e7 c5 bc ba 9c 53 3d 45 03 fe 3a
       -0.038817253 -0.024158409 0.051663138 0.0019379637
000130 a6 57 15 3d fa aa c3 3b 34 52 61 bd 5d f6 da 3c
       0.03646054 0.0059713097 -0.055010036 0.026728803
000140 b8 5f ea 3c ba 5e 0f bd f7 73 fb bb d2 98 98 bc
       0.028610095 -0.035002448 -0.007673736 -0.018627558
000150 5e 16 6a bc 13 a3 cd bc f2 80 f0 3c 88 44 2a bd
       -0.014287559 -0.025102174 0.02935836 -0.041569263
000160 53 99 de 3c 99 cc a2 3d e4 79 65 3d ba 1b 76 bd
       0.02717272 0.0794918 0.056024447 -0.060085036
000170 45 57 55 3d b4 fb 00 3d c2 3b f6 bc 2b 68 39 3d
       0.05208518 0.031490043 -0.030057792 0.045265358
000180 13 17 7e bc 25 19 13 3d c7 3b 36 3c 65 ed 00 3d
       -0.015508431 0.03591265 0.0111226505 0.031476397
000190 38 9d 05 3d 1a bd 71 bd d3 8d 50 3c 01 1b de 3c
       0.03262064 -0.059018232 0.012729126 0.027112486
0001a0 ae 8c 2b 3d 4b c3 b6 3c 6e 20 ed 3b 6d 46 d6 3c
       0.04188221 0.02230992 0.007236532 0.026156629
0001b0 e9 09 ae bc 02 0b 3a bd cc 40 ad 3b a6 01 98 3d
       -0.02124496 -0.045420654 0.0052872654 0.074221894
0001c0 54 5d 6f bd 0a b7 12 bd 61 d0 82 bd 00 1b 38 bd
       -0.058438614 -0.03581909 -0.06387401 -0.044947624
0001d0 72 18 d3 3c 55 55 81 3d a1 25 83 bb 0f 35 8a bd
       0.025768492 0.06315104 -0.0040022884 -0.067484014

fc2.weight f4 [84, 120]
000000 9f 3b 29 3d 80 7b 9e 3d 0b 8f cf 3d d9 e1 12 bd
       0.041316625 0.077383995 0.10134705 -0.035859916
000010 c2 49 a8 3c fd 6c 0d bc a7 d3 36 3d 6e b7 d6 3d
       0.020542983 -0.008631942 0.04463544 0.10484205
000020 31 3c e8 bd 8d 0a b6 3d f7 ac 3c 3d d8 b1 60 3c
       -0.113396056 0.08888731 0.04606339 0.013714276
000030 58 8f d1 bd 63 ed 3e 3d 7c 87 a8 3d 73 4d 09 bc
       -0.10232419 0.04661311 0.082289666 -0.008380282
000040 31 fa b7 3d db 0b 14 3d 0e b8 0d bd b6 3f 01 bd
       0.08983267 0.03614412 -0.034599356 -0.0315549
000050 b2 73 f8 bc 60 75 b1 bc 5f 6e 83 3d 19 21 81 3d
       -0.030328605 -0.021662414 0.06417536 0.06305141
000060 59 6e 69 3d 4b 16 b7 3b 18 29 57 3d 01 fa fb bd
       0.05699 0.0055873743 0.052529424 -0.12303544
000070 cc e0 8d bb 2d 8a c9 3d e4 e0 fd 3c c0 61 8f bd
       -0.0043297764 0.09840808 0.030991025 -0.07001066
000080 de 68 14 3b 3f 69 7f bc 8d e3 46 bd 1e 70 19 3e
       0.0022645514 -0.0155890575 -0.048556853 0.14984176
000090 40 76 f7 3c b7 6b 83 bd 20 bf 2e 3d 6d c2 34 3d
       0.030207753 -0.06417029 0.04266274 0.04413073
0000a0 28 af 80 bc af c0 83 3c 25 5c 6e bd 65 35 5d 3d
       -0.015708521 0.01608309 -0.058193345 0.054006
0000b0 10 52 ba bd c6 da f4 3c 16 9a 78 bd 0e 7b e3 3d
       -0.090976834 0.029889476 -0.060693823 0.11107455
0000c0 0b 83 0c 3d a1 d3 1b 3d f7 01 70 3d e5 2f 79 3d
       0.03430466 0.038043622 0.058595624 0.06083669
0000d0 3c 71 6c bc 7c 4b e9 3b b7 31 15 be 5c 5c 2f bd
       -0.014431294 0.007119594 -0.14569746 -0.04281269
0000e0 4d 84 71 3d ed a1 74 3d 1c bc b6 bd 82 be a5 bd
       0.058964062 0.059724737 -0.08922598 -0.08092977
0000f0 2a e0 71 bc 8a 30 27 bd d4 a0 99 bc e0 8b 33 bd
       -0.0147629175 -0.040817775 -0.018753447 -0.043834567
000100 b1 d0 91 bd cd 91 21 3d 69 78 d9 bd 80 aa 3d bc
       -0.07119883 0.039445687 -0.106186695 -0.011576295
000110 e8 b6 de 3d b1 11 85 3d e6 a1 80 3c 64 61 c3 3d
       0.1087473 0.06497515 0.0157022 0.0954006
000120 8f 98 13 bc 71 2b b8 3d 6e be 8a bd 75 38 bb 3d
       -0.009008541 0.08992661 -0.06774603 0.09141628
000130 73 0b 98 bd f6 db 24 bd d2 8b af bd fa 64 07 3d
       -0.07424059 -0.040248834 -0.085715905 0.033055283
000140 16 33 69 bd 46 a1 b2 bd ac c1 a8 3a 7a 7d 8a bd
       -0.056933485 -0.08722167 0.0012875102 -0.06762214
000150 b8 48 fe 3c bf 6c b0 3d 69 1b 7c 3d 02 07 32 bd
       0.031040534 0.08614492 0.061549578 -0.043463714
000160 ef 70 07 bd 32 60 f8 3d 6e 0a d9 3d 68 b3 8f bc
       -0.033066686 0.12127723 0.105976924 -0.017541602
000170 34 3f 8c bd 47 1d 88 3d 84 41 ae bd 55 f2 5b 3d
       -0.068479925 0.06646209 -0.0850859 0.053697903
000180 86 d9 9c bc 91 78 63 bd 8b 93 3c bd 08 1d 95 3d
       -0.019146692 -0.055534903 -0.046039145 0.07280928
000190 2d 66 b4 3c 05 d1 d5 bc 85 e7 6e 3c 73 3d d4 3c
       0.022021377 -0.026100645 0.014581566 0.025908208
0001a0 e5 5b 76 3d ce d3 4b bb 9f 33 79 bd f9 5a 8b bd
       0.06014623 -0.0031101587 -0.060840245 -0.06804461
0001b0 f7 68 ce bc f7 96 0b bc 04 1f 02 bd 21 da 33 3d
       -0.025196536 -0.00851988 -0.03176786 0.043909196
0001c0 91 8a b1 3d c4 1a b4 bd 77 d4 3a 3d 12 52 90 bd
       0.086690076 -0.08794168 0.04561278 -0.07046904
0001d0 01 f9 b1 3d 80 92 8d 3b 04 f7 94 bd f2 29 8f bd
       0.08690072 0.0043204427 -0.07273677 -0.06990422
0001e0 d6 b6 b0 bc b1 08 3c 3d ed ed 02 bd fd 05 94 3d
       -0.021571558 0.045906726 -0.031965185 0.07227705
0001f0 ac 5d ab 3d 43 c4 b4 bd bd 89 cc 3d 10 6c dc bc
       0.08367476 -0.088264965 0.09987209 -0.026906997
000200 0c be ec 3d a8 1a 83 bd d9 48 db bd d4 c1 0a 3e
       0.11559686 -0.06401569 -0.10707254 0.13550502
000210 7d ee cc 3d eb 6b 84 3e b7 03 c9 3c 0e 5b 77 bd
       0.100064255 0.25863585 0.024537904 -0.06038957
000220 14 03 b8 bd 64 56 79 3d bf ed 9d 3d 6a 7e f6 bd
       -0.08984962 0.060873404 0.07711362 -0.1203583
000230 b5 ac b7 bd 8b 73 42 3d 51 70 0f bd 19 7d 9c 3d
       -0.08968488 0.04747347 -0.035019223 0.07641048
000240 03 5e 9b 3d 3f c3 56 bd 5f 9d 9d bd cc 11 d0 bd
       0.07586291 -0.052432295 -0.07696032 -0.101596445
000250 3d b1 f8 bb 1e 9f f1 ba 6f 8a 57 3d e2 f0 96 3a
       -0.007589488 -0.0018434261 0.052622255 0.001151588
000260 21 e3 9e bd 64 b9 db 3d 59 2c 95 bd 80 5e be 3c
       -0.07758165 0.1072872 -0.07283849 0.02323842
000270 1e fb 91 3d 3f e2 13 3d 11 a5 b3 bd 90 8c 00 3d
       0.07127975 0.036104437 -0.08771718 0.03138405
000280 1d 88 81 3d bd 01 01 3e 99 1d be bc 19 52 00 be
       0.0632479 0.1259832 -0.023207473 -0.12531318
000290 22 02 ec bc ca b7 27 3d 88 43 60 3c d9 95 95 3d
       -0.02880961 0.04094676 0.013687976 0.07303972
0002a0 77 55 81 3d b6 03 a1 3d b2 2a 56 bd b4 77 41 bd
       0.06315129 0.07862036 -0.05228681 -0.0472333
0002b0 66 6c 04 3c e1 b1 a4 bd f6 c6 23 be f3 a1 9d bd
       0.008082485 -0.0804174 -0.15993866 -0.07696905
0002c0 23 43 cb 3d 87 62 e1 bd dd fb b8 3d 7b b3 d4 bc
       0.09924915 -0.11005121 0.09032414 -0.02596449
0002d0 3d c6 bb bb 73 13 ef bc 92 a0 04 3d 02 86 5f bd
       -0.005730419 -0.029184079 0.032379694 -0.05457116
0002e0 d5 a8 8f 3d 8e c0 50 3d c6 bb c2 bd 97 5e 78 3d
       0.07014624 0.050964884 -0.09508471 0.060637083
0002f0 f9 34 df bd c2 32 1e bc 06 68 26 3d b3 3d 51 3d
       -0.108987756 -0.009655656 0.04062655 0.05108423
000300 cf 50 8f 3d c4 3f a3 bd fc a5 39 bd c6 d6 cc bd
       0.06997835 -0.07971147 -0.04532431 -0.10001902
000310 3f fb 4e 3c 99 97 1e bd 39 82 a5 3d 1a bb 9a 3c
       0.012633144 -0.038718794 0.080814786 0.018888045
000320 f1 c4 02 bd 33 9d 7e 3d d0 05 15 3c f2 b8 4f bd
       -0.0319261 0.062161636 0.009095624 -0.050713487
000330 53 1e 56 3c 25 df e0 bd 7a 0c d3 3d dc f5 0a bd
       0.013068753 -0.109800614 0.10305114 -0.033925876
000340 99 d3 3f bd 70 a2 90 bd ed 06 67 3d 37 58 8f 3c
       -0.046832655 -0.070622325 0.05640309 0.017498119
000350 00 91 f3 bc 68 27 83 3d 40 ec 50 bd 90 90 73 bd
       -0.029732227 0.064040005 -0.051006556 -0.059464037
000360 bb 21 ad bd 24 81 68 bc a5 d9 b0 bd bb 1c db bc
       -0.08453699 -0.014190946 -0.086352624 -0.026747098
000370 db 07 a0 bd 58 0d ae bc 3d 7c 2e 3d 90 69 d0 bd
       -0.07813998 -0.021246597 0.04259895 -0.101763844
000380 55 b6 92 bc df b6 65 3d 09 28 85 3d 5c e7 b7 bd
       -0.017909208 0.056082603 0.06501777 -0.08979675
000390 fd 14 a4 bd 43 8c 23 bd 84 e9 ba bd 2f 32 90 3d
       -0.08011816 -0.039928686 -0.09126571 0.07040822
0003a0 a9 77 c7 3c f4 f2 eb bd 1e bb db bc 80 7b 18 3d
       0.02434905 -0.11520949 -0.026822623 0.037227154
0003b0 53 d5 93 bd 91 f5 c0 3c 04 9f 7e 3d 63 dd 43 bd
       -0.07218423 0.023554595 0.062163368 -0.047818553
0003c0 b8 7e b4 bc 18 f4 bc bc 56 6d 5d bd f5 b6 44 3b
       -0.02203308 -0.023065612 -0.05405935 0.0030016277
0003d0 b0 b8 bf 3c 14 15 3c bc 73 03 92 3d 8d 3b bb 3a
       0.023403496 -0.011479635 0.07129564 0.0014284715
0003e0 40 d6 b2 bd 23 c3 a1 bd b0 f6 dc 3a 4f 86 56 3d
       -0.08732271 -0.078985475 0.0016858187 0.05237418
0003f0 af 86 02 3d ca 39 98 3d 4f f4 8f 3d 69 8e 88 bd
       0.031866726 0.074328974 0.0702902 -0.066677876

fc2.bias f4 [84]
000000 4f d8 46 3e 5c 09 1f 3e e6 f9 b4 3c 4e a2 0c 3e
       0.19418453 0.15530914 0.022091817 0.1373379
000010 5a b5 5b 3b 7e 77 36 bb f8 e0 b2 bd 93 71 c8 bd
       0.0033524842 -0.002784222 -0.08734316 -0.097872876
000020 c3 2f 81 bd b0 c5 c6 3d a8 e0 eb 3d 94 17 2c bd
       -0.06307938 0.09705675 0.11517459 -0.042014673
000030 9d 49 5b bd 31 79 b0 bd 94 d4 e3 3d de 48 ba bd
       -0.053537 -0.086168654 0.111245304 -0.090959296
000040 1e 81 e8 3d 51 61 4f bd 1f 29 eb 3c a0 13 8f bd
       0.11352752 -0.050629918 0.028706132 -0.06986165
000050 85 4c b5 bc 4a 1a ac 3a 69 90 6e 3b 01 2f cd bd
       -0.022131214 0.0013130393 0.0036401993 -0.10018731
000060 78 d5 ac 3d 5e f3 76 bd aa f3 fc 3c 18 8f 35 bd
       0.084391534 -0.060290687 0.030877907 -0.044325918
000070 aa 0c ce bc c9 fb 79 bd 42 15 6d bd ce ff f0 3d
       -0.025152523 -0.061031137 -0.0578816 0.11767541
000080 5f 32 9c 3d 7f 78 07 bc 28 75 2d 3e b1 02 8d bd
       0.07626795 -0.008268475 0.16939223 -0.06885279
000090 e8 97 d9 bc 0e 29 97 bd 80 52 0f 3c 3f 50 e0 3b
       -0.026561692 -0.073808774 0.008747697 0.0068455036
0000a0 b7 33 b3 3d a2 4e 21 bd 1c 6e 77 3d e4 bc 79 bd
       0.08750098 -0.03938163 0.060407743 -0.060971156
0000b0 ff 99 0e bd 63 01 64 3d cc f7 dd bd 91 e4 8b 3d
       -0.03481483 0.055665385 -0.10838279 0.06830705
0000c0 c1 b8 81 bd ab 55 5b bc 45 6d 85 bd d9 e9 cb bd
       -0.06334067 -0.013387124 -0.06514982 -0.09956712
0000d0 ad d9 82 bd bf 8e dc 3d e6 33 d4 3d 0d 48 90 bd
       -0.063891746 0.10769414 0.10361461 -0.070449926
0000e0 98 27 95 bd 1f 27 f8 3d fc c3 aa bd dd 37 51 bd
       -0.072829425 0.12116837 -0.08338162 -0.051078666
0000f0 ed 82 28 3d 58 79 0f 3e 64 7b c5 3c 6e 44 6b 3d
       0.041140486 0.14011133 0.024106689 0.057438307
000100 35 cd b5 3d 5c 62 6a 3d 8a 1a 23 3e 51 06 5c 3d
       0.08877031 0.05722271 0.15928093 0.05371696
000110 1b fc 3b bc 46 97 c5 3d 7c a2 05 bb 39 49 42 bd
       -0.011473681 0.09647994 -0.0020391038 -0.04743311
000120 97 a6 d6 3d 09 92 15 bd c3 08 5d bc 59 be 9e 3d
       0.10480993 -0.036516223 -0.0134908585 0.0775115
000130 73 6a e0 bc f8 ca c8 bc 02 c2 99 bd e1 82 8f bc
       -0.027394509 -0.024510846 -0.07507707 -0.017518463
000140 20 67 7b bd 14 c2 b1 3d c7 3d fb 3d 49 0c c1 3d
       -0.061377645 0.086795956 0.122676425 0.09426171

fc3.weight f4 [10, 84]
000000 59 03 8c 3e 62 35 9f 3e d5 d3 e2 3d a5 6b 2d be
       0.27346304 0.31095415 0.1107556 -0.16935594
000010 a7 6c 4c 3d 63 c1 0f bc 6d 98 59 3d c5 5d 77 bd
       0.049908306 -0.008774134 0.05312388 -0.06039216
000020 a7 62 ff 3d df d4 ca 3a 8c b7 bd 3c 93 18 cd bd
       0.12469988 0.0015474817 0.023158811 -0.10014453
000030 49 5d af bc 1b eb 3c bd 96 32 28 3e 13 8b 64 3c
       -0.021406787 -0.04612265 0.16425547 0.0139491735
000040 ed b4 3e 3d b1 81 46 3e a1 ac 2c be 48 a3 bd 38
       0.046559263 0.19385411 -0.16862728 9.042636e-05
000050 48 9e c4 bd eb 36 51 bd ee 3b 57 3d 4d 11 7f 3c
       -0.09600502 -0.051077764 0.052547388 0.01556809
000060 56 b0 bd 3d a6 ff c9 3d fa a5 a0 3c 77 fb 98 3d
       0.09262149 0.09863214 0.019610394 0.07469838
000070 9e 7f 3b 3d 5b 94 85 3d c3 88 a1 3d 30 28 f1 bc
       0.045776002 0.06522437 0.07887413 -0.029438108
000080 a3 18 86 3d 2f 23 07 bc e8 1e 25 3e c1 a8 1c 3e
       0.06547668 -0.0082481345 0.16125071 0.1529875
000090 5c 88 38 bc ce 81 20 3d ae 4e 0c be f2 34 58 bd
       -0.011262979 0.03918629 -0.13701889 -0.052784868
0000a0 b1 ba f5 bd b5 0a 52 3d 46 93 41 bc 89 a0 a9 3d
       -0.11998499 0.051279742 -0.011814898 0.08282573
0000b0 54 40 b3 3d 9c d4 5d 3d 71 4e ea bd d1 cc 37 3e
       0.08752504 0.05415784 -0.11440743 0.17949225
0000c0 48 e0 a7 3c f1 ea bc bd a0 96 2b 3d af b5 fc bd
       0.020492688 -0.09224499 0.041891694 -0.12339341
0000d0 ce cb 99 3b 00 f6 4b bd 32 9f 3e 3e 28 e9 d7 bd
       0.004693485 -0.04979515 0.18615416 -0.10542518
0000e0 ae 4f b2 bc 8a 71 ee bd 74 c0 3d bd 16 b4 54 be
       -0.02176651 -0.116427496 -0.046326116 -0.20771822
0000f0 99 9d d3 bd 72 d2 0a 3e 55 48 b9 3d 1a 15 9f bd
       -0.10332794 0.13556841 0.09046999 -0.07767697
000100 c9 d5 1b bd ab 23 6c bd ea 04 d2 3d 42 fc 04 be
       -0.03804568 -0.057651203 0.102548435 -0.12986854
000110 ea 59 8b 3d 32 dc 7f bc fb c3 87 3d bb 64 c4 bd
       0.06804259 -0.0156164635 0.06629177 -0.09589525
000120 b1 51 ae bd c2 01 c5 bd cf 14 27 3e a1 3c 6f 3d
       -0.08511675 -0.09619476 0.16316532 0.05840743
000130 1e bb b2 bd e8 49 94 3d d0 ef 16 be 35 81 20 bd
       -0.08727096 0.07240659 -0.14739919 -0.03918572
000140 77 62 ce 3d 7f df 47 bb 8a 9d 1e 3e 0a 93 73 3c
       0.100773744 -0.0030498204 0.15489784 0.0148666
000150 f0 53 e3 bd 07 76 ad 3d fa 0f 97 bd 88 06 1e be
       -0.11099994 0.084697776 -0.07376094 -0.15432179
000160 85 11 2a 3e ca 3b 08 be b0 9e 7f bd c3 44 0d bc
       0.16608246 -0.13304058 -0.062407196 -0.008622351
000170 a0 13 c6 3d 80 6d 25 3e 66 d4 2f be 1a 9f ce 3c
       0.09671712 0.16155052 -0.17170867 0.02522235
000180 ac 5b 7e bc 56 96 88 3d 75 a3 04 be 60 eb ee bc
       -0.015524786 0.06669299 -0.12952979 -0.02916497
000190 1f 31 80 be cf f8 a3 3c a7 a3 6a 3e 7f 6a 0a 3d
       -0.25037476 0.020016102 0.22913991 0.03379297
0001a0 a4 9f a8 3d 8b 21 33 3e 0e 11 07 be 96 e7 15 bc
       0.08233574 0.17493264 -0.131901 -0.009149453
0001b0 4d b4 55 be 8c 74 21 3d 4a 6f 57 be db 31 74 3d
       -0.2086956 0.03941779 -0.21038547 0.05961786
0001c0 13 f8 c5 bd 85 57 5f bd 82 f4 c8 bd 77 14 aa bc
       -0.09666457 -0.054526825 -0.09812261 -0.020761712
0001d0 00 2b 93 3e 0f 72 56 3e 09 9a 19 be da fe fa 3c
       0.28743744 0.20941947 -0.15000166 0.0306391
0001e0 f2 98 4a bc a1 0a a1 3d 71 95 5d bc fd f1 23 be
       -0.012365567 0.078633554 -0.013524399 -0.1601028
0001f0 1d a1 15 3d be 8c 6d bd ab 00 dd 3d 16 ef 28 bd
       0.036530603 -0.05799555 0.10791143 -0.041243635
000200 2f b8 86 3d da 03 83 3d b6 43 ab 3d 64 a3 48 3d
       0.06578099 0.06397219 0.08362524 0.048983946
000210 76 23 b0 3d 7e 8a 0e bd ea 17 48 bd 34 6c 4e 3d
       0.08600514 -0.034800045 -0.04885093 0.05039616
000220 13 78 50 3e 9e 58 48 3d 8a 3d 44 be 96 10 c3 bc
       0.20358305 0.048912637 -0.191641 -0.02381162
000230 df 4b 3e bd 72 0f bb 3d 21 d6 67 3d fb c8 4a 3d
       -0.046459075 0.09133805 0.056600694 0.049508076
000240 1c 70 92 3c a9 4b e7 3d c0 25 6b 3e c9 1c 9d bd
       0.017875724 0.11293728 0.22963619 -0.07671506
000250 b6 a7 9a 3d a7 62 38 be 4c 39 ab bd f9 3c 4f be
       0.075515196 -0.18006383 -0.08360538 -0.20238103
000260 e9 92 57 3e 5d cb 9e 3e 27 50 ac bd bb fb c0 bd
       0.21052136 0.3101453 -0.08413725 -0.09423014
000270 de a5 32 be 22 c9 dc bb 46 83 a4 bd 57 78 14 3e
       -0.17446086 -0.006737844 -0.08032851 0.14499031
000280 44 93 b9 bd 17 2f 37 3d aa 91 1c bd b7 33 8a 3d
       -0.09061292 0.044722643 -0.038224854 0.06748145
000290 0c 69 c2 bb 59 e7 1c be f0 ca 15 bc 25 62 a9 3d
       -0.0059329327 -0.15322627 -0.009142622 0.08270673
0002a0 f9 3c b0 3d fe b8 47 be 75 f0 98 bd 49 7c 5d be
       0.086053796 -0.19504163 -0.074677385 -0.21629442
0002b0 61 a0 99 3d 2b 2b 14 3d 53 48 17 bd 1b b7 2b bd
       0.07501293 0.03617398 -0.036934208 -0.04192267
0002c0 07 8e 83 3d a6 1a 60 be 43 1b 80 3d 35 d2 81 3c
       0.06423574 -0.21885166 0.062552 0.015847305
0002d0 85 b7 1a 3e b5 b3 14 3d a3 77 ad 3d 58 c0 ac 3d
       0.1510907 0.036304194 0.084700845 0.08435124
0002e0 80 c0 99 3d 2c 6d 72 bd 41 c7 80 bd fd e4 14 bc
       0.075074196 -0.059186146 -0.06288005 -0.009087798
0002f0 7b 45 71 3d 09 6a 8d bd 16 03 90 3e dc 20 1d 3d
       0.058904152 -0.0690499 0.28127354 0.038361415
000300 3d 8c 96 3e f0 44 04 3d 49 10 d6 bd cb b5 dc bd
       0.29403868 0.032292306 -0.10452325 -0.10776862
000310 83 aa d4 bb da d0 1a bd e7 9d 93 bd f0 a5 37 be
       -0.006490053 -0.037796833 -0.07207852 -0.17934394
000320 ca a5 30 be 56 ae d5 3d b7 f0 01 be 9b 0e 40 be
       -0.17250744 0.104336426 -0.12689482 -0.18755572
000330 bd 14 3c 3c c8 8d f4 bc 92 83 9a bd 3f a5 35 3e
       0.011479554 -0.029852763 -0.07544626 0.17738818
000340 16 1f 82 bd 14 b7 fe 3c a2 54 65 3d b0 8d 3b 3d
       -0.063535854 0.031093158 0.055988915 0.04578942
000350 db 8a 5d 3d 2d 16 0b bd 60 37 ee bb a1 53 fd bd
       0.0540875 -0.033956695 -0.007269785 -0.123694666
000360 8a 12 b1 bd 58 60 93 bb 96 49 3e be 5b 73 4b 3e
       -0.08646114 -0.004497569 -0.18582758 0.19868223
000370 c1 c1 b3 bd ea 1f a1 3d 07 84 5f 3e 7f a0 26 bd
       -0.0877719 0.07867415 0.21827708 -0.040680405
000380 80 4b b9 bd d0 ce 27 be 4b 69 c9 bd 39 ed 98 3c
       -0.090476036 -0.16387486 -0.09834536 0.018667804
000390 0f 0d 26 3d 2a 1f eb 3d d3 e8 b9 bd 86 61 79 bd
       0.040539797 0.114805534 -0.09077611 -0.06088402
0003a0 4b e6 47 3d c7 af a7 bd 4f 5f 29 be a5 f5 e0 bd
       0.04880361 -0.08187824 -0.16540264 -0.10984353
0003b0 df a4 91 bd 9a 82 22 be 98 00 11 bc 43 ab 0e bd
       -0.07111525 -0.15870133 -0.008850239 -0.034831297
0003c0 b7 78 71 bd 64 a1 87 3c fd 7d 6b 3e 7a 79 29 bd
       -0.058953013 0.01655645 0.2299728 -0.041375615
0003d0 7b 0b b0 bd 10 fe 74 bd 6d 86 0b 3d b4 62 18 be
       -0.0859594 -0.059812605 0.034063745 -0.14881402
0003e0 c8 f6 99 3d 3b 77 d4 bd 75 88 5e 3e 35 ae cf 3d
       0.07517773 -0.10374304 0.21731742 0.10140649
0003f0 59 63 3c bd a6 76 6e 3e cb ad 27 bd ef ef c6 bd
       -0.045993183 0.23287448 -0.040937226 -0.097137325

fc3.bias f4 [10]
000000 4c c8 21 3e e4 da 7f 3c 16 f1 02 3d d6 f6 75 3d
       0.15799063 0.015616152 0.0319682 0.060049854
000010 e3 74 6f be 87 ea 8a 3e 92 de 54 3e 38 66 33 3d
       -0.23384432 0.27132055 0.20788029 0.043798655
000020 70 6a 7b 3c 26 27 2b be
       0.015345201 -0.16714153
