PythonCodes/Models/ModelsForTesting/BasicModelTest.pt (torch, 182235 bytes, 10 tensors)

conv1.weight f4 [6, 3, 5, 5]
000000 b9 86 87 bd 7c bb bd 3e 6d 53 48 3e b6 a5 6c 3e
       -0.06617493 0.37057102 0.19563074 0.23110089
000010 40 9d e5 bd 8f 7d 4f 3d 94 25 0f 3f 7d 6d 57 3d
       -0.11211634 0.05065685 0.55916715 0.05259465
000020 63 a6 db 3e bd 53 f6 be 6f b8 5b 3d 70 26 d2 bc
       0.4290038 -0.48110762 0.053642686 -0.025653094
000030 5b d5 b6 3c 38 40 f7 bd 5a a6 08 bf 86 ba d8 3c
       0.022318533 -0.12072796 -0.5337883 0.026456129
000040 b9 da 3c be 56 62 83 3e e0 0e 85 3e 23 2c 2a 3d
       -0.18442811 0.25660962 0.2598791 0.041546
000050 27 5f 09 3e e9 a4 33 bd dd bb a9 3d 9d c8 42 3e
       0.13415204 -0.043858442 0.08287785 0.1902184
000060 f3 b0 b4 3d 1e 5f 17 be a5 0a 85 3e 3e 93 8f 3e
       0.08822813 -0.14782378 0.25984684 0.28042024
000070 79 03 5d 3e b0 e8 70 be 19 9e 58 3d 88 23 d1 3e
       0.21583356 -0.23526263 0.05288515 0.4084742
000080 ce 89 33 3e 26 eb a9 3e b1 80 17 bf 76 d3 1e 3e
       0.17533037 0.33187217 -0.5918074 0.15510353
000090 c4 93 87 3c 8e 65 8e bc fe 32 c3 bd 8e 0c fb be
       0.016549952 -0.01738241 -0.0953121 -0.49033016
0000a0 b7 f2 24 bd d1 78 a8 bc 00 73 80 3e ac 0b 5c 3e
       -0.040270533 -0.020565422 0.25087738 0.21488827
0000b0 80 0a 40 3d ac b6 6c bd bb ae e6 bc c5 29 44 3e
       0.046885014 -0.057791397 -0.02815949 0.19156559
0000c0 8a 27 ab 3d 83 10 e4 3c a4 83 5f be 55 db bf 3e
       0.08357151 0.027839905 -0.2182756 0.37472025
0000d0 f4 6c 2f 3e fb 75 69 3e e1 d0 68 be 8d d4 e3 3d
       0.17131406 0.22798912 -0.22735931 0.11124525
0000e0 1a 5f 12 3f e8 2c 86 3e 64 2e b1 3e cf 7c 29 bf
       0.57176363 0.26206136 0.34605706 -0.6620607
0000f0 d2 8b 2d 3d ab 47 9a 3d 56 42 95 3d a1 64 43 be
       0.04236967 0.07533201 0.07288043 -0.19081356
000100 0c 62 fb be a6 a2 07 3d 08 14 cc bc 98 3f 09 3e
       -0.4909824 0.033114098 -0.024911895 0.13403165
000110 87 ac 80 3e b6 95 af bd 28 82 81 3d be 7e 67 be
       0.25131628 -0.08573477 0.063236535 -0.22606942
000120 fd ac 7b 3e 29 0f 84 3e 59 3c fd 3b 16 c8 13 3e
       0.24577709 0.25792816 0.0077281413 0.14431795
000130 4b 93 45 be 34 7f 8e 3e 8d 2e 8a bd 6f d2 92 3d
       -0.19294469 0.27831423 -0.0674716 0.07169043
000140 11 0f a0 3d 44 8a 21 bf ac 81 3c 3f 8d b1 4b 3e
       0.07815374 -0.631016 0.73635364 0.19891949
000150 a5 89 2e 3d 8b d6 06 bf 57 69 5e bf dd b3 75 3f
       0.042611737 -0.52671117 -0.86879486 0.95977575
000160 52 82 04 3e d7 81 7b 3e a5 72 9a be 10 c0 64 bf
       0.12940338 0.24561249 -0.30165592 -0.89355564
000170 03 68 ad 3f 20 5d a4 be 0c 52 8c be cf 20 87 be
       1.3547367 -0.321023 -0.27406347 -0.26392218
000180 e0 f4 f9 be 0a 74 1c 3f ff 4b 2a bd 05 9b 69 be
       -0.48819637 0.6111456 -0.04157638 -0.22813042
000190 ed 19 e2 3d 14 dc 04 be 9a 5e 84 3e 11 5b 3f bd
       0.11040101 -0.12974578 0.25853425 -0.046717707
0001a0 a6 7d 98 3d a0 c3 ce 3b dc 38 11 bf 7f 88 0e 3f
       0.074458405 0.0063099414 -0.56727386 0.55677027
0001b0 8a f3 74 3e 71 bf 15 3d c3 29 09 bf d6 26 5a bf
       0.23921028 0.036559526 -0.5357935 -0.8521551
0001c0 62 c5 6a 3f de 9e 3a 3e 5d ff 9d 3e e2 02 2f be
       0.9170743 0.18224666 0.3085889 -0.17090943
0001d0 35 73 82 bf 17 86 a7 3f 0d 56 11 be 80 ab 87 be
       -1.0191408 1.3087796 -0.14192982 -0.26498032
0001e0 a9 46 7b be e2 79 f0 be f6 5b 4e 3f ff 97 9e 3d
       -0.24538673 -0.4696799 0.8060907 0.07743835
0001f0 f1 6d 19 be cc 26 c5 3d 68 b4 12 be ee 1a 14 3e
       -0.14983346 0.096265405 -0.14326632 0.14463398
000200 1e 3f 73 bd b3 3b 03 bd 28 d4 13 3e 25 88 0c bf
       -0.059386365 -0.032039355 0.144364 -0.5489524
000210 81 4e 3a 3f b8 e3 a9 3e 9f 21 b3 3d 1e 96 f0 be
       0.7277604 0.33181548 0.08746647 -0.4698953
000220 92 dc 36 bf 75 ea 4d 3f 2f f0 c9 3d 07 7d fa 3d
       -0.71430314 0.8043588 0.098602645 0.12230878
000230 c5 bc 5f be 92 bb 7c bf f2 6c a5 3f b8 c1 97 be
       -0.21849354 -0.9872371 1.2923872 -0.29639983
000240 85 77 0e be 92 0c 85 be a9 d6 cb be 31 e7 50 3f
       -0.1391278 -0.25986153 -0.3981221 0.8160277
000250 ad 72 2d 3e 9d 19 22 be 1d 1e c2 3e 7e 2b 8b be
       0.16938277 -0.15830083 0.379136 -0.2718162
000260 85 ef 2c be 55 9e 72 be 72 c6 42 be bf 0e 0d 3f
       -0.16888244 -0.23693211 -0.19021013 0.55100626
000270 42 a3 8c 3e 83 5b f1 be 60 50 c2 be e3 a3 bf be
       0.27468306 -0.4714013 -0.37951946 -0.37429723
000280 18 b7 ae 3e 98 d5 46 3f e1 95 a8 be 41 f9 ac be
       0.34124064 0.7766967 -0.3292685 -0.33783916
000290 57 21 dc bc 7e fc 49 3e 74 3e 5a 3f 32 d5 15 3e
       -0.026871366 0.19725224 0.85251546 0.14632109
0002a0 82 ea 13 bf b8 df 24 bf c4 ce 50 be 20 50 98 3e
       -0.57779706 -0.6440387 -0.20391375 0.2974863
0002b0 71 b8 a1 3e 62 6b d5 bd 65 61 d4 be cb f2 0b 3f
       0.3158603 -0.10420872 -0.41480556 0.5466735
0002c0 db 2e 75 be 4a eb 90 be 06 5b a5 be e7 72 4f be
       -0.23943655 -0.2830451 -0.32296008 -0.20258676
0002d0 b3 11 11 3f fb db 2c 3e 8c 32 aa be 3d 01 e0 be
       0.5666763 0.16880791 -0.3324169 -0.43750945
0002e0 70 56 82 be d9 ca a9 3e d8 8b 47 3f 6b 27 c5 be
       -0.25456572 0.33162573 0.7794776 -0.38506636
0002f0 50 33 a1 be b0 03 8b 3d 39 aa 92 3e b9 bf 4c 3f
       -0.3148446 0.06787813 0.28645495 0.79980046
000300 f9 d4 35 3d 9e 3e 05 bf c0 4d 24 bf 77 54 08 be
       0.04439256 -0.5204867 -0.6418114 -0.13313471
000310 d3 1d dc 3e 50 42 84 3e d1 48 49 be 0d dc 8a be
       0.42991504 0.25831842 -0.19656684 -0.2712101
000320 a2 74 00 3f 0c ba 4c be 8d d9 34 be 06 45 86 be
       0.5017797 -0.19992846 -0.17661114 -0.26224536
000330 b4 7b 80 bd 55 3c 05 3f e3 c0 80 3e 5a 8b 94 be
       -0.062735945 0.52045184 0.2514716 -0.29012567
000340 83 17 a5 be 4e c7 4d be b0 45 d4 3e d8 76 2e 3f
       -0.322445 -0.2009556 0.41459417 0.6815009
000350 cd a6 83 be 84 c9 34 be ce 4c 08 be 8b f8 77 3e
       -0.25713196 -0.17654997 -0.13310549 0.24215905
000360 e3 22 39 3f fb 2b e8 3d 04 1a 18 bf 1e f3 27 bf
       0.7231886 0.113365136 -0.59414697 -0.6560534
000370 0f 81 00 be 59 4d c8 3e f9 b6 55 3e 0a bc 07 be
       -0.12549232 0.39121512 0.2087058 -0.13255325
000380 73 7b b0 be a9 be 7f bf a5 7c 64 bf f6 77 0a be
       -0.34469184 -0.999003 -0.8925269 -0.13522324
000390 08 0f 49 3e 15 af 38 3e ed c4 0a bf 48 6e 53 bf
       0.1963464 0.18035538 -0.54206735 -0.8259015
0003a0 f0 7e ee 3e 7c 74 19 3e 18 af 82 bd e2 80 1f 3f
       0.4658122 0.14985842 -0.06381053 0.62306035
0003b0 59 fc a8 3e ae bc d2 3d b8 cf 8a bd 36 19 8e be
       0.33005026 0.10289894 -0.067779005 -0.2775361
0003c0 22 24 cc bd ae 41 4f bc f6 be d2 3e d6 65 c5 3e
       -0.09967829 -0.012649937 0.41161317 0.38554257
0003d0 ac 74 86 be b5 d9 61 3d 54 79 c9 3d e8 63 5c 3d
       -0.2626089 0.055139262 0.09837595 0.053806216
0003e0 f7 7c e5 3e 83 d9 b0 3e 88 2a 83 bf be 98 78 bf
       0.44821903 0.34540948 -1.0247355 -0.97108066
0003f0 ac ea a7 be 77 b1 07 3e 39 7b 10 3e b4 a7 e4 be
       -0.32796228 0.13251291 0.14109506 -0.44659197

conv1.bias f4 [6]
000000 78 b5 7f be 55 fb f0 bd 4c 8d 4d 3f 42 a5 5e 3e
       -0.24971569 -0.11766688 0.80293727 0.21742728
000010 4a 16 b3 3d 01 8d 21 3e
       0.08744486 0.15776445

conv2.weight f4 [16, 6, 5, 5]
000000 18 6f 17 be 7f 73 87 3d e1 d7 5d 3d bb 4f f9 3d
       -0.14788473 0.06613826 0.054160956 0.121734105
000010 65 c7 de bd 24 c7 40 bf ac b9 aa 3d 22 1e 87 be
       -0.10877875 -0.75303864 0.08336195 -0.26390177
000020 eb ab df 3d 93 b1 96 be 2e 2f dd be 00 1c b8 be
       0.109214626 -0.29432353 -0.43200058 -0.35958862
000030 fd 65 01 bf d6 17 4a be 4e 21 4f bd da de 25 bf
       -0.50546247 -0.19735655 -0.05056887 -0.6479317
000040 2e a8 55 be 64 cd d6 be c1 0f b8 be 3e 7a ad be
       -0.20864937 -0.41953576 -0.3594952 -0.33882326
000050 4c 89 4b bf 04 7c 84 be c5 bb ee be 0e bc d4 bc
       -0.79506373 -0.25875866 -0.46627632 -0.025968578
000060 1b 8b c5 be 2b 26 2a 3e 44 9e ac 3e 65 d0 99 bc
       -0.38582692 0.16616122 0.33714497 -0.018776128
000070 6a 8c 51 be d8 c5 21 bb 21 6c df 3b 7a 0d 34 be
       -0.2046372 -0.0024684574 0.00681831 -0.17583266
000080 e2 d3 13 3d 02 dd 41 3e 46 cc c2 3e 0e 65 c6 bd
       0.03609074 0.18931964 0.38046473 -0.096872434
000090 13 1c 62 be 2e 75 6d 3e f5 91 83 3e bc 27 3d bc
       -0.22081022 0.23189232 0.25697294 -0.011545118
0000a0 a0 6a e0 be e9 2c 1d 3e 8f 08 ea 3d 81 af 0d 3e
       -0.43831348 0.15349163 0.11427414 0.1383648
0000b0 e4 fe 13 3e c6 02 16 bf ac f8 02 bc dc ea 76 be
       0.14452702 -0.5859798 -0.007993858 -0.24113029
0000c0 60 b0 10 3e 49 0d c1 3d b6 44 a9 be f5 ba 4e 3c
       0.14129782 0.09426362 -0.33060235 0.012617816
0000d0 6f bc 63 3d e3 0f 00 3f 86 88 34 3e 98 a6 0e 3e
       0.055599626 0.5002424 0.17630205 0.13930738
0000e0 ed 28 81 3d f0 bb 9e 3e 3b 2f 99 3d 3c a1 bc 3e
       0.06306634 0.3100276 0.074797116 0.36841762
0000f0 d7 1c 92 3c 60 7d c3 3e d1 18 bf 3c ee 87 cf be
       0.017836018 0.3818159 0.023327263 -0.40533394
000100 62 8a 02 3e 05 f7 8d 3e 09 10 8f 3e b6 ea f1 3d
       0.12748101 0.27727523 0.2794192 0.11812346
000110 9b cc 04 bf ee 8d 7a be 45 6a 39 3e 91 4f 77 3e
       -0.51874703 -0.24468204 0.18106945 0.24151446
000120 3d c1 c5 3d 9c ac 18 bd d8 93 67 be 7c 16 5d 3d
       0.09655998 -0.037273988 -0.22614992 0.05397652
000130 cb 65 ca be 22 6e 0f bd ea aa 1a 3e cf b3 9b bd
       -0.39530787 -0.03501714 0.15104261 -0.07602655
000140 f8 f3 85 3e 39 85 be 3e ae d4 25 be b2 75 08 3e
       0.26162696 0.37211016 -0.16194412 0.13326147
000150 58 dd 79 3d 34 19 47 3e 22 77 a7 be 0f b8 b0 be
       0.061002105 0.19443208 -0.3270808 -0.34515426
000160 f4 ad 10 3e 2c 98 ad be f7 c2 2b be d0 ac c2 3e
       0.14128858 -0.3390516 -0.16773592 0.3802247
000170 72 12 03 3f ae e2 76 bc 7c 6a 88 bd b3 3d c6 be
       0.5120002 -0.015068693 -0.06660935 -0.38718948
000180 1d 4a 8a 3e 1f 93 8b 3e de f6 41 3c b4 9a 2e 3e
       0.2700967 0.27260682 0.011838643 0.17051202
000190 04 32 89 3e 84 e6 9b be d6 1e ca be 53 72 31 3d
       0.2679597 -0.30449307 -0.3947665 0.04332192
0001a0 6f e3 4a 3d ee 3f 2e 3e 99 19 c9 3e 9b 5d 4d bd
       0.049533304 0.17016575 0.39277342 -0.050138097
0001b0 27 44 f7 3e a1 54 a9 3e 68 13 00 be 6f e9 dd 3e
       0.48294184 0.3307238 -0.12507403 0.43342158
0001c0 a2 73 59 bd ff c2 10 3e a3 7d 47 be fa 79 fe be
       -0.05308879 0.14136885 -0.1948152 -0.49702436
0001d0 5f cc 0a 3f e5 71 eb 3d 88 ba 95 bd 19 4e f1 3d
       0.54218096 0.11496333 -0.07310969 0.11782474
0001e0 b6 7f 8d be 67 2e 1c 3f ad 42 c1 3d 97 97 24 be
       -0.27636498 0.61008304 0.094365455 -0.16073452
0001f0 0f d7 a6 bd e1 c2 93 3d 01 f1 13 be 03 18 eb 3e
       -0.08146488 0.072149046 -0.14447404 0.45916757
000200 5f c0 9c 3e 0d c7 3a be 46 63 2e be b8 4b 8e 3e
       0.30615517 -0.18239994 -0.17030057 0.27792144
000210 dc 89 c0 3e 37 ff c0 3d bc 21 5c be 30 03 6b 3d
       0.37605178 0.09423678 -0.21497244 0.057376087
000220 c2 6a ae 3e c3 8f 06 3e c5 0c 64 3e 6d 83 20 3e
       0.34065825 0.13140778 0.22270496 0.15675135
000230 e2 b0 77 be 15 9b 48 3e 85 11 32 3e 8c dc 4c bd
       -0.24188569 0.19590409 0.17389496 -0.050015017
000240 25 b0 1d bf b5 d0 ca be 9f 2d ae 3d b9 6e 4e 3e
       -0.615969 -0.39612356 0.08504795 0.20159425
000250 b0 a8 90 3e 5a b8 91 bd 26 96 98 bd 12 c1 88 3c
       0.28253698 -0.071152404 -0.074505135 0.016693626
000260 ea b6 c4 bd 37 79 2b be 5e 28 70 3b c3 85 85 bd
       -0.096052006 -0.16745459 0.0036645154 -0.06519654
000270 df 4d 68 bd 25 c6 a1 3c 4d d0 48 bc 1e dc aa ba
       -0.05671489 0.019747803 -0.012256694 -0.0013035571
000280 40 2d bb bd 4d 30 06 bc 4d 70 c2 bd cd 23 e8 bd
       -0.0913949 -0.008190227 -0.09494076 -0.113349535
000290 90 23 4e bd b7 13 65 bd 9b f1 78 bd 6c eb b5 bd
       -0.050326884 -0.055927005 -0.060777288 -0.08882794
0002a0 bc 8d f0 bc e5 51 7f bd 7b 60 8c 3d 88 b5 e4 3c
       -0.02936446 -0.06233396 0.0685434 0.027918592
0002b0 e9 4b 36 3d 49 0f 87 bd 6a cf a8 bd e0 9c d6 3c
       0.044505987 -0.06594712 -0.08242686 0.02619785
0002c0 4f cf 6a bd 3c 4e 71 3e 4d bf b7 3d 47 c6 85 bd
       -0.05732661 0.23565 0.089720346 -0.06531959
0002d0 87 2a 92 bd f5 e3 42 bd 00 e6 90 3e 02 39 28 bd
       -0.07137018 -0.047580678 0.28300476 -0.041069992
0002e0 81 e1 81 bd 26 ea ec bc eb 30 6d bd 10 13 87 3e
       -0.063418396 -0.028920244 -0.05790798 0.2638173
0002f0 9f d0 3b be ba 70 ce bc 91 4c 9d bd b9 97 b8 bd
       -0.18341301 -0.025200237 -0.076806195 -0.09013314
000300 03 4f 57 3e 7e 37 8e bd 6a 51 0c 3e 82 5c fd bb
       0.21026234 -0.06944178 0.13702932 -0.007731975
000310 8a 1d 51 be 35 c9 8a 3e 67 f4 53 be 57 ed e1 3d
       -0.20421425 0.27106634 -0.20698701 0.11031597
000320 56 1a 59 3a 11 7a fa 3c 7d 50 59 3d 69 a7 51 bd
       0.00082818174 0.030575784 0.053055275 -0.051185045
000330 5d c2 1b be ef 04 9d bd db 2f 45 3d 8e 27 83 bd
       -0.15210862 -0.07666957 0.04814134 -0.06404029
000340 26 3b 1e be b4 47 02 be b2 67 e9 3c d3 75 54 3d
       -0.15452251 -0.12722665 0.028491829 0.05187018
000350 e5 e3 9b bd e3 4f 52 bd 09 72 ff bd cf 8a 80 bb
       -0.07611827 -0.051345717 -0.12472922 -0.0039227973
000360 3e 0a 23 3c 60 3a 57 bd c0 e5 e1 bc 6b b8 20 bd
       0.009951172 -0.052545905 -0.027575374 -0.039238375
000370 27 be 1d 3c 92 a8 5a bd 44 90 00 bd f5 1f cb 3c
       0.009627855 -0.053383417 -0.031387582 0.024795512
000380 4b 61 bc 3b f3 bf b0 bd 37 72 32 bc 19 62 95 3d
       0.005748903 -0.086303614 -0.010891489 0.07294101
000390 63 85 9d bd 65 e1 02 bd bf 31 24 bc fe eb 85 bd
       -0.07691457 -0.031953234 -0.010021626 -0.065391526
0003a0 5c f5 9c 3d 06 dc b4 3d 80 eb 05 3d 96 44 cc bb
       0.07663986 0.08831029 0.032695293 -0.006233762
0003b0 62 25 32 be 71 cd 71 3d d0 e8 46 bd 1e 0f 8c bd
       -0.17397073 0.059033815 -0.04856187 -0.06838821
0003c0 92 25 57 bd 52 be 3b be ae 28 5a 3d e5 10 12 be
       -0.052526064 -0.1833432 0.05326145 -0.14264257
0003d0 f9 0f 52 ba ef bf 31 3d 1a ce f6 bd 8c f7 04 bd
       -0.00080132444 0.043395933 -0.120510295 -0.03246264
0003e0 b6 e1 f4 bd 96 ba 91 bd 7b 41 7a bd 14 6a 5b be
       -0.119571134 -0.071156666 -0.061097603 -0.21427184
0003f0 d6 59 92 3c ec e2 ea 3d 21 ce 07 bc d2 20 f0 bd
       0.017865103 0.11469063 -0.008288891 -0.1172501

conv2.bias f4 [16]
000000 62 38 62 3e 9e 3c e3 bd 05 68 91 be 28 64 ff 3d
       0.22091821 -0.11095546 -0.28399673 0.12470275
000010 4f a8 a2 be ef 28 0c ba 05 46 bb bd 4c 4a 2d bd
       -0.31769034 -0.0005346676 -0.091442145 -0.042307183
000020 7e 5d 8f 3e 59 71 dd bd 0e f7 7b 3e b5 81 92 bc
       0.28001016 -0.10812635 0.24605963 -0.017884115
000030 a0 31 f8 3e ba 3e 1e 3e 84 2c 29 3f c9 d1 dc be
       0.4847536 0.15453616 0.6608355 -0.43128803

fc1.weight f4 [120, 256]
000000 75 b3 2c be ec e5 b8 3d e2 c7 db bd c9 dc cf 3c
       -0.16865332 0.09028229 -0.10731484 0.025373833
000010 06 03 db 3d e0 37 ac 3d 04 ea 42 bd bc 48 70 bd
       0.10693936 0.08409095 -0.047586456 -0.058663115
000020 58 9e 86 3d 29 b0 66 be 7f ef b1 bd e4 7a 55 bd
       0.065731704 -0.22528137 -0.086882584 -0.05211915
000030 ac f3 89 be 60 fc 52 3e 6a ec 08 bd c9 c5 da bb
       -0.2694372 0.20604086 -0.033428587 -0.00667641
000040 7c d6 56 bd 89 1a da 3c 4c 8f d5 3c f3 06 55 bd
       -0.052450642 0.026623981 0.026069306 -0.05200858
000050 7f 6d a4 3d d1 d4 1e bd 5d 05 6d 3c 04 c7 51 bd
       0.08028697 -0.038777176 0.014466611 -0.051215187
000060 da a6 4b bd 85 c4 69 3d 54 d4 41 3d 2a d3 eb bc
       -0.04971967 0.05707218 0.047321633 -0.028787214
000070 ab 24 21 3e 5a 60 0d bd a8 93 39 bd 6f e7 46 3c
       0.15736644 -0.034515716 -0.04530683 0.012140139
000080 aa df d3 bd 8b 50 ea bb 05 72 33 be c8 66 7c 3c
       -0.10345395 -0.0071507148 -0.17523964 0.015405364
000090 7c 3c b7 3d 0f 2f b4 bc 52 13 f5 be ad 7b f9 bd
       0.08947083 -0.021995096 -0.47866303 -0.121817924
0000a0 0f c3 25 be 18 d5 53 3e 04 cc 27 bf 0c b0 5d be
       -0.1618769 0.20686758 -0.6554568 -0.21649188
0000b0 ce 81 d2 bc 93 f4 8f bd 18 80 a2 3e 91 1a a6 3d
       -0.025696661 -0.07029071 0.31738353 0.08110536
0000c0 c9 c7 65 be 29 ab 29 3d 45 68 27 bd 1f b0 17 bd
       -0.22439493 0.041422997 -0.040870924 -0.037033197
0000d0 8e e6 6f bd 95 a4 4f bd 36 ca 75 bb 36 37 ec bc
       -0.058569483 -0.050694067 -0.003750456 -0.02883492
0000e0 e2 ed b6 3e 49 bc f9 bd 88 c4 b8 bc 84 00 94 bd
       0.35728365 -0.12194116 -0.02255465 -0.07226661
0000f0 7e cc 02 3e eb bd b7 3c 95 f9 ff 3b e7 c1 0b bd
       0.1277332 0.022429427 0.007811735 -0.034120467
000100 0a ca 19 be 74 97 06 bd cb a5 0b 3e 7c 01 85 3d
       -0.15018478 -0.03285928 0.13637464 0.06494424
000110 5a 1a 99 bd 86 a9 8f be d6 d7 84 be 25 ae bd be
       -0.07475729 -0.28059024 -0.2594592 -0.37046924
000120 33 97 17 3d b7 f4 08 be 94 81 9b 3d 31 04 b0 bd
       0.03700943 -0.13374601 0.075930744 -0.085945494
000130 3e 40 7d 3e ba 85 8d bc 74 4b 45 bd d8 d8 7e 3e
       0.24731538 -0.01727568 -0.04816766 0.24887407
000140 64 5f 61 be 3f 46 27 be 69 d3 02 be 07 b9 2e 3d
       -0.22009045 -0.1633539 -0.12775959 0.042656925
000150 0f d6 d6 3c 1f 05 c1 bd 3b a4 89 bc 32 2b 86 be
       0.026225118 -0.09424805 -0.016801944 -0.2620483
000160 67 95 dc 3d 58 64 09 3e f7 b5 52 3d 87 ca 74 3e
       0.10770684 0.13417184 0.051443066 0.23905383
000170 da 1a 21 bd 31 88 eb 3e fe c5 e8 3d 76 8a ae bd
       -0.03933225 0.46002343 0.11365889 -0.08522503
000180 4f 36 47 bd 80 93 12 be a1 b9 d0 bd 7f 7f 0b bd
       -0.048635777 -0.1431408 -0.10191656 -0.034057137
000190 85 d1 e6 bc 11 61 c6 bc da b7 82 be 67 e2 65 3d
       -0.028176079 -0.024216207 -0.25530893 0.056124117
0001a0 e0 c4 d8 3d 96 c7 bc bd 6e 72 c3 3d f7 6e bc 3d
       0.10584426 -0.092177555 0.0954331 0.09200852
0001b0 91 3c 17 3e c3 a5 91 bd e6 93 6f be ee 9b 72 3d
       0.14769198 -0.07111695 -0.23396263 0.059230737
0001c0 ed 2d 67 be 2c 57 4e 3c bb 54 a8 3e 7a b9 7d 3e
       -0.22576113 0.012594026 0.32877144 0.24777785
0001d0 0b 3f 6f 3d 30 38 4f bd 55 32 0c 3e d3 56 4b 3c
       0.05840973 -0.050590694 0.13691075 0.012410837
0001e0 de 43 b3 3d b7 14 a7 bd dd 93 81 bd 67 52 d9 bd
       0.08753179 -0.08158248 -0.06327031 -0.1061142
0001f0 a4 d1 79 bd 6b 49 77 bd 2f c7 40 be 77 ea 5c bd
       -0.060990945 -0.06037275 -0.18825983 -0.05393454
000200 fd 35 bd 3d 7f db db 3e 47 f0 b5 3e 72 e0 ef bd
       0.09238813 0.429409 0.3553488 -0.117127314
000210 60 d1 cb be c7 14 45 3e c6 24 20 3e 1b 0d ae bd
       -0.39808178 0.19246207 0.15639028 -0.084985934
000220 36 ba 22 be 2e 13 5d bd 85 82 b1 bd fe 1c 92 3d
       -0.15891346 -0.05397337 -0.08667473 0.07134436
000230 fc 10 80 3d ac b8 d5 be 84 90 a8 be 5e d1 d1 3d
       0.062532395 -0.41742456 -0.32922757 0.10245012
000240 4c 37 2f be 74 9c 9c bd 69 c6 ef 3d 7a 12 6f be
       -0.17110938 -0.076470286 0.117077656 -0.23346892
000250 ed 8f 7b bd a6 39 a9 be 29 36 83 3d 42 fb 69 be
       -0.061416555 -0.33051795 0.064068146 -0.22849753
000260 e5 7e 19 bd 32 a0 88 bd 95 6b 11 be 06 91 1b 3e
       -0.03747453 -0.0667118 -0.14201196 0.15192041
000270 fe 55 71 3e 2b 74 d6 3c 6c 1b 67 be b4 55 27 3e
       0.2356796 0.02617844 -0.22569054 0.16341287
000280 27 40 42 3e 81 b3 aa be c2 4d 19 bc 0e d5 a6 bd
       0.18969785 -0.33340076 -0.009356918 -0.08146106
000290 1a 31 dd bd 67 61 f0 bd c6 1d 51 be b5 c3 1f 3d
       -0.10800381 -0.11737328 -0.20421514 0.039005
0002a0 ee 47 60 3e 2e 01 80 3e 9c 1a c1 bc 8c d5 fa bd
       0.21902439 0.250009 -0.023572259 -0.12247762
0002b0 d1 1d 91 bd d0 0f b5 bd 31 62 55 bd fa 9b 22 bd
       -0.07085765 -0.088409066 -0.052095596 -0.039699532
0002c0 16 24 49 be 0a df 0b 3e 44 6d 93 3c 43 6d 6c bc
       -0.19642672 0.13659301 0.017996438 -0.014430347
0002d0 b8 df 1a be 80 63 0a 3e 9a 25 1d 3d d4 dd b7 bd
       -0.15124404 0.13514519 0.038365938 -0.08977857
0002e0 b8 c3 2e bc 8e a1 f1 3d fa d6 61 be f1 b0 6a b9
       -0.01066678 0.11798392 -0.22054663 -0.00022381895
0002f0 68 9d 75 3e 45 b6 a6 3e 72 fb 43 3d a6 fe 81 be
       0.23985827 0.32560936 0.04784722 -0.25389594
000300 f6 0a 54 bd b0 ac 33 3e ae 5c fd 3d bd 82 4d be
       -0.051768266 0.17546344 0.12371193 -0.20069404
000310 f3 6e 47 bd 98 02 86 3d 3a 22 eb bb ea 6e ef bd
       -0.048689794 0.065434635 -0.007175711 -0.11691077
000320 c6 9d ef bc d0 f8 e2 bd 6e 7a cb 3c 7a 93 bb 3d
       -0.029250037 -0.110826135 0.024838652 0.09158988
000330 44 32 a1 3d 03 b7 1b bd b8 d9 0c 3e 8b f7 ce bd
       0.078709155 -0.03801633 0.13754928 -0.10105809
000340 c5 da 70 3e d5 69 a5 3d c5 fa 7f 3d 5d 56 a2 bd
       0.23520954 0.080768265 0.06249501 -0.07926629
000350 e7 16 31 bc 1f 58 fe bb 38 7e 58 be 09 bc 27 3e
       -0.010808683 -0.0077619697 -0.21141899 0.16380323
000360 d0 41 7e 3e f4 43 c9 3c a5 22 1f 3d e4 72 95 be
       0.24829793 0.024568535 0.0388514 -0.29189217
000370 68 bf 9b bd 3d 5c dc 3e fa 84 7d bd 70 87 96 be
       -0.07604867 0.43039122 -0.061894394 -0.29400206
000380 c7 27 6b 3e ad 79 0f 3d 6b 5d 88 3e a8 fb 19 3d
       0.22964393 0.03502815 0.26633772 0.037593514
000390 ab 85 00 bf 6a 80 18 be c8 ce 36 bd ee a4 83 3e
       -0.5020396 -0.14892736 -0.044630796 0.2571177
0003a0 7e b3 21 be 17 e8 b8 3d ff 01 33 be 03 22 b7 3d
       -0.15791127 0.090286426 -0.1748123 0.08942034
0003b0 03 4e 54 bd 31 74 7d 3e 73 44 a3 bd ef 23 ad 3e
       -0.05183221 0.24751355 -0.0797204 0.33816478
0003c0 cc 6e 7f bd bb f8 99 bc f9 58 a1 be 9c 10 72 bc
       -0.062361524 -0.018795362 -0.31513193 -0.014774468
0003d0 89 c3 8e 3d 7b b6 81 3e 7d 26 aa be f6 74 65 3d
       0.06970889 0.25334534 -0.3323249 0.056019746
0003e0 b0 db 33 3e f4 d4 35 bd 0c a6 26 be 56 36 b2 bd
       0.17564273 -0.04439254 -0.1627428 -0.0870177
0003f0 e9 16 77 3b 28 ab 74 3d e6 c0 97 be df 20 a1 be
       0.0037702865 0.05973354 -0.29639357 -0.3147039

fc1.bias f4 [120]
000000 ab 78 88 3e 99 19 fe bc 29 34 0e be 6e e5 32 3e
       0.26654562 -0.031018065 -0.13887085 0.17470333
000010 f2 39 c7 bd b6 a0 f6 bd 87 df 9a bd 7b 36 40 bc
       -0.09727849 -0.12042372 -0.07562166 -0.011731739
000020 42 24 10 bd 49 2b 7f bd ae 9f 0e 3e 2f 21 a4 3b
       -0.03519083 -0.06229714 0.139281 0.0050088386
000030 fb 02 63 3a 23 4e a6 3d bb 04 03 3d 68 3f 48 3d
       0.0008659807 0.08120372 0.031986933 0.048888594
000040 a7 f0 1d 3e 21 ef 90 3d 90 b4 53 bc f6 9b 9b bd
       0.15423833 0.0707686 -0.012921467 -0.075981066
000050 03 01 42 bd 37 d7 d1 3c a4 c0 f3 3d 32 f5 40 be
       -0.047364246 0.025615318 0.11901978 -0.18843535
000060 05 44 64 bd f6 73 37 3e 4a 22 1c bc ad ed c2 3c
       -0.05572893 0.1791533 -0.0095296595 0.023794973
000070 4b 45 b4 3c 9e 42 2d be dd e4 a3 bc 69 71 e3 bc
       0.022005698 -0.16919944 -0.020006591 -0.02776404
000080 23 1f 97 bd 01 9b 1e bc a9 55 48 bc 2b c6 19 3d
       -0.07378986 -0.0096805105 -0.012227454 0.037542503
000090 3b 28 21 be e7 aa 8d bc 8d 64 f6 bd 22 f5 0a 3e
       -0.15738003 -0.017293407 -0.12030897 0.13570073
0000a0 77 ab 1f 3e 59 b5 d5 bd 5d 91 a9 3d db 7f e0 3d
       0.15592752 -0.1043498 0.08279679 0.109618865
0000b0 51 cb 1c 3e 1e a6 88 bd 22 56 b6 bd 59 3c 1f 3e
       0.15311934 -0.06672309 -0.08903147 0.15550365
0000c0 56 5c 6d bc f0 65 45 3e 9f b7 6f be b5 24 42 3e
       -0.014487347 0.19277167 -0.2340989 0.18959315
0000d0 42 3f 31 3e 4d 46 61 bd ec 9e b0 3d 70 75 dd 3c
       0.17309287 -0.054998685 0.08624062 0.027033538
0000e0 ea ab 3c bd e8 95 7c 3e 96 36 2d 3e e6 ca 21 3e
       -0.046062388 0.2466656 0.16915354 0.15800056
0000f0 da 0b 71 3d 4d a4 0a be 88 20 c6 bb 0a aa 73 bd
       0.058849193 -0.13539238 -0.0060463585 -0.059488334
000100 fd 41 ca 3d f5 0f 11 be 54 98 8c 3e 90 d3 8b bd
       0.098758675 -0.14166243 0.27459967 -0.06827462
000110 64 59 27 be 24 f4 a8 3d 17 cd 0f 3e aa 2d d2 bb
       -0.16342694 0.08249691 0.1404308 -0.006414135
000120 91 7d 8f 3c 72 2b 6b bd 1b e3 82 bd 24 83 8e 3d
       0.01751593 -0.05741448 -0.06390973 0.06958607
000130 f7 00 97 3d c7 cd 9e 3d 1b 2e 71 3d 02 2a 47 bd
       0.07373231 0.07754093 0.05888186 -0.048624046
000140 aa b7 49 3d e5 d0 ab 3c 94 c1 66 3d 34 48 4e 3d
       0.04924742 0.020973632 0.056336954 0.050361827
000150 6a 24 98 bd 60 fa 0e bd ab 85 81 3d fb 99 a9 bc
       -0.074288204 -0.034906745 0.06324323 -0.020703306
000160 b1 6c 87 3d f3 b8 c2 3c c4 49 03 bc 4f 66 c4 bd
       0.06612528 0.023769831 -0.008013193 -0.09589826
000170 21 9d e4 3d 4e 1d 20 3d fe af 1f ba 48 af 79 be
       0.111627825 0.039090447 -0.00060915935 -0.2438327
000180 7b 9d 86 3d 6c 75 c7 3d 43 4a 39 bd c0 94 2a 3e
       0.06573006 0.09739193 -0.045236837 0.16658306
000190 4c 08 0c 3e dd 5d 5d bc 8b 8a 64 bc ab 7a 44 be
       0.1367504 -0.013511148 -0.013949047 -0.19187419
0001a0 2e 7c 69 bd 9d c5 38 3e 0c 66 c7 bc e6 7c 04 3e
       -0.057003193 0.18044133 -0.024340652 0.1293827
0001b0 90 e0 f7 b9 28 7f 05 bc 3c 31 51 bd 3f ce 6d 3e
       -0.00047278823 -0.008147992 -0.051072344 0.23223208
0001c0 c9 26 62 bd 3a 90 7e bd 5e 92 59 ba 24 90 db 3c
       -0.05521277 -0.062149264 -0.00082997035 0.02680213
0001d0 fe 13 5a 3d 0d a3 2e be 3f 6e 86 be 37 be 45 be
       0.053241722 -0.17054386 -0.26255986 -0.19310842

fc2.weight f4 [84, 120]
000000 19 eb 00 3e 71 96 64 3e 78 54 7a 3c 98 8f 5b 3e
       0.12589683 0.22323014 0.015278928 0.21441495
000010 dd ec d1 be c8 1a 9e bd 3a 41 4d be 65 12 a0 3d
       -0.41001025 -0.07719952 -0.20044413 0.078160085
000020 c5 9f a4 bd 97 cf 32 3e d7 e9 b6 bd 3d 95 7f be
       -0.08038286 0.17462002 -0.0893132 -0.24959274
000030 a5 7b 3e be 8d e8 9c 3d 2f 27 b9 3d 04 51 93 bd
       -0.18601854 0.07661543 0.09040677 -0.07193187
000040 4e 2a 0b bd 60 18 4b bc 15 f6 93 be eb 34 1c 3e
       -0.03397589 -0.012395948 -0.28898683 0.15254562
000050 7f b6 8a be 1a 66 7a 3e 0e 7b c7 3d cd 65 13 be
       -0.27092358 0.24453011 0.09740268 -0.14394303
000060 50 ec 92 3e 8a fd 23 3e ee 5d f7 bd 1c 92 74 3d
       0.28695917 0.16014686 -0.120784625 0.059709653
000070 e1 3a b0 bd eb 87 09 3d 5b 41 6c 3d ac 11 b5 bc
       -0.0860498 0.033576887 0.057679515 -0.022103153
000080 15 ca 25 be c7 2e c4 bd 40 61 ff 3d 81 e6 82 bd
       -0.1619037 -0.095792346 0.12469721 -0.063916214
000090 f6 28 09 3e 06 3b 1b 3d bf bc bb be 5d fa 09 bd
       0.13394532 0.037898086 -0.3666744 -0.03368603
0000a0 45 5a 57 bc 3d 1b 49 3d ba 83 5f be 84 be 4e 3d
       -0.0131440805 0.049098242 -0.21827593 0.05047466
0000b0 aa a7 0f bd d5 ed d0 3c e4 64 b4 bd 01 41 f6 3c
       -0.035072006 0.025504032 -0.08808306 0.030060293
0000c0 78 4a 91 bd 36 77 9b 3e 23 73 0e 3d c0 36 c3 bd
       -0.07094282 0.30364388 0.03477777 -0.09531927
0000d0 41 64 86 be 71 b0 f2 bb 45 46 0b be 30 e2 0e bd
       -0.26248363 -0.0074062874 -0.13601024 -0.034883678
0000e0 27 4b 86 3d bb 6f 48 bd 07 53 41 bd 6b 8b 0a be
       0.06557303 -0.04893468 -0.04719832 -0.13529746
0000f0 b5 a2 cb bd a7 b5 84 bd da 23 8f 3c b0 23 24 be
       -0.09943143 -0.0647996 0.01747315 -0.16029239
000100 b2 8d ba 3d 46 28 9d 3e e9 f6 a9 3e 8a 4f a0 3d
       0.091090575 0.3069479 0.3319619 0.07827671
000110 7f 99 ee be a3 42 f6 3d 4b a9 d2 bd e0 c4 88 3e
       -0.46601483 0.12024429 -0.10286196 0.26712704
000120 70 ac c2 bd 3d f0 7f be 93 ff 14 bb bd cd 30 be
       -0.09505546 -0.24993987 -0.0022735342 -0.17265983
000130 f6 f9 63 3d 7a 0a c3 3e 79 e9 c9 be 7b c1 2a 3d
       0.055658303 0.3809393 -0.39435938 0.041688424
000140 ba a1 e8 bd 1b 5a 16 3d cc db c9 bd b4 ae 81 3e
       -0.11358972 0.036707025 -0.09856376 0.253286
000150 a9 66 13 3e c7 48 45 bd 68 f0 e3 3d cf 47 62 bd
       0.1439463 -0.04816511 0.11129838 -0.055244263
000160 f5 e9 71 be 9c 0c 02 3e ac 7d 1a be 7a f5 54 be
       -0.23624404 0.12700123 -0.15087003 -0.20796767
000170 50 e1 53 3e c5 dd 24 3e 09 bd 04 3d 6f 42 8e 3e
       0.20691419 0.16100223 0.03240684 0.2778506
000180 9e 9a 33 3e e5 e1 f2 bd c0 5e 5a 3d ba f9 6a 3d
       0.1753945 -0.11859492 0.053313017 0.057367064
000190 b6 4f ed 3e 7c 6c 83 bd 86 68 a7 3d f8 71 11 3e
       0.46349877 -0.06417176 0.08174233 0.14203632
0001a0 b4 59 4d 3e 09 95 4e bc 2f 31 61 3e c2 81 4e 3e
       0.2005375 -0.012608775 0.21991418 0.20166686
0001b0 f6 ac 40 3d ab f8 b1 be 2b 34 6d be 3b 48 4d be
       0.04703995 -0.3476003 -0.23164432 -0.20047085
0001c0 b6 b1 f2 3c dd 9c 21 be 04 1e 67 be 70 d5 cf bd
       0.029625755 -0.15782495 -0.22570044 -0.10148132
0001d0 00 b4 89 bd 18 71 38 be bb 54 94 bd 3e 51 65 be
       -0.067237854 -0.18011892 -0.072427236 -0.22394273
0001e0 22 89 0f be d8 fe d4 bd 44 76 58 3e 80 79 af 3d
       -0.14017156 -0.1040017 0.21138865 0.08568096
0001f0 8e 9a e0 bd 62 ed c3 bc 2f c8 82 bc 2d 82 93 be
       -0.10966979 -0.023916904 -0.015964596 -0.28810254
000200 29 53 22 be 44 6f 86 bd 84 3d c6 bd 45 87 56 3e
       -0.15852036 -0.06564191 -0.09679702 0.20950039
000210 f3 a4 b4 bd f0 13 eb 3d e8 62 21 be 3c 35 31 bd
       -0.08820524 0.11478412 -0.15760386 -0.04326366
000220 4f 92 d4 3d 3d 66 45 be a6 0e cf bc d5 ee 76 bd
       0.10379469 -0.19277282 -0.02527554 -0.06028636
000230 c3 8b b5 3d 37 0a 7a bd c4 9d 66 3c c6 33 9d be
       0.08864548 -0.061044898 0.0140757 -0.30703562
000240 d8 c9 53 bd 53 be 95 3e 7f 52 5e be f7 c9 00 3e
       -0.051706165 0.29246768 -0.21711157 0.12577043
000250 94 12 80 3d bf 53 ae bd 16 f7 5c be 56 a3 09 bd
       0.062535435 -0.08512067 -0.21578631 -0.033603035
000260 11 ea c5 bc f9 10 d0 bc e2 ce a0 be a9 88 b3 be
       -0.024159463 -0.025398718 -0.3140784 -0.350652
000270 5d 93 4e 3d 6e 7a 25 3e b9 9d 43 3e 82 9c 05 3d
       0.050433505 0.16159984 0.19103135 0.03261996
000280 0d b5 b5 bd 4f 49 5a 3e ac 3b 54 bc 88 2c a6 bd
       -0.08872423 0.21317028 -0.01295368 -0.081139624
000290 36 2b 71 be 7c 76 ac bb 7f 63 09 be 7e 08 ec bc
       -0.2355164 -0.005263148 -0.13416861 -0.028812643
0002a0 17 3c be bd fe 1a 39 bd 78 45 28 be a9 65 62 be
       -0.09288805 -0.045191757 -0.1643275 -0.22109093
0002b0 76 89 1d 3e 3d ba b1 bd d3 40 b7 be b5 15 8f 3c
       0.15384468 -0.086781 -0.35791644 0.017466405
0002c0 68 53 e1 3d 34 85 ba bd 73 ee f4 bd 49 b1 4b be
       0.110022366 -0.09107438 -0.11959543 -0.19891848
0002d0 03 fc 8d bd 2b ac 6f be f3 16 9d bd 47 8c 21 3d
       -0.06932833 -0.2340552 -0.07670393 0.03944042
0002e0 15 b3 c5 bd f0 25 f5 3d de 23 2c bd 13 bc 6d 3e
       -0.09653298 0.11970127 -0.042026393 0.23216276
0002f0 21 5e 71 3e e8 b4 0c be b6 fd ea 3d ad f4 e2 bd
       0.23571064 -0.13740885 0.11474173 -0.110818245
000300 bd 53 de 3d 78 46 bd 3c 97 34 db bd c7 a0 7f 3d
       0.108558156 0.023104891 -0.1070339 0.06240919
000310 ba 8c a0 3d 35 da df 3d 61 00 84 bd 57 85 c2 bd
       0.078393415 0.109302916 -0.06445385 -0.09498089
000320 26 d2 6b bb de 1b 08 3e b7 da 41 be 26 0b d6 3d
       -0.0035983413 0.1329188 -0.1893109 0.10451345
000330 e5 44 0d 3e a2 dc 89 3d 93 59 52 bd 31 8c 78 be
       0.13795812 0.067315355 -0.051354956 -0.24272229
000340 be b4 c4 3d 4e fa 5a be 05 a4 d3 3d f8 8e 76 3e
       0.09604786 -0.21384546 0.103340186 0.24077976
000350 70 77 17 bd 8c b0 5e bd bf 2f e9 bd bd b6 1e bc
       -0.03697914 -0.054367587 -0.1138606 -0.009687123
000360 d4 0a 0a 3d 7b 78 83 be c1 24 1c be 87 13 e0 bd
       0.033701733 -0.25677857 -0.15248396 -0.109412245
000370 70 d6 55 be c9 7e 8b 3e 42 da db bd 5e 58 3e be
       -0.20882583 0.27245167 -0.10734989 -0.18588397
000380 96 57 cb bd d3 a0 c6 bd a9 cb 26 be d5 54 19 be
       -0.09928815 -0.096986435 -0.16288628 -0.14973767
000390 8a 1b 03 3e 9e 98 15 bd 6e 4c 4a 3d 0e 6c dc 3d
       0.12803474 -0.0365225 0.049389295 0.10762797
0003a0 59 c2 81 3d b8 27 66 3d 8f a6 23 3d 06 6d 41 bd
       0.06335897 0.056190223 0.039953765 -0.047223113
0003b0 4a 47 6a be 8f 7b ec 3d 49 a7 7c be a3 86 3a bd
       -0.22878757 0.115470044 -0.24673189 -0.045538556
0003c0 d8 5e 09 3e ab cc 1d 3e f9 d6 33 bc ac 05 9f bc
       0.13415086 0.15410106 -0.010976546 -0.019411884
0003d0 8b ea 09 be a4 da 2f bd b3 72 42 3d 04 07 12 3d
       -0.13468377 -0.04293312 0.047472667 0.035651222
0003e0 f0 dc ed 3d bd a9 a9 3d 1a 30 64 be 73 3d 19 3d
       0.11614406 0.08284328 -0.22283974 0.03741212
0003f0 77 50 ba 3d 07 ff 43 be 94 ea 34 3e 01 c6 3a 3e
       0.09097379 -0.19140254 0.1766761 0.18239595

fc2.bias f4 [84]
000000 03 72 42 3e 13 c4 d3 bd c4 3c db bd 8a a2 ed 3c
       0.18988805 -0.103401326 -0.107049495 0.029008169
000010 d5 57 0d 3d f7 d9 2a bd dd 32 67 bd 3a c6 42 3e
       0.03450759 -0.041711774 -0.05644499 0.1902093
000020 67 d7 de bd 04 9e bc 3d 1b c8 f3 bd a9 97 02 bd
       -0.108809285 0.092098266 -0.119034015 -0.031882916
000030 2b 64 90 3d 68 34 88 3d ac f6 5f bd 35 fd 09 3d
       0.070503555 0.06650621 -0.054678604 0.033688743
000040 fd 8d 33 3d d1 48 e4 3e f2 94 ad 3d fa c3 8d 3c
       0.043836582 0.44586805 0.08475675 0.017305363
000050 5f 35 62 bd 62 74 28 3d 11 39 93 be fa fb fd 3d
       -0.05522668 0.041126616 -0.28754476 0.12401576
000060 58 e6 55 bd ef f7 08 3f 7d 6f 9c 3d a6 99 66 3d
       -0.052221626 0.53503317 0.07638452 0.056298874
000070 42 26 72 3d 67 bf ff bd 31 c2 95 bd 11 8f f5 bc
       0.059118517 -0.12487679 -0.0731243 -0.029975446
000080 48 4f 95 3d 28 f8 1c 3e ad a1 19 bd 1d be ec 3d
       0.07290512 0.15329039 -0.0375077 0.11559699
000090 27 3f 48 3c 42 8a 19 3e 82 41 22 be 25 71 e9 3c
       0.012222088 0.14994147 -0.15845302 0.028496334
0000a0 8e 2b 4a 3e 99 7a 2b 3e 9f 47 dc bc a2 6f 9e 3e
       0.19743177 0.16745986 -0.02688962 0.30944544
0000b0 0d 96 22 be fe ae 18 3f 9c 50 61 3d bf 7e 63 be
       -0.15877552 0.59642017 0.055008516 -0.22216319
0000c0 63 28 3f bc ad 68 fd bc 39 76 9b 3d 1c a3 07 be
       -0.011667344 -0.030933702 0.075909086 -0.13245815
0000d0 27 1b 9f 3e 9d 9c bf 3d 48 48 90 3c c8 1f 2b 3c
       0.31075403 0.093560435 0.017612591 0.010444589
0000e0 50 81 4c be ff 23 79 be 61 49 17 3d 63 12 15 3e
       -0.19971204 -0.24330138 0.036935214 0.14557795
0000f0 9f 7a 16 3d e7 71 77 bd 17 87 3c be e4 54 c6 bd
       0.036738034 -0.06041136 -0.18410908 -0.0968416
000100 c9 96 01 be 6a e6 ff 3d 16 49 92 3d 12 29 aa 3d
       -0.12655176 0.1249512 0.07142846 0.08308615
000110 ad 4d 13 3e 82 07 be 3e 0b 60 cb 3b c1 c7 70 be
       0.143851 0.37115103 0.0062065176 -0.235137
000120 25 3f 2a be d4 a1 09 bd c3 88 a2 bd 8c 3e 5f 3e
       -0.1662565 -0.033601597 -0.079362415 0.21801203
000130 f3 02 ad bd 9d d9 88 bd 65 1c f0 bd b5 7f 91 3c
       -0.08447828 -0.066821314 -0.11724166 0.01776109
000140 9b ae ca bd de f4 b7 3e c1 80 3c 3d d6 17 e5 bd
       -0.098965846 0.35929006 0.046021227 -0.11186187

fc3.weight f4 [10, 84]
000000 ca fc 08 bf 11 85 b8 be ab 2a f8 bc 04 e0 20 be
       -0.53510725 -0.36039022 -0.030293783 -0.15710455
000010 eb c5 d3 3e 9d ae 04 3c 6a 33 cd 3d 40 00 da bc
       0.41361937 0.008098272 0.10019572 -0.026611447
000020 a8 0f 5f 3e 64 98 10 3f 89 a8 7b be 97 ac 94 be
       0.21783316 0.5648253 -0.2457601 -0.29037926
000030 2b 4c 86 be e5 e5 86 be 57 3d 8a 3e ff 47 73 3e
       -0.26229987 -0.2634727 0.26999924 0.23757933
000040 0e c8 0a bf 13 32 9a 3e 61 90 ee 3e 5f a4 b8 3a
       -0.5421151 0.3011633 0.46594527 0.0014087072
000050 dd d1 e2 3e 5b 82 00 bf 02 fe b4 bc 37 0f 8f 3e
       0.44300738 -0.50198907 -0.022093777 0.27941296
000060 00 84 b7 be ce 50 ae 3e 73 00 57 be 10 fe 85 3a
       -0.35842896 0.34046024 -0.20996265 0.0010222811
000070 bb d7 37 bd 10 ba 0f 3e 8c d4 d2 3d 77 0a ae bc
       -0.04488347 0.14035821 0.10294446 -0.021245224
000080 83 4a 8c be 61 9f d5 be a0 43 da bd c6 a9 05 3f
       -0.27400598 -0.4172316 -0.1065743 0.5221218
000090 86 9e 46 3e 7e 14 7e bd 96 c6 ea 3e 9c 16 ca bd
       0.1939641 -0.06203126 0.45854634 -0.09867594
0000a0 f1 e2 bb bd 99 f1 8a 3e 12 a3 c3 be 6e 0d af 3e
       -0.09174145 0.2713745 -0.3821035 0.34189934
0000b0 7d 3b 19 3e ac b3 bd 3e 63 d5 bf be a1 62 b2 3c
       0.14964099 0.3705114 -0.3746749 0.021775546
0000c0 08 2b a2 3d 00 76 b7 3e 09 4a 78 be 88 ac 9c 3e
       0.07918364 0.35832214 -0.24246992 0.3060038
0000d0 ec 67 ba 3e bf 77 1a 3f 6b a4 37 be 6c cb a5 be
       0.3640741 0.6033897 -0.17933814 -0.3238176
0000e0 53 d5 91 3d 0b 2d ec 3d bb 3d dd be 7b 98 46 be
       0.071207665 0.11532029 -0.4321116 -0.19394104
0000f0 17 22 8e 3e 79 4a a6 bd d2 fe 15 bd 63 fd 1a be
       0.27760383 -0.08119673 -0.03661997 -0.15135722
000100 e8 7d 8a bd d6 6c b9 3e 88 80 fe bd aa 7f 05 bf
       -0.06762296 0.36215848 -0.12426859 -0.52147925
000110 1e 07 d8 3c d0 fa 29 be 64 85 a6 3d bf 33 7d bd
       0.026370581 -0.16599584 0.08130911 -0.061816927
000120 af c1 a8 3e f5 5a 8e be b9 b3 03 3e 24 d0 67 be
       0.3296027 -0.2780377 0.12861528 -0.22637993
000130 88 7d 5a bd a5 b3 32 3e 9f e7 92 3e 52 89 5f 3e
       -0.053342372 0.17451341 0.28692338 0.21829727
000140 d0 b8 9b 3e 9d 23 66 3e d1 25 d3 3d fc b9 fd 3d
       0.30414438 0.22474523 0.10309947 0.12388989
000150 3f 2f 55 3e 72 18 7b bc d2 63 35 3e b8 5a 36 be
       0.20818804 -0.015325652 0.1771386 -0.17808044
000160 d2 ff f0 be 38 51 03 3d ab 89 be be 79 75 d2 3b
       -0.47070175 0.032059878 -0.37214407 0.0064226952
000170 aa 54 fc bc 8f 44 17 3c b0 85 7f 3e e4 16 74 bd
       -0.03080209 0.009232654 0.24953341 -0.059592143
000180 61 65 84 3e 93 11 d2 bd b9 67 7e 3c 4f 0d 96 bc
       0.25858596 -0.10257258 0.015527659 -0.018316893
000190 f5 25 c1 be 81 a4 76 3e 24 17 6f 3b 9d ed dd bd
       -0.3772427 0.24086191 0.0036482299 -0.10836337
0001a0 3b 2e db 3c 71 e9 7c be d8 85 ec 3d d1 f1 8f bd
       0.026755443 -0.24698426 0.11548966 -0.07028545
0001b0 af 28 cd bd 90 cd b7 bd cd 71 b6 bd 25 87 c1 3e
       -0.100175254 -0.08974755 -0.089084245 0.3779842
0001c0 66 77 09 bd 05 9f 9f bc 0a a2 0a 3d bd f1 57 be
       -0.033561133 -0.019485006 0.03384594 -0.2108831
0001d0 69 70 8b be 54 35 2b 3d 93 a4 99 3d 62 6d f3 3d
       -0.272342 0.041798905 0.07502093 0.118860975
0001e0 24 29 f6 3e f3 d2 74 3e 25 90 6b bd ff f4 9a bd
       0.48078263 0.23908596 -0.057510514 -0.075662605
0001f0 70 4b 58 be e3 ee 25 bf a1 ce 5e 3d 78 c7 bb 3d
       -0.21122527 -0.6481764 0.054396275 0.09168905
000200 5a b6 02 be 34 da a1 be 38 1f 34 3d c4 d2 ea 3e
       -0.12764874 -0.31611788 0.043975085 0.45863926
000210 cf 8c 26 3d f8 24 07 3d c8 8f eb 3d 2f 3f c8 bc
       0.04066163 0.03299424 0.115020335 -0.02444419
000220 fb 75 01 bf 44 6c 37 be cf 93 9e 3d 4b 05 82 bd
       -0.5057065 -0.17912394 0.07743036 -0.06348666
000230 5b e7 5f bd 2e cb 0e 3e 0d 07 21 be df d6 92 3b
       -0.054663997 0.13944694 -0.15725346 0.004481181
000240 6f 57 83 bd 95 63 96 bd cc 14 9b 3e f4 42 04 be
       -0.06413161 -0.073432125 0.30289304 -0.12916166
000250 cf 02 ce 3d 03 f0 05 3f de d3 e6 bd a7 a5 e9 3d
       0.100591294 0.52319354 -0.11270879 0.11408549
000260 8f 8d aa 3e 19 d6 56 be 1d 86 b5 3d bc 14 77 3e
       0.33311126 -0.2098011 0.08863471 0.24129003
000270 32 61 ec be 21 b3 2c 3d 6f f6 17 3e 72 f8 7a be
       -0.46167904 0.042163018 0.148401 -0.24508837
000280 4e 63 26 3e 17 4f a8 bd 8b 8f e4 be 0c 60 bb 3e
       0.16248819 -0.0821821 -0.44640765 0.36596715
000290 aa 07 0d 39 2f 52 6a be 32 f3 fb bc 72 af 89 bd
       0.00013449663 -0.22882913 -0.030755613 -0.06722917
0002a0 ed 8f 88 3e e1 2e ac 3e 13 63 c6 be 78 a8 bc be
       0.26672307 0.33629516 -0.38747463 -0.3684728
0002b0 71 fe e3 3e 2d 3e f2 be a7 19 cd bd dd e2 af bd
       0.4453006 -0.4731306 -0.100146584 -0.085881926
0002c0 ed 77 26 bf dd e5 08 bf 93 27 0b 3e 68 6b 10 bf
       -0.6502674 -0.53475744 0.13589315 -0.5641389
0002d0 6a c2 9d 3d 5a 42 f3 bd 2d 1d 57 3e fa e9 37 be
       0.07703097 -0.1187789 0.21007223 -0.17960349
0002e0 df f8 c0 bc 0d b8 cb 3e ca e8 b0 bd ae 23 9c 3e
       -0.023556171 0.39788857 -0.08638151 0.3049597
0002f0 13 c9 2a bf a3 4f ec 3e 22 cc 4a be 4b dc be 3d
       -0.66713065 0.46154508 -0.19804433 0.09319361
000300 a1 63 1a be da 01 13 3e 9e 87 f1 3d 14 66 e2 be
       -0.15077068 0.14356175 0.11793445 -0.44218504
000310 46 5e 0f 3e a4 68 54 be e0 d1 4b 3d 9d 9c 4b 3e
       0.14000806 -0.20743042 0.0497607 0.19883962
000320 6e 10 0b 3f 2e df 20 bd c5 ee 78 be 75 83 1f 3e
       0.54321945 -0.03927534 -0.24309833 0.1557749
000330 ab a5 ca bd f3 17 86 be 65 17 82 be ea 84 ce be
       -0.0989488 -0.26190147 -0.25408474 -0.4033578
000340 44 19 6d be bd 67 34 3e 51 97 53 3f 36 ba 21 be
       -0.2315417 0.17617698 0.82652766 -0.1579369
000350 a3 10 4c 3d ca f8 70 3e 68 ef 2a 3d a3 41 0b 3e
       0.049820554 0.23532405 0.04173222 0.13599257
000360 f3 22 49 3c 9d 3b b0 3e 26 c7 d9 be fc 04 dc be
       0.012276399 0.3442048 -0.4253475 -0.42972553
000370 52 85 d2 3e 35 e1 12 bf 42 90 c1 be c7 38 d2 3e
       0.4111734 -0.5737489 -0.37805372 0.41058943
000380 46 45 d6 be 77 0a d8 bd 33 cd 82 be 2a fe c8 3e
       -0.41849726 -0.10548871 -0.2554718 0.39256412
000390 b8 c9 ae 3d e7 07 46 bd 16 76 af 3b 01 e1 9b 3d
       0.085345685 -0.04834738 0.005354653 0.076112755
0003a0 22 0b 8a 3e 2f bf 90 be 9d 8e 21 3d 0d e7 37 3e
       0.2696162 -0.28270862 0.039442647 0.17959233
0003b0 ae f3 09 3e c6 6c 3f 3e a6 32 21 be d1 89 29 be
       0.13471863 0.18693838 -0.15741977 -0.16556479
0003c0 a1 d5 2c 3e 4a 48 7b be a8 2d a0 bd ba aa 13 3e
       0.16878368 -0.24539295 -0.07821208 0.14420596
0003d0 c7 2c 55 3e ed e1 b7 be 32 2d a1 3e 67 86 99 be
       0.20817862 -0.35914555 0.31479794 -0.29985353
0003e0 f4 7b 05 3e a4 10 bb 3e 92 5d b8 bc 9c 28 48 be
       0.13035566 0.36536133 -0.022505555 -0.19546741
0003f0 f4 e9 cc 3c 34 70 1d bc 7c 86 d6 bd d8 ad 88 3e
       0.025013901 -0.009609271 -0.104748696 0.26695132

fc3.bias f4 [10]
000000 50 9c c3 bc 59 57 9a be b7 d2 fd 3e aa 0d 75 3e
       -0.023878247 -0.30144766 0.49574825 0.23930994
000010 4e f4 76 bf 35 dd 16 be f7 66 0f 3f c5 e6 68 3e
       -0.9646653 -0.14732821 0.56016487 0.22744282
000020 5a f0 f4 3d 9b 09 9a be
       0.11959906 -0.30085453
