PythonCodes/Models/ModelsForTesting/CNNModelTest.pt (torch, 56515 bytes, 10 tensors)

conv_layer1.weight f4 [10, 3, 1, 1]
000000 fe 98 64 3e 7b 29 58 bf 8b 98 33 bf 36 ad 45 bf
       0.22323987 -0.84438294 -0.7015464 -0.77217424
000010 f7 e1 12 bf da cb 57 3e 69 ca be 3e 31 04 eb be
       -0.57376045 0.21073857 0.37263802 -0.45901635
000020 80 4e 05 bf 75 75 11 3f fc e4 25 3e 66 07 82 3e
       -0.52072906 0.5681985 0.16200632 0.2539627
000030 fe d0 4c bf 5f ac ea be 30 6f fb be 47 16 60 bf
       -0.80006397 -0.45834634 -0.49108267 -0.8753399
000040 0c 71 7f be 76 0a 70 bf 37 26 12 bf 1f 8d a6 3e
       -0.24945468 -0.9376596 -0.5708956 0.32529542
000050 b2 53 8a be 17 79 3e 3e 95 ed 1b 3f 63 c3 37 3f
       -0.2701698 0.1860088 0.60909396 0.7178251
000060 90 5a f5 bd 50 21 ca 3e e9 e5 77 be d8 51 21 3f
       -0.11980164 0.3947854 -0.24208798 0.6301551
000070 85 dc 5f 3f 37 f3 10 3f
       0.8744586 0.56621116

conv_layer1.bias f4 [10]
000000 39 31 3c 3e c1 a1 90 bc 53 b7 11 bd 4c f9 0d 3f
       0.18378152 -0.017655255 -0.035575222 0.5545852
000010 24 85 c4 3e f3 73 02 3f 00 31 77 3e 80 58 6f be
       0.38382828 0.50958174 0.24139786 -0.23373604
000020 66 9a 11 bf 82 83 1e be
       -0.5687622 -0.15479854

conv_layer2.weight f4 [15, 10, 1, 1]
000000 39 34 52 3e 34 53 8a be 0d b9 80 3e ea c6 80 3e
       0.20527734 -0.27016604 0.25141183 0.2515176
000010 0b 0e 49 be 94 94 03 3e 62 f4 85 be f7 0f 44 be
       -0.19634263 0.12849647 -0.26163012 -0.19146715
000020 cb c1 7f be e1 e6 6d 3e 63 fa 29 3e 31 30 af be
       -0.2497627 0.23232605 0.16599421 -0.34216455
000030 80 26 73 be ce 70 23 be 0b d4 04 be 70 96 35 be
       -0.23745155 -0.15961 -0.12971513 -0.17733169
000040 31 05 6e 3e 85 b2 41 3e 16 7d 3c 3d a3 5d 52 3e
       0.23244168 0.18915756 0.04601773 0.20543532
000050 a5 cc f3 bd ee 3c d8 3d 2d b7 12 3e 9a 9f 13 3d
       -0.11904267 0.105584964 0.14327689 0.03604088
000060 2e bc c1 3e 95 1a 92 3e 25 30 60 3d 19 30 df be
       0.37838882 0.28535905 0.054733414 -0.43591383
000070 48 20 36 be 8b 6a c0 be 3c 7e f5 be 7e 3a bc be
       -0.17785752 -0.37581286 -0.47947872 -0.36763376
000080 de 50 db 3b 77 07 6c 3e b7 09 79 be 9c b1 ec be
       0.0066929897 0.23049723 -0.24320112 -0.46229255
000090 01 c9 6e bc d0 44 d4 3d e1 39 19 b9 dc 08 95 3e
       -0.01457429 0.103646874 -0.00014612779 0.29108322
0000a0 be 69 77 be d5 23 31 bc 2c a1 af 3e 2d 79 0f 3e
       -0.24161431 -0.010811766 0.34302652 0.14011069
0000b0 c4 80 89 3d 3a fb 1b 3e 07 87 76 3e 77 83 9c be
       0.06714013 0.15232554 0.24074946 -0.3056905
0000c0 36 56 96 bd 10 97 01 be 2a 14 09 3f fd ee 6f 3e
       -0.07340662 -0.12655282 0.5354639 0.2343101
0000d0 f4 35 78 3e 7b 1f 3d be ca 90 22 3f 93 02 12 3f
       0.24239331 -0.1846904 0.6350218 0.5703518
0000e0 6d 68 8e 3e 4c 11 dd be 40 4a 08 bd b8 46 2f bf
       0.27814046 -0.4317726 -0.033273935 -0.68467283
0000f0 98 a2 90 be 16 80 c9 bd 5d 28 f8 bb a9 65 cb 3e
       -0.2824905 -0.098388836 -0.007573171 0.39725998
000100 5e d7 a0 be d4 51 0f bf aa 33 b9 38 62 97 c6 3e
       -0.31414312 -0.55984235 8.8311106e-05 0.3878737
000110 63 af 0e be e4 b4 0b 3f b1 dc 87 be 44 b6 c0 be
       -0.13934092 0.5457289 -0.26535562 -0.37639058
000120 dc de 91 bc 7d 96 a2 3e fe 93 21 bc d9 1d 12 be
       -0.017806463 0.31755438 -0.009861944 -0.14269198
000130 9f c6 86 be ac 87 70 bd 85 62 7e 3e f8 d4 91 3e
       -0.2632341 -0.058723137 0.2484227 0.28482795
000140 e3 d4 a4 3e 05 91 0f 3e a7 ca 87 be ef a7 56 3e
       0.3219367 0.14020164 -0.265218 0.20962499
000150 df ee 21 be 95 0d 9e 3d 4e e0 94 3d d1 44 58 be
       -0.15813778 0.07717434 0.07269345 -0.21120001
000160 0c 7e 5a be 0d fc 4b 3e af 8c ed bc 84 12 e0 be
       -0.21337146 0.19920368 -0.028997747 -0.43764126
000170 9c 3e 24 be 22 38 8b 3d 7b 71 fc be 99 2b a1 be
       -0.16039509 0.06797816 -0.4930533 -0.31478575
000180 12 e5 71 be e6 b5 f3 3e a7 57 bd bd 25 b7 cd 3e
       -0.2362254 0.47599715 -0.09245234 0.4017879
000190 66 b8 37 be 52 fb ba bd a1 bb 8e be 31 9c de bd
       -0.17941436 -0.09129967 -0.27877524 -0.10869635
0001a0 c1 a4 4d be aa 05 a2 3e 2a d4 6f be 53 38 48 be
       -0.2008238 0.31644946 -0.23420778 -0.19552736
0001b0 1b 0d 00 3e 7a 95 9e be 7f 29 3b 3e ff 50 c6 3d
       0.12505 -0.30973417 0.18277548 0.096834175
0001c0 9b 0a 16 3e 6a 25 5e bd 80 7b 43 be bb a2 fe bb
       0.14652483 -0.0542349 -0.1909008 -0.007770864
0001d0 98 04 cd 3d c0 ac 50 bd 53 48 6d be 60 d4 0a 3e
       0.10010642 -0.050945997 -0.23172121 0.13557577
0001e0 e6 2e fb 3e b0 df fb 3d 9f 02 1d bd 7a 73 b3 be
       0.49059218 0.122985244 -0.038332578 -0.3504904
0001f0 6c d1 0c 3f f1 fc 12 3f bb e0 b6 3c 05 81 94 be
       0.5500705 0.5741721 0.022323957 -0.29004684
000200 86 07 96 3d 29 80 0a bf 0b 49 a9 bb 1b b6 97 be
       0.07325654 -0.54101807 -0.005166178 -0.29631123
000210 b9 c6 8d 3d e0 c9 80 be f3 b0 18 be 23 6a 11 3d
       0.06922669 -0.25154018 -0.14911251 0.03550161
000220 66 4c f7 bd 77 80 63 3d 61 9f 91 be 2c 16 e1 3d
       -0.12075119 0.055542435 -0.2844191 0.10990557
000230 ea fa 1c 3d b3 09 23 3d b6 3f 55 3e 79 bf 7f be
       0.038325228 0.03980417 0.20825085 -0.24975385
000240 12 3d 98 3e 4c 0c 01 be 41 f7 8e 3e 68 e3 73 be
       0.29734093 -0.12602347 0.27923015 -0.23817217
000250 fd 94 f4 bc 07 fa 2f be
       -0.0298562 -0.17185222

conv_layer2.bias f4 [15]
000000 c4 7f 6d 3e be ec b8 bd cf 30 e8 3b f4 47 01 be
       0.2319327 -0.0902953 0.0070858966 -0.12625104
000010 66 b6 80 3e a1 37 79 3e 2a 79 2f 3e 96 71 c9 be
       0.2513916 0.24337627 0.17136064 -0.39344472
000020 83 7e 38 3d 33 5a 93 be f9 08 fb bd b9 86 45 be
       0.045042526 -0.28779754 -0.12257571 -0.19289674
000030 fa 51 ce 3d ed d5 2e bd 0b 61 05 be
       0.100742295 -0.042684484 -0.130253

conv_layer3.weight f4 [20, 15, 1, 1]
000000 4a ac 58 3b 4c 09 48 bd 92 87 27 be 94 e9 02 be
       0.0033061677 -0.04883699 -0.1636031 -0.12784415
000010 08 a0 96 bd 7b af c2 be 72 38 00 3e 14 ba 87 be
       -0.07354742 -0.38024506 0.12521532 -0.26509154
000020 b8 cb eb 3c f1 17 97 be 48 f1 6b be 92 da e0 3d
       0.028783664 -0.29510453 -0.2304126 0.10979189
000030 20 d4 9f be 3d c5 8a be 81 00 91 bc 32 b3 8d 3d
       -0.31216526 -0.27103606 -0.017700436 0.069189444
000040 e7 79 0f 3e 90 b1 02 bd 79 8b 75 bd 61 0e 2d bc
       0.14011346 -0.031907618 -0.059947465 -0.01056251
000050 b7 db ae 3d 85 73 8e bc cf 3a 1a be 57 8e bd 3d
       0.08538001 -0.017389068 -0.15061496 0.09255665
000060 f6 19 68 3e 3e f0 28 bb 46 b9 1f 3e 1a d8 d3 3d
       0.22666153 -0.002577796 0.1559802 0.103439525
000070 f7 6c 80 3d 36 fb b2 3d 9f 5b 74 be 98 6f 7e 3e
       0.062707834 0.08739321 -0.23863076 0.24847257
000080 7b 2f 06 be f8 81 1e 3e f4 fd b9 bd e6 4e 36 be
       -0.1310405 0.15479267 -0.09081641 -0.17803535
000090 c1 86 bb 3e 4f c5 4e 3e 5b 55 75 be 8a d3 48 3e
       0.36626247 0.20192455 -0.23958342 0.19611946
0000a0 77 2b 12 be 4c dd 59 3e 03 21 d3 be 1d bd 11 3e
       -0.14274393 0.21275824 -0.41236123 0.14232297
0000b0 61 98 4e bd eb 28 6b 3e 65 fe 79 3c 85 a0 ed bd
       -0.05043829 0.22964828 0.015258406 -0.11602882
0000c0 69 c4 03 3e 6b fe e1 3d 88 c1 9e bb e9 06 aa 3e
       0.12867893 0.110348545 -0.004844848 0.33208397
0000d0 e0 0b eb 3d 44 d1 54 3e 07 a7 bf 3d 04 6f 6e 3e
       0.11476874 0.20782954 0.0935803 0.23284537
0000e0 2a 5f 2f bb 5e 2a 47 be b4 96 f5 3d fe 20 1b 3b
       -0.0026759603 -0.19449756 0.11991635 0.0023670788
0000f0 4a 18 8d be 06 65 40 be d4 d9 b5 3e 51 24 a5 be
       -0.27557594 -0.18788537 0.35517752 -0.3225427
000100 35 07 e4 3b 9b 5d f9 3e 15 ea 83 be 1c 9c 37 bc
       0.006958867 0.48704228 -0.25764528 -0.011206653
000110 d4 8b 93 3d ad b4 a0 bb 6e eb e6 3b 76 6d 43 be
       0.072044045 -0.0049043507 0.0070471084 -0.19084725
000120 bc fb 79 3e 9e 3f 85 bd 90 72 7d 3e 1e f2 2f 3e
       0.24412435 -0.06506275 0.24750733 0.17182204
000130 df de b9 3d 91 c0 a4 bd d5 d7 00 be d5 83 14 be
       0.090757124 -0.080445416 -0.12582333 -0.14503415
000140 8e ab f4 3e 55 a7 07 3d fb 03 5d 3e ca 28 0d bd
       0.47787136 0.033118565 0.2158355 -0.034462728
000150 1b a9 87 bd c9 8c 1c 3e 26 a0 b0 bb 60 49 e1 3e
       -0.06624051 0.1528808 -0.005390185 0.44001293
000160 22 c3 a6 bd 7e cf fb bd 77 cd 0d be 0d 0e d1 bc
       -0.081426874 -0.12295435 -0.1384791 -0.025519395
000170 2d 3a 2e bd f3 d7 c8 bd 64 ad cf 3d ad 78 45 bb
       -0.04253595 -0.09806814 0.101404935 -0.0030131743
000180 0f 94 01 be 12 f1 1a bc 30 e6 6a be b4 9c 89 be
       -0.12654136 -0.00945689 -0.22939372 -0.26877367
000190 cb 72 12 3e 97 cf e8 3d 50 3f 48 be 39 47 13 3e
       0.14301603 0.113677196 -0.19555402 0.14382638
0001a0 99 ce 8c be 32 9a 5a bd 06 b9 33 be 06 c4 ca 3d
       -0.27501372 -0.05336971 -0.1755105 0.0990067
0001b0 9b 66 8e 3e 25 34 31 bc 65 3e ae 3e d7 ba 99 bd
       0.27812657 -0.010815655 0.34031978 -0.0750634
0001c0 3c c1 8f 3e ef 36 63 be c9 ad 4f 3c 71 da 1c 3c
       0.28077114 -0.22188924 0.012675711 0.009573565
0001d0 11 00 57 be 79 c7 34 3e 86 9a 31 3e 36 ec 25 3e
       -0.20996119 0.17654218 0.17344102 0.16203389
0001e0 7c 98 75 be 40 ac ad 3c 75 4a 4d 3e 4b a9 9a 3e
       -0.2398395 0.0212003 0.20047934 0.30207285
0001f0 c4 f7 86 3e e3 58 34 3e 5a 56 95 3e 9e fc 91 3e
       0.26360905 0.17612033 0.29167444 0.28513044
000200 c6 4a 1c be 15 6a 2e 3d 6f 7a 81 3e ab 9e ce 3d
       -0.15262899 0.042581636 0.25288722 0.10088857
000210 5a 3b a9 bd 6c f2 6d be 16 a0 0c be bd 3f 89 bd
       -0.082632735 -0.23237008 -0.13732943 -0.0670161
000220 f9 44 a6 3d 25 9c 7d 3d 1c 1c a3 be a5 08 81 3e
       0.08118624 0.06191649 -0.31857383 0.25201908
000230 90 c5 ce 3e 23 1e 9a be 52 0e af 3c d7 ac 1a be
       0.40385103 -0.30101117 0.021369133 -0.15104996
000240 98 be 3b 3d 45 ec 57 3e 08 a8 d3 bc 07 53 c7 3e
       0.04583606 0.21086223 -0.02583696 0.38930532
000250 46 df 36 3e 84 aa be 3d 69 9a 4e be e4 30 c5 bc
       0.1785861 0.09309867 -0.2017609 -0.024071164
000260 31 d5 8f 3b a3 db 8a 3e 4c c4 74 be db 1c 07 bf
       0.004389428 0.27120695 -0.23903006 -0.52778405
000270 c0 9e ea 3e 5a 54 be 3e ab 61 bb bd 10 8b f1 3e
       0.45824242 0.3717373 -0.09149488 0.4717641
000280 f3 76 fe 3d 51 7c 74 be 8f 90 47 be 19 77 b8 bd
       0.124250315 -0.23875548 -0.19488738 -0.09007091
000290 32 b7 ed 3d 97 bd 82 bd e7 67 a3 be ec 88 b3 3e
       0.11607207 -0.06383818 -0.3191521 0.350654
0002a0 a0 e4 9d be bf 58 93 bb 97 10 28 3f cb 2c 0f bf
       -0.3083849 -0.0044966633 0.65650314 -0.55927724
0002b0 6a 50 24 be ef 43 1b 3e 21 26 fe be d7 7d d7 bd
       -0.160463 0.15162633 -0.49638465 -0.10522049
0002c0 4d b5 19 3e 47 7f af 3e 4d dc c6 3d f4 80 ae 3d
       0.15010567 0.34276792 0.09709988 0.085206896
0002d0 b2 6d 87 3d cf 5a 87 3e 02 ff 4e 3e 7a 30 b5 3e
       0.066127196 0.2643647 0.20214465 0.35388547
0002e0 3f 53 19 3e 71 99 de bd 2a 10 b8 3d c8 6d 13 3e
       0.14973162 -0.108691104 0.08987458 0.14397347
0002f0 01 63 17 be 2b b6 c1 3e 08 13 68 3e f4 c2 78 be
       -0.1478386 0.37834296 0.2266351 -0.24293119
000300 fd 0b 07 3e 0a 67 4e 3e bc b9 97 bd 8a 0d 9c bd
       0.13188167 0.20156494 -0.07408473 -0.0761977
000310 3b 36 7a be 44 b1 b3 bc b4 d8 68 be e4 4f 5c 3e
       -0.2443475 -0.021935113 -0.22738916 0.21514851
000320 50 53 18 be 0e 56 3e be 15 df ca bd bc d8 05 be
       -0.14875531 -0.18587515 -0.09905831 -0.13070959
000330 a3 08 ae bd 6a 77 a7 bd 35 83 08 be a2 4f e3 bc
       -0.08497741 -0.08177073 -0.13331302 -0.027747933
000340 8c 4c 19 3e 42 9a 84 3d 83 df 13 3e 2d a8 23 3d
       0.14970607 0.06474735 0.14440732 0.039955307
000350 89 e8 69 3e 2e 97 dc 3c 2d 26 5b 3e dc a5 8a bc
       0.22842611 0.026927557 0.21401282 -0.016924791
000360 cd 76 4c 3d 74 6d d5 bb 33 87 43 bd 21 7c 81 3e
       0.049917985 -0.006513292 -0.047736358 0.25290015
000370 84 17 11 be e6 f2 6d bc a0 39 3d 3d 9e 32 25 be
       -0.14169127 -0.0145232435 0.046197534 -0.1613259
000380 4a e5 7a 3e a7 dd 38 3e ae b7 14 be 1f 91 8b bd
       0.2450153 0.18053304 -0.14523193 -0.06814789
000390 d0 8d b6 3d 05 12 9a 3d e0 3b b4 3e d4 a2 d3 3d
       0.08913767 0.07522968 0.3520193 0.103337914
0003a0 a1 8a 80 be 18 b0 e8 3d 66 9a 8d be 0d 9c 62 3e
       -0.25105765 0.11361712 -0.2765686 0.22129841
0003b0 7b b1 08 3e 92 52 32 bd cd b2 0e be 07 99 42 3e
       0.13348953 -0.043535776 -0.13935395 0.19003688
0003c0 4e 32 74 bd 4b 61 55 3e 6b 14 8a be a7 43 08 3e
       -0.059618287 0.20837896 -0.26968703 0.13307057
0003d0 97 61 4b 3d ed bf 02 be c7 7c ab 3d 0d 42 13 3d
       0.049653616 -0.12768526 0.08373409 0.035951663
0003e0 35 38 85 be 0f bf b2 bd 1e 02 24 be c1 1e e5 3d
       -0.26019445 -0.08727848 -0.16016433 0.111875065
0003f0 80 40 e0 bd e5 30 0f be 10 27 44 3e fc 70 ce bc
       -0.109498024 -0.13983496 0.19155526 -0.02520036

conv_layer3.bias f4 [20]
000000 a0 1a 35 3e 4e 80 96 3e 50 da 70 be 9b 94 cc bd
       0.17685938 0.29394764 -0.2352078 -0.09989282
000010 45 0f 4d 3e f6 0c 72 3d f2 b2 a3 3e 4b 21 3f 3c
       0.20025356 0.05909439 0.31972462 0.0116656525
000020 96 aa 86 3e ac 06 e9 bc 49 06 7a be 1f 9f 4d be
       0.26302022 -0.028445564 -0.2441646 -0.20080231
000030 0f 5c 85 bd 74 fd 06 be 63 a6 10 3e 55 bb b1 bd
       -0.065116994 -0.13182622 0.14125971 -0.08678309
000040 05 6e 95 be 4c f0 2d 3e 33 5c 19 3d 54 59 51 be
       -0.291855 0.16986197 0.037441444 -0.20444232

conv_layer4.weight f4 [25, 20, 1, 1]
000000 d4 aa e7 3d a3 bd f6 3b 14 08 a7 bb 84 62 ae bd
       0.1131188 0.0075299307 -0.0050973985 -0.08514884
000010 3b 68 41 3e eb 10 ee 3d c7 38 38 3e 9d 23 b2 bd
       0.18887417 0.116243206 0.17990409 -0.08698199
000020 e3 db 6c be 8c 1b 50 bc b3 b8 76 be b7 16 52 3e
       -0.23130755 -0.01270188 -0.24093895 0.20516478
000030 9d 79 9e bd 19 4c 82 3e 0d 81 0b be 87 ef 07 be
       -0.0773804 0.25448683 -0.13623448 -0.13274966
000040 bc 92 e6 3d 6d 9b 43 3e ba 9a 25 bc 03 e2 ab bc
       0.11258456 0.19102259 -0.0101076905 -0.020981794
000050 ea 42 90 3b bc a5 85 be 13 57 26 3e ef a3 bf 3d
       0.004402508 -0.26103008 0.16244154 0.0935744
000060 f4 f2 73 be 84 78 74 be 91 d0 d1 bc 16 93 67 be
       -0.23823148 -0.23874098 -0.025612148 -0.22614703
000070 5b 74 11 be c9 27 96 bc 44 f2 0f bd 65 8f a1 bd
       -0.14204542 -0.018329518 -0.035143152 -0.078886785
000080 d7 82 0b be 13 c2 17 3e 23 6e 54 be 73 fa a3 bd
       -0.1362413 0.14820127 -0.20745139 -0.08006754
000090 39 82 ca 3d f6 83 99 3d 3d 24 7a 3e 2b 4f 8e 3e
       0.09888119 0.07495873 0.24427886 0.27794775
0000a0 97 7f c1 be 65 25 c4 3d 2e 04 ba 3d 1c 5b 5e bd
       -0.37792656 0.09577445 0.090828285 -0.054286107
0000b0 85 4d bc 3d 3a c2 a1 3e 48 5b 2d be 2e 19 34 3e
       0.09194473 0.31593496 -0.16929352 0.1758773
0000c0 8b ed 8a 3e 21 02 63 3e dd 82 53 3c ca 59 06 3e
       0.27134356 0.22168781 0.012909618 0.1312019
0000d0 a7 ae 91 3e 15 df a3 3c 45 ab 60 3e a1 79 6d 3d
       0.28453562 0.020003835 0.21940334 0.057977322
0000e0 66 a7 5b be 21 ae 01 be 97 d0 75 be 41 7b 76 3d
       -0.21450576 -0.12664081 -0.24005352 0.060176138
0000f0 85 03 87 3d 1f 68 2e 3e b7 a6 93 3e b8 4f 42 bd
       0.06592468 0.17031907 0.2883813 -0.047439307
000100 32 97 e9 bd f0 88 3d bd 5d 8c fb bd 6d 07 f3 3d
       -0.11405791 -0.046273172 -0.122826315 0.11866651
000110 f2 de f4 3b ee cf 75 be 5e 29 91 3e 39 eb 4a be
       0.007472866 -0.240051 0.28351873 -0.19816293
000120 db a9 dc bc f5 f2 46 be da dc d4 3b 9b e7 0e be
       -0.026936462 -0.19428618 0.006496054 -0.13955538
000130 90 55 33 3d b5 1b 96 be 22 62 11 3e 1f d1 06 be
       0.04378277 -0.29318014 0.14197591 -0.13165711
000140 e4 28 11 3c a1 06 c0 3d 24 60 c5 bd bd a7 df bd
       0.008859847 0.09376264 -0.09637478 -0.109206654
000150 ae a9 9e 3e aa 41 17 3d 60 a7 5d be 3c 5b 64 3d
       0.3098883 0.036927857 -0.2164588 0.05575107
000160 b9 eb c4 bd ca 32 be bd 92 81 bb bd 1c 22 c5 3e
       -0.09615273 -0.09287031 -0.09155573 0.38502586
000170 ee 72 0b 3e 69 2e 14 3e 85 5d 27 be 8d 8f 83 bd
       0.13618061 0.14470829 -0.16344269 -0.064238645
000180 35 d2 17 bb 3f 2b 2d 3e 2d 19 8a bd 91 fa 25 bd
       -0.0023166065 0.16911028 -0.06743083 -0.040522162
000190 88 9e 37 3d 42 0a 25 be 86 25 53 be 01 f4 90 be
       0.04482892 -0.16117194 -0.20619783 -0.2831116
0001a0 28 95 0c 3e db e9 e8 bd c9 60 90 3d b1 42 64 bd
       0.13728774 -0.113727294 0.0704971 -0.055727664
0001b0 34 7f fa bd 30 64 83 3e 41 7c 97 be 70 9f 52 3e
       -0.12231293 0.25662374 -0.29586986 0.20568633
0001c0 82 63 b8 3b bd 71 bc bd 03 5d 41 be cd 7b 0a be
       0.0056270966 -0.09201381 -0.18883137 -0.13523789
0001d0 9f 01 81 3d 5a c7 80 3d 86 ea f7 3b 36 94 52 be
       0.06299137 0.06288023 0.007565799 -0.2056435
0001e0 50 c7 d2 bd 3a 2a 03 be 7e 07 11 3e fc 43 3a be
       -0.10291922 -0.12809077 0.14163014 -0.18189996
0001f0 02 73 6d 3e 80 21 4d 3e 85 8c 17 be 0a 51 8d 3d
       0.23188403 0.2003231 -0.14799698 0.069002226
000200 0d 1a 4b be 39 d4 6e 3e 4d 56 de bd f1 63 8b 3e
       -0.19834156 0.23323144 -0.10856304 0.27224687
000210 84 ee 4c be a4 c9 14 bc f6 9e 46 be fc 88 d1 3d
       -0.20012861 -0.009081278 -0.19396576 0.10231206
000220 a1 27 39 be 02 15 5e 3e 3e 57 ca 3d 8c 98 5e be
       -0.18081523 0.21687701 0.098799214 -0.2173788
000230 bf c0 b4 3d f4 9c df bd 3e 20 af 3e ec 76 52 3e
       0.08825826 -0.10918608 0.34204286 0.20553178
000240 a4 e9 e7 bd 9b bf 86 3c 0b 4a 43 3e cd 3f 38 be
       -0.1132386 0.016448786 0.19071214 -0.17993088
000250 e8 2d 9d bd 4f 97 87 be 08 ab 2d 3e b1 9d 97 be
       -0.076747715 -0.26482627 0.16959774 -0.29612496
000260 3d 50 d4 3d 92 93 a0 3c 27 0d 5d be 80 ec 93 be
       0.10366867 0.019601617 -0.21587048 -0.28891373
000270 1c 75 68 3d 19 dd 05 be a1 d9 ff 3d 43 dd 3d bd
       0.05675231 -0.13072623 0.12492681 -0.04635359
000280 53 49 1d 3d a7 cf c2 3c 1c 2b 87 3e 48 5c 44 be
       0.038400006 0.023780657 0.26400077 -0.19175828
000290 b8 58 93 bd ac 4b a5 3b 76 ce 6d 3d e9 63 07 be
       -0.07194656 0.005044421 0.058058225 -0.13221706
0002a0 2c 4f cf 3c 5e 22 52 be 12 a3 3c 3e f3 b6 c0 bd
       0.025306307 -0.20520923 0.18421581 -0.09409895
0002b0 37 b6 3b be e9 f0 09 3e 5d 25 58 be 70 4a 29 3e
       -0.18331228 0.13470806 -0.21108003 0.16532302
0002c0 f5 c1 8b 3e d2 8e 4a bb 68 74 8e 3e af c7 87 3e
       0.27296415 -0.0030907881 0.27823186 0.26519534
0002d0 4b cd ec 3d 5f 77 59 be 75 ca 99 3e 96 dc df 3b
       0.11562594 -0.21236943 0.30037275 0.006831716
0002e0 a9 9f 91 be e2 08 7f be 64 b4 47 3d 4f 60 4f 3d
       -0.28442124 -0.24905732 0.04875602 0.050628956
0002f0 e3 f0 cf bd ee 3a ac be 07 6c ce 3e 01 40 e0 be
       -0.10153367 -0.3363871 0.40316793 -0.4379883
000300 73 be 53 3e 8f 47 86 bc 06 6d 5e be 10 82 3c be
       0.2067812 -0.016391544 -0.21721277 -0.1840899
000310 ad 47 2b bc 1d 59 e4 be 10 20 53 3e 31 7b 22 3e
       -0.010454101 -0.44599238 0.206177 0.15867306
000320 4a a8 85 be cc 55 15 be b4 bb ad bd 8e 7e 39 3e
       -0.26104957 -0.1458351 -0.08483067 0.18114683
000330 64 6f 02 3d 20 18 9a 3d 25 3d 48 3c 89 a8 1a be
       0.03184451 0.07524133 0.012221609 -0.15103354
000340 78 64 66 bd 26 ad e7 3d 85 eb ed bd 50 0d 26 3e
       -0.05624816 0.11312322 -0.116171874 0.16216016
000350 d2 94 f9 bc ad a1 93 bd 7b 57 0f be a7 41 a9 bc
       -0.03046647 -0.072085716 -0.13998215 -0.020661188
000360 52 01 5d 3e b6 9e 84 bc 60 a3 4f be 25 0c 6c be
       0.21582535 -0.01618896 -0.20277166 -0.23051508
000370 5a 6d 5f 3e 17 f7 ad bd 72 2b 09 bd 2e a8 8a 3e
       0.21819058 -0.08494394 -0.0334887 0.27081436
000380 64 8f 95 3d 6a cf 8a be 3d 0d 02 be 0e e6 57 be
       0.0730274 -0.2711137 -0.12700363 -0.21083853
000390 70 f5 f9 bd 47 dd 78 be c0 f7 b1 3e ef 07 9e be
       -0.122050166 -0.2430316 0.3475933 -0.30865428
0003a0 46 1f 34 3d 44 e2 03 3d 12 ca 49 bd 2a b6 34 be
       0.043975137 0.032198206 -0.049264975 -0.17647615
0003b0 0f a7 ab bc f2 b7 b4 be 1a c4 5b 3e 53 6f de 3d
       -0.020953683 -0.3529659 0.21461526 0.10861077
0003c0 fd 64 88 bd 85 32 50 be f8 eb 65 be a9 b6 86 3c
       -0.06659887 -0.20331772 -0.22453296 0.016444521
0003d0 0f f5 7d 3e b0 81 b0 3d 59 ef 1b bd 2a 30 32 3c
       0.24800514 0.08618486 -0.038070057 0.010875741
0003e0 69 c2 25 be a6 53 4e 3e d3 b5 49 be 09 37 86 3e
       -0.16187443 0.20149097 -0.19698267 0.26213863
0003f0 65 e0 90 bd 66 82 18 be 04 90 c1 bd 66 56 74 3e
       -0.0707405 -0.14893493 -0.09451297 0.23861083

conv_layer4.bias f4 [25]
000000 3b 18 14 be 73 f8 1e be 07 11 4f be 8f 4f 55 3a
       -0.14462368 -0.15524463 -0.20221339 0.00081371603
000010 2d 3c 33 be 47 4a 0a 3e a4 68 9f bd 35 97 d4 3d
       -0.17503424 0.13504897 -0.077836305 0.10380403
000020 68 7e 1b 3d 75 7d 35 3d a4 d1 ec bd 0f 6f 1b be
       0.037962347 0.0443091 -0.11563423 -0.15179084
000030 20 d3 82 be ae f4 62 bd 87 94 97 bd 03 7d df bc
       -0.255517 -0.055409126 -0.07401376 -0.02728129
000040 fc 11 62 be 74 ca f2 3d d1 03 31 be dc 68 60 be
       -0.22077173 0.11855021 -0.17286612 -0.21915
000050 53 ca 72 3d 32 92 24 be cb db 6b be 4b 72 4c be
       0.059274983 -0.16071394 -0.23033063 -0.19965474
000060 7f e6 08 3e
       0.13369177

fc1.weight f4 [10, 1225]
000000 f3 7b 16 3d 23 cf f5 3c 63 52 5a 3c 9b b6 21 3d
       0.0367393 0.030005997 0.013325307 0.039480787
000010 df 24 7f bb 95 60 79 3c 71 ba 8b bc d0 b8 fb 3c
       -0.003893189 0.015220781 -0.017056676 0.030727774
000020 45 2d 92 bd 6a 7d c7 3c ba 0b 66 3d 17 6a bc bc
       -0.07137541 0.024351794 0.056163527 -0.022999806
000030 52 8e e9 bc ae a5 a4 3c ee 5a 7b bc e5 42 66 bd
       -0.028510246 0.020098533 -0.015341504 -0.05621614
000040 cd be 15 bd 5c 4e 06 3d ec 13 19 bc 2f a1 95 bc
       -0.036558915 0.032789573 -0.009343129 -0.018265335
000050 b4 0c 2b bc dc 4c c7 3c 9a 22 b0 39 26 20 d6 bb
       -0.01044004 0.024328642 0.00033595116 -0.006534594
000060 10 db 1b 3d dd 78 09 bb d3 a1 67 3d d1 bc a0 bb
       0.03805071 -0.002097658 0.056550812 -0.004905321
000070 e1 76 c1 bb d7 3e 98 3c 3d 6c d1 3b dc ea af 3c
       -0.005904064 0.018584652 0.006391077 0.021474294
000080 0c 2f fd 39 20 80 62 3d b8 36 16 3d eb 13 3d bc
       0.00048290973 0.05529797 0.036673278 -0.011540393
000090 18 f6 2e 3d 7f cb 3b bc 01 82 dd 3c 66 c2 fe 3c
       0.042715162 -0.0114620915 0.02703953 0.031098556
0000a0 4b d2 30 3d e5 4f 25 3d 87 1d c4 3c f2 42 6f 3c
       0.0431693 0.040359396 0.023939861 0.014603363
0000b0 c4 fa 02 bd f0 cf 9d bc 02 d1 a9 3c df e0 e9 3c
       -0.03197743 -0.019264191 0.020729546 0.02854961
0000c0 48 8a 2b bc 09 df e1 bb f5 59 62 3d c3 72 69 bb
       -0.010469981 -0.006893043 0.05526157 -0.0035621382
0000d0 8e b8 1c bd 4f 34 3d bb 05 b2 84 3d 8e 77 a9 3b
       -0.038261943 -0.002887029 0.06479267 0.0051717227
0000e0 34 40 6f 3c 02 0f 0f 3d 5f 34 f0 3c 0d 38 b5 bc
       0.01460271 0.034926422 0.029321847 -0.022121454
0000f0 16 60 e5 3b 66 88 39 3d b4 d5 18 3c ce b2 65 3c
       0.0069999797 0.045296095 0.009328295 0.014019681
000100 50 5c 85 3d 19 69 34 bc c4 b9 68 bb d2 73 7b bc
       0.06511748 -0.011011385 -0.0035511116 -0.015347438
000110 a2 ce b1 3b a7 f9 40 3d 66 cc a9 3c cb 62 94 bd
       0.005426244 0.047113087 0.020727348 -0.07245406
000120 8d 54 fc bc de 7e e4 bc 53 6c 0d 3c 7f dc a3 bd
       -0.030802036 -0.027892526 0.008631784 -0.08001041
000130 47 8b 1f bd d6 ee 41 3c f3 0d e1 bc 6d ad d0 bc
       -0.038951185 0.011836728 -0.027472472 -0.02547332
000140 9c 04 a8 bc ed 54 d2 3b 9a f6 62 bd f1 9e 5c bb
       -0.02051001 0.0064188153 -0.05541096 -0.0033664072
000150 a9 38 cd bc 24 d1 a6 bc 97 20 af 3c 45 55 9c 3c
       -0.025051432 -0.020363398 0.021377845 0.019083628
000160 34 41 23 bd 10 a5 d7 bc e8 dd 19 3b 98 df fd bc
       -0.039857104 -0.026323825 0.0023478214 -0.030990407
000170 33 0d 1d bc 0c b0 55 3a 45 e4 72 39 49 f8 85 3c
       -0.0095856665 0.0008151538 0.00023163955 0.016353743
000180 1c d1 8d 3b 74 07 a2 bc 67 b8 82 3c bd 05 e7 3c
       0.0043279063 -0.019778945 0.01595707 0.028200978
000190 8a c7 0d 3c 89 90 01 3d 46 a6 2c 3d 57 0f 1b 3d
       0.008653531 0.03163198 0.04215076 0.037856426
0001a0 89 7a 06 3d b9 65 69 3c 2d 77 8a bc 63 a9 4e bb
       0.032831702 0.014245444 -0.01690253 -0.0031534068
0001b0 16 bd 7e 3d 02 2f 59 3c 2f 51 1e bc 41 92 3d 3d
       0.062192045 0.013255836 -0.00966291 0.046282057
0001c0 6c e7 08 3d 07 32 be 3c 97 c1 81 bc 01 32 0f bc
       0.033423826 0.023217214 -0.015839381 -0.008739949
0001d0 77 95 21 bb 47 68 c2 3c dc 9b 98 bb e7 bc aa 3c
       -0.0024655738 0.023731364 -0.0046572518 0.020842029
0001e0 f0 4d 47 bb c5 b7 ff bc 22 f8 c8 bc 10 5d 0c bd
       -0.0030411445 -0.031215558 -0.024532381 -0.03426844
0001f0 ed 2a 44 3d c3 c4 9f 3c d8 ac 86 ba af 72 af 3c
       0.0478925 0.019503003 -0.00102749 0.02141699
000200 54 1c 3b bd d3 83 06 bd de 49 26 bd 96 01 77 3c
       -0.045681313 -0.03284056 -0.04059779 0.015076062
000210 dc fb 39 bc de 48 82 3c 7f 34 53 3c 24 19 a6 bd
       -0.011351552 0.015903886 0.012890934 -0.08110264
000220 ef 5a 75 bd 2e 68 39 bd 21 7d 2a 3d 39 52 df bc
       -0.059901174 -0.04526537 0.04162324 -0.027260887
000230 47 ea 5f 3c f9 c8 c2 bb 48 29 a1 bd fc e4 97 bd
       0.013666696 -0.005944368 -0.07869202 -0.07416722
000240 a5 57 05 bd 6e 73 b7 3c ad 70 33 3b 1a da be bb
       -0.032554287 0.022393908 0.0027380392 -0.0058243396
000250 94 35 9a 3d 5e 66 00 3d 2f 3a e0 3b 6a f8 d4 3b
       0.075297505 0.031347625 0.0068428735 0.00649934
000260 18 0a a4 3d b2 90 15 bb cf 4f 29 3d 21 7c 05 3d
       0.08009738 -0.002282184 0.041335877 0.03258908
000270 20 05 07 bc 17 d3 a9 3b c3 09 8f bc ec 2c d4 bb
       -0.008240968 0.0051826346 -0.01746071 -0.0064750817
000280 36 41 87 3d f2 82 9e 3d 01 33 9f 3d f2 1d 27 3d
       0.06604235 0.077398196 0.077734 0.040800042
000290 86 a8 b7 3a c6 af b3 bb aa f6 8b 3c c2 e2 86 3d
       0.0014012016 -0.0054836003 0.017085392 0.06586219
0002a0 26 09 e7 bb ea 67 55 bd 2f d1 ad 3c dd 2a 08 3c
       -0.007050651 -0.052101053 0.02121791 0.008311001
0002b0 d5 42 dd bc 2d 40 76 bd 1a 47 79 bd 7c 21 96 bc
       -0.027009407 -0.060119797 -0.060858823 -0.018326513
0002c0 a2 55 3c bd b6 bf 35 bc e4 4f 07 3c 21 f7 2c bd
       -0.045980103 -0.011093071 0.0082587935 -0.042227868
0002d0 1b e2 43 bd ef 6a 64 bd 34 ab 48 bc af a2 e0 bc
       -0.047823053 -0.055766042 -0.012247849 -0.027421324
0002e0 a9 5b 53 bc 11 cc 27 bd 85 2c 7b 3a 69 4c 98 bc
       -0.012900271 -0.040966097 0.0009581524 -0.018591123
0002f0 9e 2e 19 bd 3e 95 c6 bc f3 82 27 3d bb 8c c6 bc
       -0.037397973 -0.024241086 0.040896367 -0.024237027
000300 61 92 48 bc 5c 82 27 3b 58 29 00 3d 66 85 86 bd
       -0.012241931 0.0025559878 0.03128943 -0.065684125
000310 9c 00 c6 bb a4 55 3e 3b a5 f4 b0 3c 72 49 01 3d
       -0.006042553 0.0029042745 0.02160103 0.031564184
000320 2a e5 98 bc 44 57 04 3d 6d 39 3b bc 40 81 94 3c
       -0.018663961 0.032309785 -0.011427266 0.018128037
000330 22 1c a9 bd d5 3a f4 3b 80 3b e4 3c 4c 5e 74 3c
       -0.08257319 0.0074533024 0.027860403 0.01491506
000340 26 20 62 bd 94 f1 08 3d 31 bc 12 3d 73 1b 35 bd
       -0.05520644 0.03343351 0.035824005 -0.04421563
000350 9f 9e 2b bd 1f bf 85 bc be 2c 08 bc 73 9b 0a bd
       -0.04189932 -0.016326485 -0.008311449 -0.033839654
000360 fb 0f 25 3d 25 16 b9 3c 62 1f af 3c 5b 6c 00 bd
       0.040298443 0.022593567 0.02137727 -0.031353336
000370 85 b0 8c 3c 86 40 7d bc cf 9e 14 3d 75 c1 00 3d
       0.017174015 -0.015457278 0.036284264 0.031434495
000380 83 f6 21 bc 53 07 e4 3c 2b b9 8f bc 53 44 c0 3c
       -0.009885433 0.027835524 -0.01754435 0.02347008
000390 e6 bb 4e bc d2 ca 5d 3d a4 03 be bb 15 2d 48 3c
       -0.012618041 0.054148503 -0.005798774 0.01221778
0003a0 90 5a 8c 3d 50 b8 54 bd 65 0b a3 3c de 23 9c bb
       0.06853211 -0.051933587 0.019902894 -0.004765018
0003b0 64 52 64 3d 53 3c 0c 3d 7d 51 83 3c 8a d5 5b 3d
       0.055742636 0.034237217 0.016030068 0.053670444
0003c0 cd d2 f1 bc bd b5 2f bd 94 09 32 bd 4a 3f 18 3d
       -0.029519463 -0.04289793 -0.043466166 0.037169732
0003d0 e9 8f 41 bc ef 4a c1 3b 22 4d 78 bb 24 49 ad 3c
       -0.011814096 0.0058988254 -0.0037887772 0.02115304
0003e0 15 bd 0a 3d 6d 77 bc bb fd c6 2c 3c 56 c0 00 bc
       0.03387173 -0.0057515414 0.010545489 -0.007858356
0003f0 96 3a 82 bc 3d f0 97 bd af 89 60 3c 05 f0 56 3d
       -0.015897077 -0.07418869 0.013704701 0.052474994

fc1.bias f4 [10]
000000 56 57 ad 3c 5f 3c 8e bc 39 85 4a bc 0c 91 5b bc
       0.02115981 -0.017362772 -0.012360864 -0.013401281
000010 fe bb 5b bc b9 5e d7 bc a6 c5 fa ba 2a 9a 9a 3b
       -0.01341152 -0.026290284 -0.001913239 0.004718085
000020 df 53 5d ba 1a 77 94 bb
       -0.0008442979 -0.0045307996
