PythonCodes/Training-Testing/Models/ModelsForTesting/BasicModelTest.pt (torch, 182235 bytes, 10 tensors)

conv1.weight f4 [6, 3, 5, 5]
-0.15300526 0.0026330806 0.09990974 0.10506955 0.22868714 -0.09870417 0.028116437 0.25903645
0.22170196 0.09275825 -0.14906709 0.123586476 0.039283853 0.013258756 0.01698659 -0.14077975
-0.030998938 0.0075535816 0.18153717 0.0568546 -0.14256568 0.081499584 0.018394552 0.10754356
0.098670565 -0.27530974 -0.07479581 0.10121202 0.1743799 0.22789766 -0.05621975 0.05964195
0.15302013 0.1941766 -0.009420683 -0.13588275 -0.057533797 -0.043968476 0.1675248 0.014480109
-0.25135255 0.017382897 0.122478545 0.08582232 0.1427103 -0.15482073 -0.005892677 0.053499628
0.14222765 -0.046712812 -0.14490774 0.08319544 0.07799381 0.24222659 0.15998583 -0.18489575
0.14384288 0.22156209 0.1683594 0.08122954 -0.2151063 0.022320215 0.01769369 -0.00087121595
-0.016473074 -0.16699618 0.0047535957 0.06659283 0.026691396 -0.03457344 -0.19262236 0.027928622
-0.028351922 0.1576336 0.16475564 -0.00289356 0.06959817 -8.314593e-06 0.058505323 0.082471
-0.05117027 -0.08866377 -0.07845653 0.08556616 -0.04688731 0.09859538 -0.065030254 -0.09040417
-0.08748858 -0.08884665 0.06220813 -0.09506015 0.056687895 -0.1180535 0.08544346 -0.012724558
0.005666421 -0.011611295 -0.09401435 -0.019014746 -0.031724755 0.095180415 0.09979027 -0.015735481
-0.006330595 0.06711766 0.032378256 -0.029787196 -0.1016251 -0.06686147 0.006233968 -0.038445942
0.08147977 -0.007271982 0.010768884 -0.09648274 -0.09925783 -0.02513498 0.0016487199 0.05831555
-0.08288124 0.051144123 0.04566874 -0.055174697 -0.026262634 -0.031097863 -0.032497015 -0.016730102
0.0973249 -0.003503568 0.101050064 -0.084969305 0.064795345 -0.049815632 0.034490496 -0.11593618
-0.0628456 -0.012644213 -0.05340595 -0.090687834 -0.027283033 -0.026648447 0.0034545665 0.005718839
0.10624718 -0.0007687353 -0.09101316 0.092781454 -0.105577454 -0.07184426 0.19967748 0.11187494
0.0018923099 0.20725892 0.037492916 -0.034785368 0.03835535 0.11815215 -0.0016959889 0.0120335985
0.11717463 0.18444017 0.06771255 0.007020803 0.017467564 -0.10253166 0.08017838 0.18723112
0.13155623 -0.07716704 0.029896077 -0.06213818 0.16664937 0.04460368 -0.05519198 0.056813266
0.19275855 -0.0037394818 0.22947635 0.187973 0.014829783 0.05078801 0.12305367 0.01841843
0.060951363 0.13238093 0.16949885 0.037286483 -0.039982416 -0.0036503775 0.0891814 0.020065874
0.14208235 0.13664527 -0.10866978 0.050408095 -0.015608706 0.16835414 0.122694544 -0.063412614
0.22262278 0.27847204 0.07292329 0.15787044 0.086390965 0.07531756 0.21116418 0.25156695
0.13912547 0.07787057 0.12454319 0.18855546 0.14634167 0.07325355 -0.11339231 0.06569748
0.15283053 0.10885172 0.1554594 0.057526756 -0.056241106 0.067574605 0.23455489 0.08189175
-0.04387394 -0.0659419 -0.046408776 -0.061497323 -0.0490016 0.16637513 -0.05013736 0.036595672
-0.0017044892 -0.21144691 0.075954616 0.09747344 0.067082815 -0.0064950422 -0.17532265 0.07685366
0.028938184 0.112752 -0.08867756 -0.3104887 -0.042387422 -0.021092646 0.20197162 0.039850906
-0.1525348 0.06862069 0.09164859 0.11729873 0.011875133 -0.13386026 -0.010589991 0.037031896
00000000: 69ad 1cbe c38f 2c3b 7a9d cc3d b42e d73d
00000010: f62c 6a3e 6925 cabd 7154 e63c 6da0 843e
00000020: d705 633e 0af8 bd3d 0ba5 18be e81a fd3d
00000030: 1be8 203d 413b 593c 7627 8b3c 9128 10be
00000040: 7cf1 fdbc 0984 f73b e1e4 393e 5ee0 683d
00000050: bdfc 11be 41e9 a63d 2cb0 963c cc3f dc3d
00000060: cb13 ca3d 66f5 8cbe 8c2e 99bd 3f48 cf3d
00000070: a590 323e 015e 693e ae46 66bd 1e4b 743d
00000080: 4fb1 1c3e 3bd6 463e 3559 1abc d924 0bbe
00000090: 8fa8 6bbd 4a18 34bd 9f8b 2b3e fb3d 6d3c
000000a0: 48b1 80be 9466 8e3c 08d6 fa3d 9dc3 af3d
000000b0: a622 123e 5389 1ebe 5c17 c1bb 6d22 5b3d
000000c0: 20a4 113e ef55 3fbd b262 14be 5f62 aa3d
000000d0: 38bb 9f3d 3f0a 783e 53d3 233e 5055 3dbe
000000e0: 8c4b 133e 2ce1 623e 6866 2c3e ac5b a63d
000000f0: d344 5cbe e2d8 b63c 5bf2 903c 5062 64ba
00000100: 8af2 86bc 0c01 2bbe 0dc4 9b3b d261 883d
00000110: eaa7 da3c e19c 0dbd cc3e 45be 91ca e43c
00000120: 4a42 e8bc b46a 213e b4b5 283e e2a1 3dbb
00000130: 7c89 8e3d e87e 0bb7 47a3 6f3d 8ee6 a83d
00000140: eb97 51bd 5a95 b5bd d1ad a0bd 503d af3d
00000150: e80c 40bd 60ec c93d 952e 85bd d225 b9bd
00000160: 362d b3bd 3cf5 b5bd f4cd 7e3d e5ae c2bd
00000170: 9131 683d 09c6 f1bd fbfc ae3d aa7a 50bc
00000180: 62ad b93b 4d3d 3ebc 988a c0bd d0c4 9bbc
00000190: d1f1 01bd f3ed c23d d75e cc3d b2e7 80bc
000001a0: e170 cfbb fc74 893d 109f 043d 4704 f4bc
000001b0: d220 d0bd abee 88bd 5046 cc3b 7e79 1dbd
000001c0: dede a63d ce49 eebb f96f 303c be98 c5bd
000001d0: b047 cbbd e0e7 cdbc dc19 d83a 49dc 6e3d
000001e0: a4bd a9bd 807c 513d 250f 3b3d ddfe 61bd
000001f0: bc24 d7bc f2c0 febc 971b 05bd 910d 89bc
00000200: 4752 c73d 1e9c 65bb 56f3 ce3d 6304 aebd
00000210: 6cb3 843d 7a0b 4cbd e845 0d3d f36f edbd
00000220: 32b5 80bd ac29 4fbc 33c0 5abd 8bba b9bd
00000230: ab80 dfbc d84d dabc 0266 623b 1965 bb3b
00000240: 1f98 d93d f484 49ba 1c65 babd 3404 be3d
00000250: fe38 d8bd 1523 93bd 4178 4c3e b01e e53d
00000260: 6207 f83a af3b 543e 2c92 193d 1a7b 0ebd
00000270: 801a 1d3d c1f9 f13d f24b deba 9228 453c
00000280: 41f9 ef3d e2dd 3c3e e1ac 8a3d c40e e63b
00000290: 2318 8f3c 1efc d1bd 9034 a43d 84b9 3f3e
000002a0: adb6 063e c109 9ebd 9ee8 f43c 9b84 7ebd
000002b0: 22a6 2a3e 59b2 363d fc10 62bd 07b5 683d
000002c0: 7f62 453e 1812 75bb d9fb 6a3e fe7b 403e
000002d0: 9ef8 723c 1707 503d 9003 fc3d 3fe2 963c
000002e0: 23a8 793d de8e 073e 1b91 2d3e b6b9 183d
000002f0: 9ac4 23bd 2c3b 6fbb bda4 b63d 3061 a43c
00000300: 097e 113e bdec 0b3e 438e debd b878 4e3d
00000310: a8bb 7fbc 0765 2c3e 4747 fb3d 79de 81bd
00000320: 3af7 633e e393 8e3e ce58 953d caa8 213e
00000330: bfed b03d 1840 9a3d 6c3b 583e 62cd 803e
00000340: e876 0e3e 9b7a 9f3d 8010 ff3d af14 413e
00000350: 97da 153e f505 963d 3a3a e8bd 678c 863d
00000360: 9b7f 1c3e a7ed de3d c030 1f3e 2da1 6b3d
00000370: 135d 66bd 8e64 8a3d 282f 703e ddb6 a73d
00000380: 29b5 33bd 8c0c 87bd 2117 3ebd 9ee4 7bbd
00000390: e7b5 48bd 3e5e 2a3e d55c 4dbd 58e5 153d
000003a0: 2b69 dfba 8a85 58be 188e 9b3d 28a0 c73d
000003b0: b762 893d 5dd4 d4bb c887 33be 7465 9d3d
000003c0: c50f ed3c 85ea e63d 959c b5bd 60f8 9ebe
000003d0: 6f9e 2dbd 7cca acbc a6d1 4e3e b43a 233d
000003e0: 1532 1cbe 0189 8c3d 42b2 bb3d 513a f03d
000003f0: eb8f 423c aa12 09be a481 2dbc c2ae 173d

conv1.bias f4 [6]
0.008395404 -0.022018617 0.0027560506 0.09496208 -0.088424206 -0.10096622
00000000: e08c 093c 6360 b4bc db9e 343b 7b7b c23d
00000010: c017 b5bd 61c7 cebd

conv2.weight f4 [16, 6, 5, 5]
-0.365587 -0.1456644 -0.030487321 0.05644203 -0.008715253 -0.056264047 0.027276067 0.053208586
-0.015708258 -0.07401099 0.020348875 0.0692418 0.03123491 -0.07223113 -0.07686642 -0.038329594
-0.086035065 -0.031805918 -0.09402243 0.027039442 0.04750096 -0.042176962 -0.04182338 0.025118358
0.046893742 0.012109062 0.050068744 0.016275387 -0.057118285 -0.0661901 0.044496637 -0.031201947
0.06743101 -0.055831984 0.032924578 -0.01506215 -0.047814116 0.008511949 -0.0007234086 -0.00464325
0.016313693 -0.042167526 0.05619979 -0.0071559707 -0.0037474078 0.0802871 0.044025317 -0.028073177
0.065640025 -0.06518673 -0.4154438 -0.22327006 -0.19959146 -0.004070283 0.0982594 -0.06568153
0.099451885 0.071122855 -0.0062382985 -0.02566022 -0.04530507 0.10548446 0.11807101 -0.055263635
0.020779116 0.10775527 0.012594275 0.099948354 -0.057372056 0.021795645 0.055913523 0.17275481
0.07029046 0.10298788 0.1720448 -0.04962528 -0.070697784 -0.05372325 -0.043000337 -0.06917887
-0.09969315 -0.08367206 -0.08398984 -0.017827494 -0.0549785 -0.09080253 -0.13062082 -0.104716584
-0.10756404 0.021553066 -0.15479124 -0.18175334 -0.056815453 -0.15010816 -0.035846077 -0.117172204
-0.11560722 -0.10573572 -0.09187425 -0.041268226 -0.21830228 -0.07097707 0.06626944 -0.007424418
-0.009697395 -0.061240707 -0.014947741 0.052142598 0.014525283 0.027204404 0.040767744 0.087253086
-0.0035914804 -0.046183642 -0.0037087554 0.023083316 0.11298385 -0.06304688 0.042432345 0.060655348
0.053090293 0.19291963 -0.04035604 0.13393858 0.095744364 -0.06347185 -0.022424314 -0.10892321
0.007194517 0.067151874 -0.03355391 0.028240504 -0.09415473 -0.032177683 0.051078394 0.009485056
-0.063310325 -0.07776844 -0.110565886 0.017232178 -0.06333254 -0.11140148 -0.1485235 -0.0077495733
0.004584367 -0.02320338 -0.12809405 -0.074500725 -0.0071202368 0.038924452 -0.07885857 -0.08572902
-0.13167033 -0.12607461 -0.055157796 0.08862167 0.0445395 0.05108712 -0.037366144 -0.1421884
0.0200286 0.026018694 0.22241873 -0.05369495 -0.20308706 -0.04402262 0.11930721 0.1623959
0.001983881 -0.045740206 0.0011849127 -0.011501166 0.16516812 0.11567393 0.19293782 0.08195604
-0.01899319 0.0013545735 0.07951393 0.012962381 0.07970504 0.0318375 -0.07006171 -0.04233937
-0.06275443 -0.027520895 0.0514699 0.032096706 -0.07682193 0.039805844 0.070260026 0.07088455
0.027958486 0.03126324 0.07301161 0.05027086 -0.03475916 0.0387006 0.09077726 0.011878684
-0.1388974 -0.25005406 -0.14708126 -0.21488553 -0.26669574 0.026882574 0.05876203 0.2086116
-0.12829566 -0.49348757 0.0270812 -0.00470459 0.1786724 0.056344297 -0.35959515 0.11628122
0.019892106 0.109356925 0.072099924 0.033266537 0.15455379 -0.1285852 -0.0068875905 0.24957252
0.20390633 0.10103366 0.037524533 0.08553662 0.0951894 -0.040000897 0.06401006 0.04140956
0.2121173 0.17159005 0.0032819393 0.16000018 0.032878313 0.18753977 0.17138024 0.076891
0.11893825 0.1333454 0.037271433 0.039391257 -0.009495859 0.022109693 0.0959545 -0.026632773
-0.024800017 0.057066925 -0.11119764 -0.062364798 -0.12692122 -0.23538904 -0.19396707 0.013232598
00000000: 382e bbbe 0c29 15be 8cc0 f9bc c22f 673d
00000010: 6cca 0ebc 2175 66bd 0f72 df3c 3ff1 593d
00000020: 9bae 80bc 1393 97bd afb2 a63c a5ce 8d3d
00000030: 5be0 ff3c eaed 93bd 246c 9dbd 7eff 1cbd
00000040: 2733 b0bd ec46 02bd d58e c0bd d281 dd3c
00000050: 5e90 423d c0c1 2cbd fe4e 2bbd 04c5 cd3c
00000060: a713 403d 1665 463c e214 4d3d f653 853c
00000070: ddf4 69bd ad8e 87bd 1b42 363d 3a9b ffbc
00000080: 4519 8a3d 14b0 64bd ecdb 063d 3cc7 76bc
00000090: bcd8 43bd b475 0b3c 21a3 3dba 6726 98bb
000000a0: 4ba4 853c dbb7 2cbd c031 663d a27c eabb
000000b0: 1297 75bb 906d a43d e453 343d b8f9 e5bc
000000c0: 476e 863d 9f80 85bd 0db5 d4be e8a0 64be
000000d0: b461 4cbe 0260 85bb 393c c93d 0a84 86bd
000000e0: 6ead cb3d dca8 913d a46a ccbb 6235 d2bc
000000f0: cf91 39bd 3d08 d83d 37cf f13d 1f5c 62bd
00000100: f738 aa3c ccae dc3d 3858 4e3c b9b1 cc3d
00000110: f6fe 6abd c88c b23c 9405 653d a3e6 303e
00000120: 72f4 8f3d 4feb d23d 832c 303e e143 4bbd
00000130: 00ca 90bd e90c 5cbd 1f21 30bd a7ad 8dbd
00000140: ec2b ccbd 425c abbd dd02 acbd f70a 92bc
00000150: 2331 61bd adf6 b9bd 77c1 05be a675 d6bd
00000160: 894a dcbd 0e90 b03c 9881 1ebe 8c1d 3abe
00000170: 52b7 68bd f4b5 19be 56d3 12bd fbf7 efbd
00000180: 7ac3 ecbd f88b d8bd 9128 bcbd df08 29bd
00000190: a28a 5fbe 6d5c 91bd 46b8 873d 8848 f3bb
000001a0: d3e1 1ebc 89d7 7abd 5fe7 74bc 7a93 553d
000001b0: 74fb 6d3c c5db de3c 14fc 263d bfb1 b23d
000001c0: 0b5f 6bbb 0f2b 3dbd 970e 73bb 3919 bd3c
000001d0: 1464 e73d b91e 81bd 8acd 2d3d be71 783d
000001e0: 3575 593d b98c 453e 604c 25bd 3227 093e
000001f0: 9f15 c43d 87fd 81bd 32b3 b7bc 2213 dfbd
00000200: fcbf eb3b ec86 893d d36f 09bd a158 e73c
00000210: 32d4 c0bd bfcc 03bd 9437 513d 3567 1b3c
00000220: d8a8 81bd 0f45 9fbd 5e70 e2bd 7f2a 8d3c
00000230: 7eb4 81bd 7626 e4bd 8b16 18be 22f0 fdbb
00000240: 7538 963b 0415 bebc 162b 03be d693 98bd
00000250: e050 e9bb 3f6f 1f3d 9a80 a1bd b292 afbd
00000260: 96d4 06be b419 01be 24ed 61bd 477f b53d
00000270: 0d6f 363d ba40 513d 3e0d 19bd d699 11be
00000280: 0513 a43c 2825 d53c bcc1 633e 3cef 5bbd
00000290: 0ef6 4fbe 1051 34bd 5757 f43d 1c4b 263e
000002a0: 0004 023b 155a 3bbd 134f 9b3a 636f 3cbc
000002b0: d521 293e 74e6 ec3d 7e91 453e 91d8 a73d
000002c0: 9b97 9bbc f28b b13a 33d8 a23d 2b60 543c
000002d0: 653c a33d 0a68 023d 847c 8fbd 0c6c 2dbd
000002e0: 6585 80bd 8073 e1bc 1ad2 523d d677 033d
000002f0: d154 9dbd 740b 233d 7de4 8f3d eb2b 913d
00000300: 3209 e53c e20d 003d 1c87 953d d1e8 4d3d
00000310: 9f5f 0ebd 8584 1e3d 6ee9 b93d d09e 423c
00000320: 1f3b 0ebe 1607 80be 789c 16be f40a 5cbe
00000330: 588c 88be d838 dc3c 74b0 703d 479e 553e
00000340: f05f 03be 67aa fcbe 65d9 dd3c f628 9abb
00000350: e6f5 363e 47c9 663d db1c b8be d924 ee3d
00000360: c5f4 a23c 86f6 df3d 20a9 933d 7e42 083d
00000370: 5943 1e3e d7ab 03be 4cb1 e1bb f08f 7f3e
00000380: d2cc 503e bcea ce3d 53b3 193d d32d af3d
00000390: a9f2 c23d fbd7 23bd b517 833d 129d 293d
000003a0: 4735 593e 4db5 2f3e ce15 573b 16d7 233e
000003b0: 69ab 063d 6d0a 403e 4d7e 2f3e 0779 9d3d
000003c0: e695 f33d b28b 083e eea9 183d ba58 213d
000003d0: 8594 1bbc 631f b53c cb83 c43d f92c dabc
000003e0: 6829 cbbc 02bf 693d 97bb e3bd 3b72 7fbd
000003f0: a3f7 01be d309 71be 4e9f 46be 8acd 583c

conv2.bias f4 [16]
-0.16540281 0.14322364 0.10973786 -0.06481136 0.18340075 0.04951005 -0.025087593 -0.0044590104
-0.046884846 0.051440682 0.025922913 0.105485186 -0.00088727125 0.084175155 0.112750754 -0.043034952
00000000: 5b5f 29be 38a9 123e 3ebe e03d d1bb 84bd
00000010: 68cd 3b3e 0dcb 4a3d 7f84 cdbc e41c 92bb
00000020: 530a 40bd 77b3 523d 4a5c d43c 9e08 d83d
00000030: c497 68ba 0664 ac3d dee9 e63d 6b45 30bd

fc1.weight f4 [120, 256]
0.035981584 -0.051410627 0.026336756 -0.011744161 -0.09042238 -0.057086397 -0.05333541 0.042121228
0.0015640656 -0.038430963 -0.011589875 -0.03477087 0.042370517 0.06795825 0.048994344 -0.025973069
-0.036536604 -0.015441746 -0.08648616 -0.11357398 -0.030067207 -0.03714952 -0.05137811 -0.030741556
0.0036357136 0.052445207 -0.055417534 0.027454011 0.055308383 0.0779773 0.01237757 -0.052282676
0.05100615 0.04689402 0.049787544 0.10271504 0.08723474 -0.013774541 0.02669739 0.010424959
0.07390586 0.031010758 -0.060128458 -0.048024457 0.072671026 -0.045898866 -0.058656942 0.008439655
-0.0019074306 0.04694196 0.023992859 -0.019623872 0.023550633 0.057913713 0.060589675 -0.050600234
-0.029275797 0.030916378 -0.020112094 0.0053400747 0.01298335 -0.009601789 0.043846317 0.009835982
0.033599306 0.10655976 0.15047085 0.17489594 0.05448485 -0.044407465 0.052083567 0.08624143
0.0455719 -0.03852066 -0.092343085 0.050711725 -0.03485143 -0.034865726 0.068822585 0.03129628
-0.058443993 0.035256173 0.028425496 -0.04847375 -0.060167346 0.03775765 0.049517777 -0.052782852
-0.013729423 0.032462355 -0.048517596 0.04530918 -0.043938495 -0.054451816 -0.020315386 0.0047985106
0.0028159164 0.016066369 -0.021407764 0.070137024 -0.05857881 -0.04196795 -0.028764091 -0.009747064
0.037604008 -0.019269085 -0.04952988 0.03793035 0.0077887545 -0.044570148 -0.026792135 0.009194582
0.020630965 0.06820763 0.056520294 0.00023709862 0.103414185 0.052298285 0.06340393 -0.010253668
0.06862328 0.003212617 0.008715174 0.045357686 -0.08646313 -0.028000139 -0.09229086 0.027404122
-0.0046041114 0.006951939 -0.032239694 -0.031688876 -0.049015846 0.02408651 0.011929142 0.023915915
-0.012006528 0.017479902 -0.027965607 0.05796146 -0.030619206 0.060932845 -0.015260849 -0.007247902
-0.025191175 -0.019461943 0.024687031 0.06894496 0.035133164 0.007812541 0.03082392 0.022942487
0.039022658 0.015597779 -0.01552691 0.0025572837 0.017673288 -0.054031316 -0.024570083 0.0038315067
-0.033889804 -0.026959019 -0.020872835 0.017358247 -0.08525506 -0.0349871 0.03365676 -0.030774666
-0.009819068 -0.07954192 -0.028452447 0.04721127 0.0460334 0.024368292 0.030695796 -0.03750117
-0.03977802 -0.03650734 -0.014913842 -0.040990323 -0.047450922 -0.056721233 -0.046405256 0.052347634
-0.0313683 0.0139869265 0.050370876 0.07908636 0.09935638 0.059897136 -0.051240146 -0.004430926
-0.009585121 0.062316537 0.0020598322 0.044140607 -0.039146718 0.0338239 -0.00043265522 -9.474158e-05
-0.013929769 0.022357836 0.00024267286 0.0010419339 -0.0227473 0.024847768 -0.045416754 -0.017347634
0.017265001 -0.083844356 0.011744718 0.034958474 -0.014171426 0.031513143 0.031815764 -0.04126652
0.012177009 0.034012552 -0.042000715 -0.060031515 -0.042295378 -0.0013360475 0.04113518 -0.038861834
0.047466733 -0.08922576 0.04690098 0.0130162025 -0.024264224 0.0065888898 -0.07741261 0.037427794
-0.04091557 0.015094082 -0.017623832 -0.023125345 -0.030896353 0.114518575 0.03247723 0.02852037
0.042503655 -0.02723902 -0.013553451 -0.04211029 0.05264962 -0.053586036 -0.032079753 0.0042814254
0.013325288 -0.056195315 -0.0554242 -0.032201786 -0.040539257 -0.00026520758 0.02660396 -0.058583498
00000000: 6d61 133d f393 52bd 2ec0 d73c 956a 40bc
00000010: 5e2f b9bd 6dd3 69bd 3b76 5abd 4f87 2c3d
00000020: 5501 cd3a c969 1dbd 76e3 3dbc e66b 0ebd
00000030: b58c 2d3d b22d 8b3d 4bae 483d 79c5 d4bc
00000040: 68a7 15bd 61ff 7cbc a81f b1bd 7a99 e8bd
00000050: 814f f6bc 182a 18bd da71 52bd b7d5 fbbc
00000060: 2745 6e3b c9d0 563d 7ffd 62bd 3ce7 e03c
00000070: 0b8b 623d 90b2 9f3d 4bcb 4a3c 5c26 56bd
00000080: d3eb 503d f213 403d 06ee 4b3d 435c d23d
00000090: 21a8 b23d 9dae 61bc 7cb4 da3c 72cd 2a3c
000000a0: f55b 973d 460a fe3c 4249 76bd 4bb5 44bd
000000b0: 8cd4 943d 7300 3cbd 4342 70bd 7b46 0a3c
000000c0: c002 faba 3646 403d ac8c c43c 3ec2 a0bc
000000d0: 42ed c03c ee36 6d3d e12c 783d 3142 4fbd
000000e0: ccd3 efbc 5844 fd3c 1ec2 a4bc cbfb ae3b
000000f0: 1eb8 543c d250 1dbc 3298 333d 1927 213c
00000100: 6d9f 093d 013c da3d 0815 1a3e ec17 333e
00000110: 822b 5f3d 9ae4 35bd 9455 553d 599f b03d
00000120: 9aa9 3a3d d7c7 1dbd 5f1e bdbd 19b7 4f3d
00000130: 60c0 0ebd 5dcf 0ebd dbf2 8c3d 8730 003d
00000140: f862 6fbd c768 103d 96dc e83c 698c 46bd
00000150: 0972 76bd c4a7 1a3d 27d3 4a3d d532 58bd
00000160: 60f1 60bc 3ff7 043d 63ba 46bd 1e96 393d
00000170: daf8 33bd de08 5fbd 746c a6bc d33c 9d3b
00000180: 3d8b 383b 9e9d 833c 565f afbc 00a4 8f3d
00000190: 56f0 6fbd 96e6 2bbd aca2 ebbc 26b2 1fbc
000001a0: a906 1a3d 33da 9dbc d8df 4abd db5c 1b3d
000001b0: cf38 ff3b 308f 36bd 2e7b dbbc dfa4 163c
000001c0: 4502 a93c 71b0 8b3d d381 673d ad9d 7839
000001d0: d1ca d33d ba36 563d ebd9 813d 00ff 27bc
000001e0: 5d8a 8c3d c58a 523b 17ca 0e3c fbc8 393d
000001f0: 9513 b1bd 8c60 e5bc fe02 bdbd 9c7e e03c
00000200: 16de 96bb 17cd e33b c50d 04bd 32cc 01bd
00000210: d7c4 48bd 1351 c53c 7372 433c 4feb c33c
00000220: 07b7 44bc 0332 8f3c 2118 e5bc ff68 6d3d
00000230: 21d5 fabc b894 793d a408 7abc cf7f edbb
00000240: b95d cebc a76e 9fbc 753c ca3c 0433 8d3d
00000250: cbe7 0f3d 2c00 003c 7282 fc3c e2f1 bb3c
00000260: 39d6 1f3d d48d 7f3c 9564 7ebc 1a98 273b
00000270: 92c7 903c f14f 5dbd 3347 c9bc 041a 7b3b
00000280: 09d0 0abd 29d9 dcbc 82fd aabc e232 8e3c
00000290: 349a aebd a24e 0fbd acdb 093d 271b fcbc
000002a0: 28e0 20bc e0e6 a2bd 1b15 e9bc 9b60 413d
000002b0: 858d 3c3d 03a0 c73c c075 fb3c d49a 19bd
000002c0: 47ee 22bd b888 15bd 3059 74bc 78e5 27bd
000002d0: e65b 42bd 8654 68bd 7013 3ebd 796a 563d
000002e0: 0c7c 00bd 6c29 653c b151 4e3d 08f8 a13d
000002f0: 5c7b cb3d b356 753d 30e1 51bd 4d31 91bb
00000300: e90a 1dbc a03f 7f3d 40fe 063b c8cc 343d
00000310: 4f58 20bd ee8a 0a3d 00d6 e2b9 00b0 c6b8
00000320: b039 64bc c827 b73c 0076 7e39 8091 883a
00000330: 8c58 babc 8c8d cb3c eb06 3abd a01c 8ebc
00000340: 556f 8d3c 97b6 abbd eb6c 403c 9e30 0f3d
00000350: 452f 68bc ed13 013d 3f51 023d 1507 29bd
00000360: 1482 473c bf50 0b3d f108 2cbd 9be3 75bd
00000370: eb3d 2dbd 511e afba 5d7d 283d 962d 1fbd
00000380: 7a6c 423d ffbb b6bd 3e1b 403d e941 553c
00000390: c4c5 c6bc 9de7 d73b 818a 9ebd e34d 193d
000003a0: 1697 27bd 2b4d 773c db5f 90bc 5d71 bdbc
000003b0: 591a fdbc b788 ea3d d806 053d 8da3 e93c
000003c0: 5018 2e3d 5e24 dfbc 4b0f 5ebc d77b 2cbd
000003d0: 21a7 573d 087d 5bbd 0f66 03bd 334b 8c3b
000003e0: 4f52 5a3c 0f2d 66bd 7c04 63bd 05e6 03bd
000003f0: 7e0c 26bd 8f0b 8bb9 8cf0 d93c 40f5 6fbd

fc1.bias f4 [120]
0.08573081 0.0039128624 0.085842215 -0.008213821 -0.007985602 -0.0400685 -0.033333648 0.17085375
-0.06500962 -0.039180316 0.0039017627 0.02141692 -0.043516867 0.06580673 0.02285669 -0.037334625
-0.03848881 -0.04313981 0.005533593 0.0570352 0.04717243 0.011740836 0.012376763 0.0055670184
-0.06280024 -0.06538806 0.0246475 0.0065963673 0.024365546 0.007042033 -0.0031141462 0.042147953
-0.052046955 -0.0024076137 0.015095534 0.025263565 0.068731025 0.055943433 -0.028815811 -0.032381594
0.02625098 -0.023782391 -0.022081383 -0.029134037 -0.05118627 0.019005833 0.032084126 0.047099773
0.056725293 0.0014928475 0.023887469 -0.04235009 0.041747183 0.031021504 -0.052788734 -0.040085055
0.029249309 0.038930226 -0.018468488 -0.043482084 -0.011787636 -0.016033115 0.08724242 -0.041394494
0.042792205 -0.03223936 0.07077534 -0.047860786 -0.009134169 0.033271898 -0.035443395 0.07595779
-0.020761574 -0.032984346 0.023452789 0.012637305 0.052078787 -0.014744801 -0.05565283 -0.0060318564
0.0110772755 -0.01536786 0.06928324 -0.017562717 0.023926565 0.023348799 0.002170293 0.033616655
0.05556544 -0.035702426 -0.009701518 0.014437522 0.03338296 0.0016589649 -0.044991605 0.027065614
-0.046603218 0.069749966 -0.010032315 -0.02747082 -0.045277506 0.062510386 0.05741318 0.0039809393
-0.03172495 0.04895288 0.011668999 0.016503442 0.064523585 0.06507083 0.055990014 -0.056888353
0.023880456 -0.040298443 0.016041216 0.004314541 -0.0029268847 0.012191961 -0.037341498 -0.08084454
00000000: a393 af3d 7837 803b 0bce af3d 4393 06bc
00000010: 0bd6 02bc de1e 24bd dd88 08bd 49f4 2e3e
00000020: c323 85bd 8a7b 20bd b7b4 7f3b 8972 af3c
00000030: be3e 32bd aec5 863d f43d bb3c 31ec 18bd
00000040: 71a6 1dbd 5fb3 30bd 2453 b53b be9d 693d
00000050: e137 413d a35c 403c e8c7 4a3c 896b b63b
00000060: 6a9d 80bd 2dea 85bd 8ee9 c93c 5726 d83b
00000070: 419a c73c dbc0 e63b b416 4cbb 55a3 2c3d
00000080: 302f 55bd 0ec9 1dbb 4253 773c 89f5 ce3c
00000090: dac2 8c3d f124 653d 230f ecbc 90a2 04bd
000000a0: 4c0c d73c 4ad3 c2bc 04e4 b4bc 81aa eebc
000000b0: b2a8 51bd 1fb2 9b3c a56a 033d b1eb 403d
000000c0: c858 683d a6ab c33a a7af c33c 4a77 2dbd
000000d0: 18ff 2a3d cf20 fe3c 0039 58bd 3a30 24bd
000000e0: 3f9c ef3c 4d75 1f3d 3a4b 97bc 451a 32bd
000000f0: ee20 41bc e157 83bc 27ac b23d 468d 29bd
00000100: e146 2f3d 6b0d 04bd a9f2 903d ac09 44bd
00000110: 7ba7 15bc 1d48 083d 182d 11bd c28f 9b3d
00000120: 2d14 aabc 981a 07bd 1020 c03c b30c 4f3c
00000130: 9150 553d 2e94 71bc 39f4 63bd e1a6 c5bb
00000140: 767d 353c 7ac9 7bbc 5fe4 8d3d b0df 8fbc
00000150: a501 c43c fb45 bf3c 793b 0e3b 9eb1 093d
00000160: 9698 633d b53c 12bd 1ef3 1ebc 5b8b 6c3c
00000170: 92bc 083d a071 d93a 1e49 38bd b5b8 dd3c
00000180: 04e3 3ebd 12d9 8e3d 945e 24bc 7c0a e1bc
00000190: e874 39bd 7205 803d 152a 6b3d 8a72 823b
000001a0: 05f2 01bd d182 483d 542f 3f3c 3a32 873c
000001b0: f124 843d db43 853d c955 653d c303 69bd
000001c0: f2a0 c33c fb0f 25bd de68 833c fe60 8d3b
000001d0: fad0 3fbb cac0 473c 66f3 18bd d291 a5bd

fc2.weight f4 [84, 120]
0.02688839 -0.04972913 -0.033295315 0.06637953 -0.10841259 0.051358186 0.008322959 0.06636471
0.0064759376 -0.016988326 0.012574623 0.016784389 -0.036757927 -0.004607695 0.052353032 -0.05553853
0.07948143 -0.051409632 -0.019474857 -0.07682267 0.017062278 -0.014348702 -0.10251265 -0.032526247
0.04668694 -0.0075547355 0.08317025 0.013666678 -0.020233275 -0.07285659 0.054034106 -0.06153144
-0.08427501 0.054355834 -0.024198031 -0.0006728452 0.021891778 0.0036968333 0.02537248 -0.07423437
0.041165005 -0.07944244 0.016285213 0.06681304 -0.023474995 0.020569205 0.048281457 -0.035899144
-0.014820587 0.06320018 0.022729602 -0.045739472 0.0010490168 0.046764888 -0.046734493 -0.022539753
-0.08082322 0.011772781 0.06720393 0.056738753 -0.016619103 0.07560022 -0.09882357 -0.0214029
0.062491763 -0.07193391 0.037557136 -0.048879582 0.07719878 0.03283513 0.08516896 0.005391313
-0.05823753 -0.039572712 -0.0809916 0.010742124 0.03814834 0.051694777 -0.045716774 0.008449772
0.021926237 0.0575964 -0.054857854 0.054223444 -0.073027164 -0.004038156 -0.028761012 -0.05833213
-0.021364108 -0.052622907 -0.020091143 -0.023463795 -0.04891226 -0.084267005 -0.070425615 0.061432093
0.03412124 -0.057129927 -0.07472821 -0.070846565 -0.09171621 -0.05061051 -0.09549023 -0.009157001
-0.09521861 -0.0017899221 -0.08475291 0.048683863 -0.1001313 -0.065655194 0.017687034 0.07540195
-0.01730284 0.052029263 -0.08464974 -0.11071865 -0.034716815 0.02289722 -0.015775166 -0.037466466
-0.017511703 -0.1535332 -0.068107925 0.08666161 0.0840567 0.068011336 0.083531275 0.14057893
0.014851439 0.04553929 -0.030605549 -0.06397886 -0.08813214 0.011918849 -0.021001942 0.012827524
0.02445817 0.0503414 -0.01732293 0.029161243 -0.109594576 0.02837267 -0.0033444348 0.0078042555
0.0030261846 0.068236426 0.08319273 0.08273373 -0.005343856 -0.08658864 -0.0756012 -0.09966906
-0.0072911293 -0.06635106 -5.3154563e-05 -0.001022823 -0.0038744838 -0.1550295 -0.041285787 -0.065558895
0.022125054 0.014542421 -0.017065847 -0.06732004 0.06191691 0.017743008 -0.044325057 0.019972747
-0.015957084 -0.088990584 -0.009219774 -0.053460218 0.003928374 0.0933965 -0.020060604 -0.007338875
0.03553333 -0.0415599 -0.0013760016 0.016623389 0.05027642 -0.050644 0.1513645 -0.0790926
-0.08292491 0.06746561 0.058346238 0.10367704 -0.08996021 0.018945556 -0.078263305 0.16536626
-0.00039126142 -0.07211268 -0.018947633 -0.04830219 0.0394375 -0.047180638 0.08847915 0.007532211
0.072325826 0.02223201 -0.048829176 -0.088401526 0.0048460285 -0.0056163156 0.028834658 0.08062388
0.018068032 0.022907777 0.0167773 -0.04018812 -0.05521813 0.0015440314 0.0828848 -0.0532257
-0.0060956557 -0.09903127 0.0048622154 -0.05487331 0.06540614 -0.059011996 0.12350901 0.009278476
-0.17056017 0.007886498 0.03985942 0.07049888 0.049116105 0.16914222 -0.015046372 -0.031021487
0.06604497 0.050857693 0.008267834 0.040661443 -0.0966349 0.091684714 0.051380903 0.031273305
-0.12406024 -0.07912889 0.099061586 -0.01236358 0.012502856 -0.0049720895 0.03369931 0.004941255
-0.08442133 0.054516137 -0.058984455 0.059825264 0.07070817 -0.0649061 0.11174759 -0.015592843
00000000: 0a45 dc3c c6b0 4bbd ab60 08bd fef1 873d
00000010: 6c07 debd f65c 523d 055d 083c 39ea 873d
00000020: 1a34 d43b 1a2b 8bbc cb05 4e3c 6a7f 893c
00000030: 7b8f 16bd 26fc 96bb 2270 563d 5f7c 63bd
00000040: 29c7 a23d e892 52bd bc89 9fbc 3455 9dbd
00000050: 31c6 8b3c d116 6bbc 27f2 d1bd 3e3a 05bd
00000060: ce3a 3f3d b78d f7bb 2a55 aa3d 34ea 5f3c
00000070: 41c0 a5bc d635 95bd de52 5d3d 6408 7cbd
00000080: 6098 acbd 39a4 5e3d f33a c6bc e161 30ba
00000090: 6356 b33c 9246 723b f2d9 cf3c 3008 98bd
000000a0: a39c 283d b8b2 a2bd 9168 853c 46d5 883d
000000b0: a24e c0bc c080 a83c c7c2 453d fb0a 13bd
000000c0: 0cd2 72bc 196f 813d 6e33 ba3c 5059 3bbd
000000d0: 2a7f 893a 8a8c 3f3d ab6c 3fbd 4aa5 b8bc
000000e0: a586 a5bd 9fe2 403c 37a2 893d e566 683d
000000f0: c924 88bc 4ad4 9a3d 0364 cabd 2255 afbc
00000100: 5df7 7f3d 1652 93bd 83d5 193d f535 48bd
00000110: 651a 9e3d 217e 063d 106d ae3d 9da9 b03b
00000120: 7a8a 6ebd ff16 22bd edde a5bd bcff 2f3c
00000130: 6f41 1c3d e7bd 533d 8341 3bbd ea70 0a3c
00000140: a79e b33c 34ea 6b3d a1b2 60bd 6719 5e3d
00000150: 448f 95bd 8252 84bb 379c ebbc aced 6ebd
00000160: c803 afbc 1e8b 57bd 2e96 a4bc 2537 c0bc
00000170: 3958 48bd 2e94 acbd 4e3b 90bd 38a0 7b3d
00000180: b7c2 0b3d 1201 6abd 1b0b 99bd 0118 91bd
00000190: b5d5 bbbd f74c 4fbd 6290 c3bd 3f07 16bc
000001a0: f901 c3bd d29b eaba ef92 adbd bb68 473d
000001b0: a411 cdbd 3b76 86bd 66e4 903c 566c 9a3d
000001c0: afbe 8dbc a31c 553d d85c adbd 76c0 e2bd
000001d0: 3833 0ebd f392 bb3c ec3a 81bc 7076 19bd
000001e0: b474 8fbc cf37 1dbe 2b7c 8bbd a47b b13d
000001f0: eb25 ac3d 8749 8b3d 7212 ab3d ecf3 0f3e
00000200: 7353 733c 6887 3a3d 7db8 fabc 5907 83bd
00000210: a07e b4bd 4747 433c 440c acbc 892a 523c
00000220: 805c c83c c932 4e3d d1e8 8dbc 8fe3 ee3c
00000230: 1f73 e0bd cd6d e83c 4e2e 5bbb d7ba ff3b
00000240: f452 463b 8abf 8b3d f360 aa3d 4d70 a93d
00000250: 831b afbb 6355 b1bd cdd4 9abd 4b1f ccbd
00000260: 6dea eebb 11e3 87bd 47f2 5eb8 3f10 86ba
00000270: 0deb 7dbb 0ec0 1ebe 491b 29bd be43 86bd
00000280: 9a3f b53c 5643 6e3c adcd 8bbc 17df 89bd
00000290: 969c 7d3d c959 913c 318e 35bd e39d a33c
000002a0: 6eb8 82bc b240 b6bd 890e 17bc 1af9 5abd
000002b0: 97b9 803b aa46 bf3d 2356 a4bc f27a f0bb
000002c0: 668b 113d b73a 2abd f45a b4ba c62d 883c
000002d0: a6ee 4d3d 1570 4fbd 4cff 1a3e 4dfb a1bd
000002e0: 89d4 a9bd 692b 8a3d 77fc 6e3d a154 d43d
000002f0: 0f3d b8bd b633 9b3c 8348 a0bd c655 293e
00000300: 3822 cdb9 d0af 93bd 1138 9bbc 84d8 45bd
00000310: 3789 213d 7c40 41bd 8e34 b53d c4d0 f63b
00000320: 901f 943d e71f b63c 1a01 48bd dc0b b5bd
00000330: 6fcb 9e3b 1209 b8bb a936 ec3c 221e a53d
00000340: 6903 943c 17a9 bb3c 8c70 893c 4c9c 24bd
00000350: 682c 62bd 1961 ca3a 82bf a93d 3103 5abd
00000360: 11be c7bb e8d0 cabd 3853 9f3b d6c2 60bd
00000370: a8f3 853d 90b6 71bd 4bf2 fc3d c004 183c
00000380: 53a7 2ebe 5f36 013c a243 233d b861 903d
00000390: f82d 493d 9e33 2d3e 0f85 76bc c620 febc
000003a0: 9642 873d 2850 503d cf75 073c 9d8c 263d
000003b0: 85e8 c5bd 32c5 bb3d c874 523d 7018 003d
000003c0: 4c13 febd 540e a2bd cde0 ca3d 9d90 4abc
000003d0: c7d8 4c3c e9ec a2bb 4a08 0a3d 40ea a13b
000003e0: 17e5 acbd 504c 5f3d af99 71bd 560b 753d
000003f0: 72cf 903d 7ded 84bd ecdb e43d 2079 7fbc

fc2.bias f4 [84]
-0.07022927 0.09977561 0.07458043 -0.12275716 0.007215828 -0.08669427 0.040777043 -0.025336837
-0.049202077 0.040528722 0.05354931 -0.05666828 0.08428217 0.027360875 -0.090527825 0.13775328
-0.03467312 0.0073240255 0.05317611 0.050700128 0.14594032 -0.051316544 0.054374468 -0.018571235
-0.099053055 0.00073058624 0.16757509 -0.06747477 0.197564 -0.06904243 0.037363753 -0.06736139
0.17286442 -0.07355485 0.10867302 0.020526607 0.02909335 -0.013763103 0.0992577 0.017960263
0.007855577 0.054632347 -0.06483457 -0.04294895 0.0016042574 0.13675313 -0.07841888 0.046036284
-0.027496384 0.09731262 0.06006151 0.036441676 -0.052700326 -0.05266813 0.04858354 0.043172643
0.18407498 0.07561939 -0.03196143 -0.05205266 0.14239423 0.045327786 -0.09444561 -0.0030839858
-0.0062109707 0.050157793 0.20941332 0.0019588012 -0.06957375 0.012318042 -0.064132705 0.0143071925
0.003556355 -0.011448778 0.0754379 0.009473035 -0.074087635 -0.024319805 -0.009910257 -0.015936222
0.11892535 0.026890779 0.18869624 -0.0074269366
00000000: 5dd4 8fbd 2857 cc3d a0bd 983d 1b68 fbbd
00000010: c172 ec3b c48c b1bd d405 273d 338f cfbc
00000020: 1e88 49bd 7201 263d 8556 5b3d 001d 68bd
00000030: 219c ac3d ea23 e03c a766 b9bd 320f 0d3e
00000040: 6705 0ebd 61fe ef3b 31cf 593d f0aa 4f3d
00000050: 6171 153e 4c31 52bd c3b7 5e3d b422 98bc
00000060: 54dc cabd d084 3f3a ce98 2b3e 3630 8abd
00000070: 384e 4a3e 1e66 8dbd bc0a 193d c5f4 89bd
00000080: 5f03 313e eda3 96bd f68f de3d 6a27 a83c
00000090: 2d55 ee3c a37e 61bc 9f47 cb3d 6721 933c
000000a0: aeb4 003c 2bc6 5f3d fdc7 84bd 3deb 2fbd
000000b0: f245 d23a 0309 0c3e 149a a0bd 8b90 3c3d
000000c0: 1940 e1bc d74b c73d 0f03 763d de43 153d
000000d0: 4cdc 57bd 89ba 57bd 89ff 463d ccd5 303d
000000e0: 277e 3c3e 57de 9a3d fde9 02bd 2c35 55bd
000000f0: cbcf 113e a1a9 393d b36c c1bd b21c 4abb
00000100: 6685 cbbb 4272 4d3d 7270 563e 3b5f 003b
00000110: af7c 8ebd 9dd1 493c 0258 83bd b768 6a3c
00000120: bc11 693b a893 3bbc 307f 9a3d ca34 1b3c
00000130: 42bb 97bd 543a c7bc a15e 22bc ae8c 82bc
00000140: 228f f33d 0d4a dc3c 9639 413e a95d f3bb

fc3.weight f4 [10, 84]
-0.0040600086 0.31670853 -0.014869883 -0.0426477 0.05534902 0.015656123 0.07403023 0.056226116
-0.057138268 -0.081801 0.012727628 -0.13380046 0.05627519 -0.04523249 -0.046939753 -0.042242654
-0.10177296 -0.09112745 0.08626469 -0.13031405 -0.06750597 -0.009476267 0.3987454 -0.14701106
0.09624884 -0.091699906 0.22284402 -0.13025865 0.18710038 0.0777197 -0.03306523 -0.08287772
-0.18236318 0.105048485 0.16202341 0.034205787 0.21203175 -0.19364397 0.08325234 -0.1084456
-0.012848403 -0.006233678 -0.063258916 0.07994426 -0.0031662686 0.04012915 -0.03616768 0.08251045
-0.003961152 -0.11040891 0.108865716 0.058078494 -0.043519437 0.0010229492 -0.002149254 -0.12700835
0.28460866 0.08621771 0.07645995 -0.028157678 0.06113542 0.019749004 -0.04417457 0.013983008
-0.10906461 0.057850055 0.30300912 -0.17274192 -0.04785404 -0.10959434 -0.046406243 -0.0756449
-0.086611204 -0.23664589 0.04494228 -0.06493259 -0.06941603 0.12151906 0.14865895 -0.045296684
-0.055591173 -0.08495606 -0.023468234 0.23494548 0.08905072 0.11838678 -0.06085897 0.13559565
-0.105165385 -0.1533138 0.20073912 -0.13547662 0.3045291 -0.10782396 -0.020422326 0.14624374
-0.12617917 -0.025663251 -0.01856277 0.1897665 -0.087774724 0.08392816 0.042721856 -0.06909818
-0.1336261 0.023716083 0.087986775 0.031475775 0.032949734 0.076721415 0.20461312 0.07928637
-0.18331851 0.02752212 -0.0016322078 -0.003245185 -0.0049696346 0.06215631 -0.2154608 0.2953027
0.10120148 -0.16816667 -0.23484038 0.24883519 0.025916025 0.072870225 0.052434064 0.10087608
0.0024754843 -0.08643184 0.01119988 -0.07524424 0.0780337 -0.15258071 0.07819427 -0.021059407
0.030203646 -0.019043472 0.051571038 -0.27418485 0.0042057736 0.5848962 -0.13310999 0.013332784
0.14765576 -0.15312852 -0.0029256693 0.1648088 0.06332015 0.033654924 -0.05758624 0.010624417
0.20897403 0.101228364 0.02766949 0.04509552 -0.17075141 -0.20546544 -0.12858325 -0.20886953
-0.10385134 0.09667544 -0.028699214 -0.05360712 -0.14722659 0.13657808 -0.13725269 -0.079506524
-0.039381143 -0.2726933 -0.107337125 -0.13386208 -0.1399313 0.039595712 -0.010980684 0.089346245
-0.24032411 -0.1616591 0.07813238 -0.027674941 0.38048017 0.022236872 0.074326016 -0.1843942
-0.068973176 -0.04930466 0.089539275 0.038746543 0.007477038 0.061494622 -0.28012788 -0.1355107
-0.035841607 -0.033381987 0.2884448 -0.061967064 0.10443347 -0.07156865 -0.10500373 -0.09506136
0.23215148 0.27467048 0.3826129 -0.019492032 -0.3231914 0.30419782 0.24299438 -0.06710207
0.020563154 0.043711893 0.11724889 0.08694295 -0.06308588 -0.09506719 0.06576183 -0.24537379
0.020926645 0.007390613 0.071993366 -0.14574787 0.078324355 -0.019616175 0.060929026 -0.06646294
0.18405712 -0.0021194734 -0.019998496 -0.12663929 0.06587668 -0.06677468 -0.06313845 0.091474526
-0.012341086 -0.057040643 0.276039 -0.059808437 -0.07377236 -0.0806479 -0.015519414 -0.017684478
-0.10645596 0.19905432 0.18268707 -0.044847988 0.0007406053 -0.086925395 -0.0586511 -0.0017293995
-0.13906299 0.099801295 -0.30603534 -0.1690332 0.0149251 0.16283883 -0.083434425 0.11289775
00000000: d209 85bb 9f27 a23e cfa0 73bc 5baf 2ebd
00000010: a7b5 623d 4541 803c 299d 973d 5b4d 663d
00000020: d109 6abd 4887 a7bd 8b87 503c fd02 09be
00000030: d080 663d b445 39bd e643 40bd a206 2dbd
00000040: 576e d0bd 07a1 babd 8bab b03d 0c71 05be
00000050: 9240 8abd 5842 1bbc 5b28 cc3e 118a 16be
00000060: 1d1e c53d 29cd bbbd 3931 643e 8662 05be
00000070: 3e97 3f3e 822b 9f3d 686f 07bd cbbb a9bd
00000080: 6abd 3abe a923 d73d 77e9 253e 5e1b 0c3d
00000090: da1e 593e 9b4a 46be 3480 aa3d ba18 debd
000000a0: 1c82 52bc e243 ccbb e48d 81bd d1b9 a33d
000000b0: 2c81 4fbb 775e 243d 9024 14bd 3dfb a83d
000000c0: 8dcc 81bb 111e e2bd fdf4 de3d b7e3 6d3d
000000d0: 7041 32bd 7b14 863a 80da 0cbb 7a0e 02be
000000e0: 3ab8 913e e992 b03d 0997 9c3d eeaa e6bc
000000f0: 2269 7a3d aac8 a13c 65f0 34bd fd18 653c
00000100: 445d dfbd 2ef4 6c3d 0324 9b3e 42e3 30be
00000110: 9902 44bd ff72 e0bd 7914 3ebd b7eb 9abd
00000120: 3761 b1bd 4d53 72be 6515 383d 61fb 84bd
00000130: fe29 8ebd fcde f83d 0d3a 183e 0489 39bd
00000140: 92b3 63bd 71fd adbd 7440 c0bc 8c95 703e
00000150: 3960 b63d c574 f23d 4147 79bd 96d9 0a3e
00000160: f360 d7bd 4bfe 1cbe 8e8e 4d3e 62ba 0abe
00000170: 3deb 9b3e cfd2 dcbd b94c a7bc ebc0 153e
00000180: 1d35 01be bd3b d2bc f310 98bc 2652 423e
00000190: 3cc3 b3bd 87e2 ab3d 1dfd 2e3d 5983 8dbd
000001a0: 48d5 08be 3b48 c23c 6932 b43d beec 003d
000001b0: 4df6 063d 1e20 9d3d 1a86 513e e460 a23d
000001c0: d9b7 3bbe 1276 e13c ceef d5ba 2bad 54bb
000001d0: 51d8 a2bb 9d97 7e3d c2a1 5cbe ea31 973e
000001e0: b942 cf3d e233 2cbe ff79 70be a7ce 7e3e
000001f0: d84d d43c fc3c 953d 1ac5 563d 1e98 ce3d
00000200: bc3b 223b 2d03 b1bd b47f 373c a719 9abd
00000210: 22d0 9f3d 1e3e 1cbe 5124 a03d c784 acbc
00000220: a36d f73c 0e01 9cbc 273c 533d f561 8cbe
00000230: 96d0 893b c2bb 153f fc4d 08be c071 5a3c
00000240: 1233 173e b9cd 1cbe 96bc 3fbb a3c3 283e
00000250: ffad 813d bfd9 093d 8ddf 6bbd 0912 2e3c
00000260: 4afd 553e d150 cf3d 20ab e23c 14b6 383d
00000270: 75d9 2ebe 8865 52be 54ab 03be e5e1 55be
00000280: 03b0 d4bd c6fd c53d 9d1a ebbc 2493 5bbd
00000290: 91c2 16be 20db 0b3e f88b 0cbe 51d4 a2bd
000002a0: 1f4e 21bd 759e 8bbe 91d3 dbbd 2413 09be
000002b0: 274a 0fbe 1d2f 223d 54e8 33bc 2afb b63d
000002c0: 8617 76be f789 25be df03 a03d 8fb6 e2bc
000002d0: 4cce c23e 1a2a b63c 3d38 983d d5d1 3cbe
000002e0: cf41 8dbd aff3 49bd 5e60 b73d b2b4 1e3d
000002f0: f101 f53b c9e1 7b3d ec6c 8fbe 51c3 0abe
00000300: a6ce 12bd 8dbb 08bd 09af 933e 2dd1 7dbd
00000310: 37e1 d53d 9692 92bd 320c d7bd 88af c2bd
00000320: 1eb9 6d3e 9ca1 8c3e d7e5 c33e c1ad 9fbc
00000330: 5879 a5be d1bf 9b3e 85d3 783e cf6c 89bd
00000340: 0f74 a83c 3e0b 333d 3020 f03d 250f b23d
00000350: 2b33 81bd 96b2 c2bd 23ae 863d 4443 7bbe
00000360: 5b6e ab3c f52c f23b 4271 933d ee3e 15be
00000370: 8568 a03d 1ab2 a0bc b790 793d b91d 88bd
00000380: 7879 3c3e dde6 0abb e3d3 a3bc bbad 01be
00000390: 5aea 863d 2ac1 88bd bb4e 81bd ff56 bb3d
000003a0: 4432 4abc 73a3 69bd fc54 8d3e b1f9 74bd
000003b0: f715 97bd ba2a a5bd 2445 7ebc 0adf 90bc
000003c0: 9505 dabd e5d4 4b3e 5212 3b3e 86b2 37bd
000003d0: 2e25 423a f105 b2bd 233c 70bd 05ad e2ba
000003e0: 8766 0ebe 9f64 cc3d aab0 9cbe 0a17 2dbe
000003f0: 6888 743c 39bf 263e abdf aabd f036 e73d

fc3.bias f4 [10]
0.057384547 -0.033563815 0.09352643 0.11390995 -0.42511117 0.36388603 0.25772136 0.025196545
-0.17466065 -0.31897488
00000000: 0f0c 6b3d 367a 09bd c98a bf3d 9f49 e93d
00000010: 2ca8 d9be 454f ba3e 0ef4 833e fc68 ce3c
00000020: 3eda 32be ad50 a3be
