Models/TrainedModels/BasicModel.pth (torch, 183723 bytes, 10 tensors)

weight f4 [6, 3, 5, 5]
00000000: 390b 3dbd 32cd 12be a018 aebb 39d3 c93c
00000010: c5fe 013e 9f34 e6bd 78cb 0bbe 1830 ecba
00000020: abae e5bd ecd4 063f ab66 633c 7912 1fbe
00000030: 4bf7 8ebe 66c2 4bbe 4c53 913e ff3b c83d
00000040: cd65 45be f84a 3cbe 3e46 71b9 9b8f a13e
00000050: 2451 1abe 00ea 38be dbb4 81bd db00 16be
00000060: e655 c23e f06c c13b 97f8 e0bc 881b 49bd
00000070: 316a 6e3e 888f a83e 7aef 1abb a409 efbd
00000080: 2ff3 34bd 0486 05be 4c2d d73e 01ee 3abc
00000090: cf89 89bc 6451 90be 2933 10be 03d1 e13e
000000a0: 6bfd 703d e210 a9bc f209 e7bd 4a8e 60bd
000000b0: 3478 a13e 8c6f c7bd a45b efbd 507f 02be
000000c0: faf8 81be b49c f63e 6d0e 9bbc 8ee3 2cbe
000000d0: 672c 66bd e3e8 a63d 3027 a63e cdbd 65bd
000000e0: 9b64 82be d4f5 47be 82d5 c4bd b9a5 f43e
000000f0: 227f 533d f9fb 2bbd 3601 7abe dfa8 42be
00000100: 4eb5 ae3e bd86 d33d a603 23be e64f 3cbe
00000110: 2f84 d1bb e456 533e 24ed 983d a7d0 00be
00000120: 3bd7 1ebd 7767 5abe 6ff6 ea3e b360 17bc
00000130: c24e ae3c 90c7 c83e 2dc1 0d3f 415f 673e
00000140: fa33 133e e65f 193e 655c e83d 9690 773e
00000150: 6078 273c c885 e73d abc5 bfbd f192 8b3d
00000160: d45f b3bd 97b9 1b3e e059 ccbd 4620 5cbe
00000170: 4aa6 1a3e 36ea cabd 6d6c 1f3d 593a 92bd
00000180: 78ac 0dbe 1c6e 5bbd dd8e 96be d2ee f9bd
00000190: de37 083d 60b3 b2bd c61d 893e 8468 033f
000001a0: 59f5 1f3e 4953 783e a8f2 2abd 1f5f 143d
000001b0: c5a6 bf3d a889 bebc a515 aa3d 0a8b 18be
000001c0: 9f4f 6b3d 8f56 293d fada c23d 4a62 c0bd
000001d0: 93e9 70be 9c34 303d 90fc ac3d 777a 22bd
000001e0: d4b6 73be 645c 71be 62fb 0abe e2e0 a7be
000001f0: 3d6d d33c 37d5 edbd 4e93 15be 34ba d03e
00000200: ec3e b73e 977b 6f3d 2855 873d 0889 913d
00000210: 1d69 ce3d 5bf0 243e 1e32 503d 0119 133e
00000220: 50d4 8abd 118b 4a3d fbf3 95bd 4683 143e
00000230: 8690 fe3c b2ff 2ebe 7e13 623d face 103c
00000240: c0ad a43d 53a9 3abe d7e2 79be 5e28 21be
00000250: f9cb 60be 38c8 e1bd d952 c7be 6418 2f3e
00000260: 48bf 963e 2c79 8b3d 4395 44be 1130 55be
00000270: f475 153d ed91 813e dcb0 3fbd 50c2 2ebe
00000280: 658e 0ebe 9f73 693d 905d 803e 4098 adbd
00000290: 4100 53be 8d70 cdbe 8e75 383e 6123 863e
000002a0: a4b8 b33d 9513 c7bd 2da2 cbbe 115b fd3d
000002b0: 2883 633e 372f cebd 50ba a53d 2369 a6be
000002c0: 70c9 b93d 2307 903e 7bf4 bbbc efab 85bc
000002d0: 8838 94be 55e0 763d ac86 a03e 2adf b33c
000002e0: fbb5 d5bc 98d1 99be 5879 a53d 4a15 963e
000002f0: 6bbc 783d d485 3e3b a708 e4be 1f47 b53c
00000300: 9bf8 d73e ec84 9f3d 4431 19be ee8f 05bf
00000310: 6a43 e33d 9df6 933e 5f5a 15bc be2a 5bbd
00000320: 46e8 2fbe bb62 f43b 9255 803e 3a0e 8abc
00000330: 37a8 413c 3cb9 25be 94b8 563c 8dee df3e
00000340: f7db 70bd 8d8c 23be bd2d 7ebe 0b6a c43d
00000350: a6bf 983e f33b aebb 8678 14be 78d9 debe
00000360: dcf8 143e a49f d43e 2093 06bc d61b 18be
00000370: ce90 f8be 5477 763e 1f9b 783e 2fa8 db3d
00000380: c14b 11bd 0661 25be f6f1 453e e853 f03d
00000390: d3f3 213e 0a76 bcbb 5310 a0bd 0866 cc3d
000003a0: 1466 fb3d e132 a03d b294 0d3e ef6d 01be
000003b0: 7d88 f33c 08b5 963d a0d3 b9bc a128 183d
000003c0: 6255 2fbd ea74 51be d4fb 023e ed83 483d
000003d0: 52cf 453d 8017 ab3d 2a09 573d 933d 8a3d
000003e0: c29e f73d f3dc eb3d 7231 f7bd 50b3 693e
000003f0: fac0 993e 6f88 463e b563 c9bd ed43 9dbd
-0.04615328 -0.14336088 -0.005312994 0.024636852 0.12694843 -0.112405054 -0.13651836 -0.0018019704
-0.11214956 0.52668643 0.013879458 -0.1553439 -0.27923045 -0.19898376 0.28383863 0.09777068
-0.19277115 -0.18387973 -0.00023009718 0.31554875 -0.15070015 -0.18058014 -0.063333236 -0.14648764
0.3795616 0.005902879 -0.027462287 -0.04909852 0.23282696 0.32922006 -0.0023641274 -0.11671761
-0.04417723 -0.13039404 0.42026746 -0.011409284 -0.016789345 -0.28187096 -0.14082016 0.44104776
0.05883543 -0.020637933 -0.11281194 -0.054823197 0.3153702 -0.09738073 -0.11687401 -0.12743878
-0.25385267 0.4816643 -0.018927777 -0.1688368 -0.05619469 0.08149888 0.32451773 -0.05608921
-0.2546738 -0.1952737 -0.09611036 0.47782686 0.051634915 -0.041988347 -0.24414524 -0.19009732
0.341227 0.10328434 -0.1591936 -0.18389854 -0.0063939313 0.20638615 0.07467106 -0.12579595
-0.03877948 -0.21328531 0.4589114 -0.0092393635 0.021277789 0.39214754 0.5537289 0.2259493
0.14375296 0.14977989 0.11345748 0.24176249 0.010221571 0.113048136 -0.09363874 0.06815136
-0.08758512 0.15207516 -0.0997808 -0.21496686 0.15102497 -0.099079534 0.038921762 -0.07140035
-0.13835323 -0.053571805 -0.2940587 -0.122037545 0.033256404 -0.08725619 0.26780528 0.51331353
0.15620936 0.24250521 -0.04173532 0.036223527 0.09357981 -0.023258999 0.083049096 -0.14896789
0.05744898 0.041342314 0.09514423 -0.09393747 -0.23526601 0.043018922 0.0844661 -0.039667573
-0.23800212 -0.235704 -0.13572457 -0.3278876 0.025808925 -0.11612933 -0.14606974 0.40767062
0.35790193 0.058467474 0.06608039 0.07106215 0.100786425 0.16107313 0.050829045 0.14365007
-0.06778777 0.04944903 -0.07321926 0.14503202 0.031074774 -0.17089728 0.05519437 0.00883841
0.08040953 -0.18228655 -0.24402939 -0.15738055 -0.2195281 -0.11024517 -0.38930395 0.17099148
0.2944281 0.06810221 -0.19197564 -0.20819117 0.036489442 0.25306645 -0.046799526 -0.17066312
-0.13921507 0.05699503 0.25071383 -0.08476305 -0.20605566 -0.40124932 0.18013594 0.26198867
0.08775452 -0.09720532 -0.39772168 0.12370885 0.22218001 -0.10067599 0.08092177 -0.32502088
0.09071624 0.28130445 -0.022943726 -0.016317336 -0.2894938 0.060272533 0.31352746 0.021956999
-0.026087752 -0.3004272 0.08079785 0.29313117 0.060726564 0.0029071467 -0.4453785 0.02212864
0.42181858 0.07789025 -0.149602 -0.52172744 0.110968426 0.28899089 -0.009115784 -0.05350756
-0.17178449 0.0074580587 0.25065285 -0.016852487 0.011819891 -0.16183943 0.01310553 0.43736687
-0.058803525 -0.15971585 -0.24822135 0.095905386 0.29833716 -0.005317205 -0.14499101 -0.4352529
0.14548057 0.41528046 -0.008213788 -0.14854369 -0.48547977 0.24068958 0.24277924 0.10725438
-0.035472635 -0.16150293 0.19330582 0.11734754 0.15815668 -0.005751376 -0.078156136 0.099803984
0.12275329 0.078222044 0.13826254 -0.12639593 0.029728169 0.07358748 -0.022683918 0.03714812
-0.042806037 -0.20454755 0.12791377 0.04895394 0.04829342 0.08354092 0.052498974 0.067500256
0.120908275 0.11516752 -0.12069978 0.22822309 0.30030042 0.19387983 -0.09833471 -0.076789714

bias f4 [6]
00000000: d419 42bd 8d16 423c e0b7 5a3c 35d4 50bc
00000010: d7c0 4c3f 85a7 823d
-0.047387913 0.011846197 0.013349503 -0.012745907 0.7998175 0.06379608

weight f4 [16, 6, 5, 5]
00000000: 3a06 70bd 2d89 b23d 719f f43c 4b92 e5bd
00000010: a20b aabc a5fd 073e fc56 863d 8fcf d0bc
00000020: f227 dcbd 4937 6e3d fc71 803d e3f2 9dbb
00000030: aff0 aebd 8165 af3d b6e7 e3bc a4d0 e43c
00000040: f28a 67bd 5818 5cbd c382 0c3d bc29 153c
00000050: 9ea4 39bd 7809 b8bd 9689 fb3d 03e0 8e3d
00000060: 0038 9b3d 0a3f 59be 2b1a c7be 43b3 533e
00000070: d797 2a3e 4c20 ec3d 9766 ca3d a7be a93c
00000080: 228f b13e feee 123c d893 333c b092 073d
00000090: 737e 1ebe 8362 a53d 295e 713c 2e42 00be
000000a0: 8da2 183d 5c80 c1bd 7c61 10be 780f b1bd
000000b0: 6575 c43c 0f35 84bb fe55 92be ea54 50be
000000c0: 2c6d 7a3c 7cc7 f63c 7502 ae3c 1b98 39be
000000d0: 705d 473e a9fd 0d3d e2a1 b6bd 39f3 843d
000000e0: beca ab3b 4647 363e d75f 36bd c542 89bd
000000f0: 0b0b 783d f475 703d f568 bf3b d1e3 13be
00000100: 178a b73d d4cf eb3d f5eb 843d a3df 36be
00000110: eb9a ffbc 0f3a 8abd cc20 c53e e568 85bc
00000120: 242e 35be e041 b6bd 8e31 ccbd 1fee 76be
00000130: 4d5f 83be 2e85 733e 2649 263d 7a88 b9bd
00000140: 1675 233d 7b82 43bb 1036 8e3e 31d7 333d
00000150: 29f7 f9bd 6caa 873c b373 c8bc 6be1 ac3d
00000160: fcb4 b7bc 0ebf 20bd 9461 36bd db22 7ebd
00000170: bc3c 7abe a646 08be 43f4 a33d 5e71 453d
00000180: d956 6bbe a2c8 d8be c8b1 9dbe d4a6 5d3d
00000190: 9cbd 05be 5cb1 dfbb 5a5c 893d ca90 0b3c
000001a0: 111e 843e 7f17 453b 040b e43b 8b04 ed3d
000001b0: 6ef2 fc3d 21b6 7b3e 9152 1abe c31d 30be
000001c0: 2ff7 a0bc 4963 ff3d 1a82 0bbc cde4 233d
000001d0: 4160 f8bd 7b99 533e e122 b03e 9fc4 193c
000001e0: 2fdb c23d a2a8 d2bd 3d7f 263e a59a d63d
000001f0: 570f 7bbc 154f adbc 70f8 333e ee4b b4bd
00000200: 5e0a 753e c6af 3ebd 3cba 4ebd cca1 9d3d
00000210: 65eb 203c 54fb 283e 0ec6 a13e 0be1 20be
00000220: c98f e83c 424f cabd b230 863d deec 3d3e
00000230: 3929 10be 8be2 6f3d e52b 1b3d 9bf8 9bbe
00000240: 43a5 4dbe 8bfa 86bd 2bc9 803e 1ea8 573e
00000250: b112 62be 60fe d9be 6e4f 443d dd82 a2bc
00000260: 2548 983d 40e3 a2bd b70b a6bd 8c45 2fbd
00000270: 3a0f acbc 76f8 46bd 4932 9f3d 062d 58bd
00000280: 3904 89bd 5d14 0bbd f41f 8c3c e1f9 9c3d
00000290: e867 66bd e410 aabc 8d26 203d 2a4a 4639
000002a0: 8145 25bc 6b6a 973d a142 51bd 0508 b5bc
000002b0: ffba dabd 5aa7 aa3d 5c20 4bbb a00d 013d
000002c0: b938 c73c 4feb e5bb 0761 543d b660 81bd
000002d0: 4e5f 2c3d f466 aebd 09d9 9dbd 88f3 35bd
000002e0: f96b 663d 7a87 81bd f18b cfbc 4a73 b5bd
000002f0: beb2 3a3d 9efe a83d f207 293d 9a19 87bd
00000300: 6ef5 e23a e413 c5bd 9eeb 3abd f578 ce3c
00000310: 6542 4e3c b663 09bd cf68 95bd 7bd0 333c
00000320: 2902 233d 4616 1a3d 812c 10bd bc42 02bb
00000330: 69d5 adbd 19bf fabb d456 3cbd 149d d4bc
00000340: a192 cdbc 47aa 5bbd 71bb 7c3c f06e 8ebd
00000350: a191 473c 185f 96bc b1d3 99bd 33fe cebc
00000360: 13fa 41bc 7d60 083d 0210 5cbd fccc 9dbd
00000370: 1240 cfbc 24bc 58bd c15e dfbc a349 93bd
00000380: 985e e8bc 244f ac3c 9835 993c 5687 8d3d
00000390: a9a5 88bc 2dbf d1bc 0c9d 043d 7ba6 75bd
000003a0: a329 b4bd 2048 25bd 9aae 813d 8d76 80bc
000003b0: b4eb 5dbb 3588 01bd 1804 4c3d 5128 0b3d
000003c0: 75c3 a9bd 1e64 703d a20d f63c 1a8f b6bc
000003d0: 8321 4fbd 6e92 553d 5e6c e2bc 1808 113c
000003e0: 01b6 233d 6889 483c 6948 613d f5c5 463d
000003f0: e79e 963b ccae 3abc 8eaa b83b f58c 0dbd
-0.058599688 0.087175705 0.029861184 -0.11209544 -0.0207575 0.13280351 0.0655956 -0.025489597
-0.107498065 0.058158193 0.06271741 -0.004820214 -0.085420005 0.08564282 -0.02782045 0.027931519
-0.056528993 -0.053734154 0.03430439 0.0091041885 -0.045323007 -0.08986181 0.12282102 0.069763206
0.075790405 -0.21215454 -0.38887152 0.20673852 0.16659485 0.11529598 0.09882849 0.020720793
0.34679514 0.008968113 0.010960542 0.033098876 -0.15477924 0.0807543 0.014731922 -0.12525246
0.037264396 -0.09448311 -0.14099687 -0.086455286 0.02398176 -0.0040346454 -0.28581232 -0.20344892
0.015284818 0.030124418 0.021241406 -0.1812443 0.19469237 0.034665737 -0.089175954 0.064917035
0.0052426746 0.17800626 -0.044524994 -0.067021884 0.060557406 0.05870624 0.0058413693 -0.14442374
0.089618854 0.115142494 0.06490318 -0.17858748 -0.0312018 -0.06749355 0.38501585 -0.01628537
-0.17693383 -0.088992834 -0.09970389 -0.24114273 -0.25658646 0.23781273 0.040597104 -0.09059234
0.039906584 -0.002983241 0.2777562 0.043906394 -0.12205345 0.016560756 -0.024469232 0.084414326
-0.022425167 -0.039244704 -0.04452665 -0.06204496 -0.24437231 -0.133082 0.080055736 0.04820382
-0.22982349 -0.4234057 -0.307997 0.054114178 -0.13060611 -0.006826563 0.06707068 0.008518407
0.2580419 0.003007382 0.006959321 0.11573132 0.12350927 0.24581195 -0.15070559 -0.17198853
-0.019649116 0.12470109 -0.008514905 0.040013123 -0.12127734 0.20664017 0.3440161 0.009385257
0.09514462 -0.102860704 0.16259475 0.10478715 -0.0153234815 -0.021155873 0.1757524 -0.08803545
0.23929736 -0.04655435 -0.050470576 0.07696876 0.009821747 0.16502124 0.31596416 -0.15710847
0.028388875 -0.098783985 0.06552257 0.18547389 -0.14078225 0.058565658 0.037883658 -0.30463108
-0.20082574 -0.06590756 0.2515348 0.21060225 -0.22077443 -0.42576885 0.047927313 -0.019837791
0.074356355 -0.07953501 -0.08107703 -0.042790934 -0.021003354 -0.048576795 0.07773263 -0.052777313
-0.066902585 -0.033954967 0.01710508 0.07664848 -0.056251436 -0.020760007 0.039099265 0.0001891038
-0.010087372 0.073933445 -0.051088933 -0.02209855 -0.10680198 0.08332701 -0.003099463 0.031507134
0.02431904 -0.0070165764 0.051850345 -0.06317274 0.042083077 -0.085157305 -0.07707412 -0.044421703
0.056255314 -0.06324668 -0.025335284 -0.0885988 0.045580618 0.082516894 0.041267343 -0.0659668
0.0017315575 -0.096229345 -0.04563486 0.025204161 0.012589072 -0.033542357 -0.07295381 0.010974999
0.039796982 0.037618898 -0.035198692 -0.0019876203 -0.084879704 -0.007652175 -0.045981243 -0.025953807
-0.025094332 -0.053629186 0.015425549 -0.069547534 0.012180717 -0.018355891 -0.0751108 -0.025267696
-0.0118394075 0.033295143 -0.053726204 -0.07705113 -0.025299106 -0.0529138 -0.027266862 -0.071917795
-0.028365418 0.021033831 0.018702313 0.06910579 -0.016680555 -0.025603855 0.032376334 -0.05997322
-0.08797004 -0.040351987 0.06332131 -0.01568153 -0.0033862414 -0.031624038 0.04980859 0.033973996
-0.082892336 0.05868923 0.030035798 -0.022285033 -0.05056907 0.0521416 -0.027639564 0.008852027
0.039968494 0.012239791 0.055000696 0.04852863 0.0045965794 -0.011394214 0.005635566 -0.034558255

bias f4 [16]
00000000: add6 d3bd e785 0f3d 7678 5d3e 11e3 b5bd
00000010: 189c ab3e f65c 1c3e 0a44 823e bdb1 c9bd
00000020: 2c04 bbbd 08fd e93c 72e2 983e 21af 293e
00000030: d81a 923d 4a0d eb3d cf00 683d 7eb9 c23d
-0.103436805 0.03503981 0.21627983 -0.088812 0.33517528 0.15269837 0.25442535 -0.09848354
-0.09131655 0.028563038 0.29860264 0.16570713 0.07134026 0.11477144 0.056641396 0.09508036

weight f4 [120, 256]
00000000: 43b9 91bc 85e5 08bc 8abc 06bc 7087 293b
00000010: 4fd0 6b3d 99a8 a7bc 9023 60bd b346 393c
00000020: 8878 1cbc ecdb 4abd 15ce a23b 86ba ae3c
00000030: 70b7 a43c db76 2fbc 0c64 12bd f7aa 4c3d
00000040: e21e 68bd f2ba b4bc 85cc 71bd c6e7 6d3d
00000050: ad88 39bd a529 2ebd 727c dabc 14cf adba
00000060: 844e 0b3d 560d a5bc d34e fc3b d639 203c
00000070: 6521 ebbc 12c6 1abd 3d4c 80bb 970d 4cbd
00000080: 8c98 08bd e430 24bd 9a77 60bd 1fd7 46bd
00000090: 6b5c d13c 4851 1abd 8d35 35bd 64fd 8bbd
000000a0: 56a9 2a3d d16c 313d 7d63 1ebd c92e 203d
000000b0: 30b4 f2bc 97a9 cd3c 7fa8 68bd 3f0f c73c
000000c0: e2d8 e9bc ddc7 d13b 8def 54bd 49d7 0ebb
000000d0: d549 493b c5e9 7abd e9cf bc3a eb5e c0bc
000000e0: 5e9a 7f3c 59f2 46bc 0b7c 27bd e45e d93c
000000f0: b6c0 cb3c 58cb f4bc 8891 8bbd 7af3 8ebd
00000100: 9ad2 5ebd 39e2 a53c b49c 56bd 9b83 02bc
00000110: 1b61 eb3c ef37 fbbc fc0f 93bd c03c 9abd
00000120: fa79 903c eec3 2a3b 561b e33c b1b3 203d
00000130: 9c68 c83c dfce efbc 6035 113d c19d 4abc
00000140: c7e9 863c b29b 643d a431 163c e158 3e3d
00000150: c21e 233d 6646 34bc adbd 753c f59c 343d
00000160: 901d 2cbd 2f5c 1b3c 5e58 973c 310e c8bc
00000170: 73cc 08bd 3ee5 f83c a6ec 67bd bc0f 253d
00000180: 1a3e 54bd 167a 57bd ec7d 5bbd 717b aa3c
00000190: f664 1bbd 2753 413d 7c19 f63c 5582 473c
000001a0: d4ba 9cbc e9e9 6cbd e8fe 923c 532b 813c
000001b0: 7724 1c3c dd94 9d3c b345 cabc 14f2 23bd
000001c0: a763 67bd 1a80 543d c8ab 1b3c 985a 07bd
000001d0: 7a22 78bd 6fb3 b8bc ec9f 47bd b534 cf3c
000001e0: 0609 36bd 91ee 4abb 1366 74bc 1432 a6bb
000001f0: 2e6e cabb 3fed 273d ae60 3dbd ddde f9bb
00000200: d930 553d ec7f 5ebd 718d 29bd 8238 d93c
00000210: f177 88bc 5155 b93c e976 cebb 573f 18bc
00000220: 6067 cf3c 197c 183d 75df 813c 2038 463d
00000230: 6cc8 57bd a89e 22bc ec19 193d fde2 1a3d
00000240: 61f6 3abd ff5a 47bd e430 cabc 07e2 c7bc
00000250: a8e6 053d 7cdd aabb 67c6 b53c 8bb3 0dbd
00000260: 0bc7 353d 2912 80bc 13ec 5bbd c22c 0cbd
00000270: 0639 163d a387 cf3c 1c41 0d3d a7e3 47bd
00000280: 5beb 38bc dad9 d8bc 3d07 45bd 61fe 0a3d
00000290: bf69 17bd de8f beba c1a5 95bd a22d cc3c
000002a0: 0d00 f23c 9d7c bebc d2a0 47bd a4ca a63c
000002b0: c214 7abd d949 5b3d 30f9 d5bc d96f 9abc
000002c0: 5fa5 a3bc 689c 653d 6cd8 283c ef21 73bd
000002d0: 6705 003d 7cf6 5cbc 4ba8 55bd d1b9 1cbb
000002e0: 21ed 533d 7328 823c 3e63 39bd 658a d4bc
000002f0: 1801 84bd c6dc 03bd 68da 00bd bcc0 03bd
00000300: 2387 8f3c f2ad 6b3d e594 d23b d0e5 20bd
00000310: c872 60bd 811a 033d c571 27bd 0a5f 103c
00000320: 2e5d 4b3c c37a 45bd e1f5 1dbc b945 8abd
00000330: 1e5f 02bd 8432 94bc 91e1 f23c 7138 bebc
00000340: 925d 303d 2bde 51bc 51fc 5cbc 751c 0ebd
00000350: a38b cd3b 0876 84bc 047a 623c 2ef8 39bc
00000360: 5a42 c5bc 2b4f 053d c074 093d 7518 803c
00000370: 6c16 263d 13bf 623c 8a12 00bd 8728 4ebc
00000380: 61bc 513d 1588 2a3d 6ef2 333d 2065 37bd
00000390: d70d 313b 5acf 0a3d 6e96 aabc 0ba3 193d
000003a0: a093 113a a9cc 693b cebb 2c3d 5d93 81bd
000003b0: 0bcc ccbc ce2c 3cbd ec3f 023d 1696 10bd
000003c0: 902b 5bbd f55c 283c 89f8 4f3d ca6b 80bc
000003d0: 4c3c 48bb 5378 c4ba 8162 3b3c 3807 f8bc
000003e0: fe31 6bbc bda3 6abd 7a53 853c 8fac 6e3d
000003f0: 0c7b 483d 653b 61bd 892a 4ebd b199 173d
-0.017788535 -0.008355503 -0.008223662 0.002586808 0.057571705 -0.020466136 -0.054721415 0.01130836
-0.009550221 -0.04952614 0.0049684145 0.021329176 0.020107001 -0.01070949 -0.035739943 0.049967732
-0.056670077 -0.022061799 -0.059032936 0.058082364 -0.04529636 -0.042520184 -0.026670668 -0.0013260567
0.034010425 -0.02014796 0.0076998263 0.009779414 -0.028702447 -0.03778655 -0.0039153383 -0.049817648
-0.033348605 -0.04008569 -0.05480156 -0.048545 0.025556764 -0.037675172 -0.044240523 -0.0683544
0.041665398 0.043316666 -0.0386691 0.039107118 -0.029626936 0.02510528 -0.056801315 0.024299262
-0.0285458 0.0064019994 -0.051986266 -0.00217958 0.0030714173 -0.061258096 0.0014405224 -0.02348276
0.015600769 -0.012142741 -0.04088978 0.026534505 0.024872165 -0.029882118 -0.06814867 -0.06980033
-0.054400064 0.020249473 -0.052395537 -0.0079659475 0.028732827 -0.03066632 -0.07180783 -0.075311184
0.017636288 0.0026056725 0.027722996 0.039233867 0.024463944 -0.029273449 0.035451293 -0.012366713
0.016468896 0.055812545 0.009167109 0.04647148 0.039824255 -0.011003112 0.0149988355 0.044095
-0.04202038 0.0094824275 0.018474754 -0.02442083 -0.033398103 0.030382749 -0.05662217 0.04029821
-0.051817037 -0.052606665 -0.053586885 0.020810815 -0.03793808 0.04719844 0.030041449 0.01217707
-0.019132055 -0.05784026 0.017943814 0.015767729 0.009530178 0.019236023 -0.024691438 -0.040025786
-0.05649152 0.05187998 0.009501405 -0.03304538 -0.060579754 -0.022546498 -0.048736498 0.025293687
-0.0444422 -0.003096495 -0.0149169145 -0.0050718877 -0.006177685 0.04099774 -0.04623478 -0.0076254443
0.052048538 -0.054321215 -0.041394655 0.026516203 -0.016658755 0.02262369 -0.0063007963 -0.009292445
0.025317848 0.037227724 0.015853623 0.04839337 -0.05268137 -0.009925522 0.037378237 0.03781413
-0.04564512 -0.048670765 -0.024681516 -0.02439977 0.032690674 -0.0052143913 0.022189332 -0.034595054
0.044379275 -0.01563366 -0.053691935 -0.034222372 0.036675476 0.025333231 0.03448592 -0.04880109
-0.011286582 -0.026471067 -0.048102606 0.033934 -0.03696608 -0.0014538725 -0.07307006 0.024924103
0.02954104 -0.02325278 -0.048737355 0.020360298 -0.061054952 0.053537223 -0.026119798 -0.018852161
-0.019976316 0.056057364 0.010305505 -0.059358533 0.031255152 -0.013486501 -0.05216245 -0.0023914466
0.051739816 0.015888428 -0.04526066 -0.025944898 -0.06445521 -0.032192968 -0.03145829 -0.032166228
0.017520493 0.057538934 0.006426441 -0.039281666 -0.054796964 0.032007698 -0.040879983 0.008811722
0.0124123525 -0.048212778 -0.009641142 -0.0675158 -0.031828992 -0.018090494 0.029648574 -0.023220273
0.043057986 -0.012809317 -0.013487891 -0.034695107 0.0062727495 -0.016169563 0.013823036 -0.011350675
-0.02407949 0.032546204 0.033558607 0.015636662 0.040548727 0.013839501 -0.03126768 -0.012582905
0.051205043 0.041633684 0.04393237 -0.044774175 0.0027016306 0.033889152 -0.020823684 0.037509006
0.0005553309 0.0035674965 0.042171292 -0.063269354 -0.024999639 -0.045941167 0.031799242 -0.035299383
-0.05350834 0.010276069 0.05077413 -0.015676398 -0.0030553518 -0.0014989473 0.011437059 -0.03027688
-0.014355181 -0.05728506 0.016275156 0.058270033 0.04894547 -0.054988284 -0.050333533 0.037011806

bias f4 [120]
00000000: 0df4 7cbd a7ad 45bd 30fd f63d a14b aebb
00000010: 0cd3 4e3c b58e 0d3d 2c88 32bd 133e 163e
00000020: b8cf 89bd 402a f03d 5b8b 823d 9850 0abd
00000030: 1ab0 003e c632 0cbc af76 67bb b1ce 083d
00000040: 3219 173d 8c73 9e3d 34c3 f53c 5ade 7ebd
00000050: c0be 68bd 7cef 8a3b d12c 7fbc 1d91 b53d
00000060: cf80 0f3b 2133 8bbd 64ef 863d fd7d 36bd
00000070: 407f 6dbc 3aa8 e7bc e366 e53d 2fd0 9b3d
00000080: ada8 d63b 0bec 633d f2ae 423e 6075 3bbd
00000090: 094b 403d 67e4 1f3d 4839 80bd 9973 f2bd
000000a0: 67bc a1bd 7878 6fbd 302d 5ebd 8fbb c23d
000000b0: fcc6 2c3d 76e7 863d e316 b2bc 80b4 fabd
000000c0: a506 30bd 3ab1 ee3c c17c 413d 1753 973b
000000d0: 305c 1939 e41a f1bc 750a 84bd c8ee ab3b
000000e0: ce9f 843d 9f06 9dbc a4e2 c2bc 53cc 9739
000000f0: 6a66 073c f320 523d a199 043e 4c86 15bd
00000100: a9ae 753d 4f20 a43d 55f6 a73d b8c7 6e3e
00000110: d304 04bd 85b0 0dbe 33d0 313e 9a03 0f3c
00000120: dd99 06bd 895a 08bd 859a 303e b819 abbc
00000130: 5a65 143c b7db 8d3d 03ed d13c 7b2b bd3d
00000140: 6a0f 533d 7bbc 353e 7dc7 c13c 9dd9 c23a
00000150: 8398 f4bc b7e9 13bd d30f f83d 6e06 18bc
00000160: 45bb f13d 3ef5 9b3c 01cc 2bbb 29ec e73c
00000170: 4ce4 603d 73bc 823d 2c8b 82bd 1a12 b23d
00000180: 926c bf3d d01c 983b ac97 fe3c 8179 01bb
00000190: e2c6 92bc 24b4 d43c 43e4 ea3a ad9c e33c
000001a0: 8ae4 b13d cc10 07bd ef80 b6bd 508b b1bd
000001b0: 0fc0 c13d 1366 a43c 9c0c 8d3d 06e8 5abd
000001c0: 4211 0fbc 6fd3 a03b ad6e c23d fb80 80bb
000001d0: f480 bfbc 8e5c 003e 65e9 8c3c df90 053d
-0.061756182 -0.04826131 0.120600104 -0.0053190743 0.01262356 0.034559924 -0.043586895 0.14672117
-0.06729072 0.117268085 0.06374236 -0.033768266 0.12567177 -0.008557027 -0.0035318544 0.03340024
0.036889262 0.077368826 0.030000307 -0.06222377 -0.05682254 0.0042399745 -0.01557465 0.08865569
0.0021896844 -0.067968614 0.06588629 -0.044553746 -0.014495671 -0.028278459 0.11201265 0.07608067
0.0065508694 0.05564503 0.19012049 -0.045766234 0.04694656 0.03903618 -0.062609255 -0.11838455
-0.07897263 -0.058464497 -0.054242313 0.0950843 0.042181954 0.065871164 -0.021739429 -0.12241459
-0.042975087 0.029137243 0.047238115 0.0046180594 0.0001462556 -0.029431768 -0.06447307 0.005246971
0.06475793 -0.019168196 -0.023789711 0.00028953198 0.0082641635 0.051300954 0.1294923 -0.03650503
0.059981022 0.08013975 0.08201281 0.23318374 -0.032231163 -0.13836868 0.17364578 0.008728886
-0.03286158 -0.033289466 0.17246445 -0.020886287 0.009057367 0.06926673 0.025625711 0.09236809
0.051528372 0.17747681 0.023654694 0.0014865879 -0.02985788 -0.03611156 0.12112393 -0.009278877
0.11803297 0.019037839 -0.0026214125 0.028310852 0.05490522 0.063836 -0.06374201 0.08694859
0.0934688 0.0046421066 0.031078182 -0.001975626 -0.0179171 0.025964804 0.001792081 0.02778467
0.086861685 -0.032975003 -0.08911311 -0.0866915 0.094604604 0.020068204 0.06887171 -0.05344393
-0.008732142 0.0049080173 0.09493766 -0.0039216257 -0.02337692 0.12535307 0.017201135 0.032608863

weight f4 [84, 120]
00000000: 9394 93bc 3e89 a2bc 85eb 923d b109 37bd
00000010: 9004 21be 7f8d b939 d79b 843c 0b19 e2bd
00000020: bcde 383e d21a d9bd facf fe3c e33a 263d
00000030: 0fc1 72be 0cf0 84bd c2ba e9bd 3748 773d
00000040: f4f7 51bd b206 e9bd 5512 483d af66 a5bd
00000050: 4b00 86bc 5fa7 993d 5f8d b7bd 6486 073d
00000060: 9d50 26bd 8b5c bd3d fb63 b63d 9a57 333d
00000070: d3de abbd 81c2 583d 90bc 533d 3205 43bd
00000080: d2d6 d6bd 8250 243d bafa 2dbe bcc5 f6bc
00000090: 8845 07bd eb28 b33d cb48 713c 425f 61bd
000000a0: 0fd6 b93c a04c 783d fb6a 74bd e8b7 7bbd
000000b0: 5416 993d 2243 093d af1b 4bbd 6378 543d
000000c0: 0e42 23bd 53a9 3a3d bb21 723d 01f6 f43d
000000d0: ec3d 023e b0f5 b03c aef0 81bb 6bda 9c3c
000000e0: 58bb dbbd fa66 853d 9510 723d 924d 403d
000000f0: cbd8 493d 130a 983c 5226 913d a13e b0bc
00000100: 4cc2 31be c0ab 1b3d f1a2 b03c 7f62 343d
00000110: 5e0d 0dbd 6993 613d 90ed 55bd 5a8a 8b3d
00000120: 721e 3d3e fed6 063d e8da 163b a177 ca3d
00000130: 79c0 a73d 5bba 85bc efe3 96bd 8fc0 36bc
00000140: b2ad ecbb e644 633e 66de 1fbc 8604 b93d
00000150: e926 01be 31fc c93d 2175 0e3d d15c 81bd
00000160: 7ca6 003d fbec eabc 2ce4 363e 652a 013e
00000170: 92e9 f63b 7b21 423e d9ce 18bd a2da 94bd
00000180: de6a 7d3d 0b12 4a3c aeb2 e9bb 69a9 25bd
00000190: bc07 873d 37f3 70bd 487b 603d d55d ca3c
000001a0: 5f48 873d e2a3 763c 83c8 c43d 5e5c 38be
000001b0: c69e d0bd d3fe 943d d00f 653d a4b4 c6bb
000001c0: 9a34 653b e8af 433c b838 d83d e53a 973c
000001d0: f537 4d3b f2a0 b73d 8b76 863d 017b dd3c
000001e0: 0100 92bd cb18 383d 8308 d0bc 2f29 6bbd
000001f0: 7bbd 993b 8f67 b13d 0373 d9bd 86c3 b5bd
00000200: 70e2 b2bb d1ce a23d a4a2 fc3d ba23 90bc
00000210: 2b1f 8abc 46af e33a 7762 e23c c4fe 94bd
00000220: 4c82 85bd 6b26 1b3b 3559 553d b2ab 353d
00000230: 9f50 efbc 6794 23bd be6e e5bc 7af6 243c
00000240: 3afb 113d 643b eabd 5b4c 993d 30a2 b1bd
00000250: 0037 0fbd ba2e ec3d 7024 9cbd 925d b13d
00000260: a841 8d3d 9123 dc3d 4068 26bd ec7e 3dbc
00000270: 4038 9e3d 4eaa ea3c 5b71 a33d 342a c7bc
00000280: dc50 423e 3981 9c3c b300 b83c d3ee 08bd
00000290: 9f96 803d 3952 843d 69ba 9fbb 5300 01be
000002a0: b0fd febc 1c0c ab3d 4a7b e3bd 0206 23bd
000002b0: db1b 053d 8b02 303e 0edc aabd a2b7 24bd
000002c0: 61f2 af3d 0aef 8d3d fc83 933d 3347 9f3d
000002d0: c7e2 833d 684c 08bb fb4f 0fbe 2a2d eb3c
000002e0: bc92 e2bd 351d 28bc 5494 f6bd aaec 223e
000002f0: 4663 00bd 13c3 42bd d0ef 01be 8611 b5bd
00000300: e888 85bd 55c5 0e3d cb9e 42bd 5fd3 58bd
00000310: 1f37 a63d 5673 1a3e 49de 26bc ed3d 58bd
00000320: 4f29 a13d a5e3 bcbc c31d c03d 2be6 80bd
00000330: 9f09 b03d 354c a0bd 922a ae3d 48ae 343e
00000340: 82fd d03c 7209 d73c 8f39 95bd 9a30 e4bd
00000350: 7a68 ed3c 2212 a63d 5fb8 2cbe 0fbf ba3c
00000360: 1e46 483d a94f 8cbd d755 f9bd 215b e1ba
00000370: 03a8 74bd 8a7e cb3d 7e5b a03c b469 813d
00000380: bcf4 993c 123c 1d3d 0b88 a33d 014e 5f3d
00000390: acdb 7fbd d106 cf3d 8c5e 98bd dc6c b73d
000003a0: 5bcf bf3d 4367 50ba a72e 99bc 9ebe 97bc
000003b0: 0bee 293d 3d82 b6bd dd33 c33c 4c00 b43d
000003c0: 2089 d2bc e9cf 8bbb 1bc0 e2bc 6643 5ebd
000003d0: a895 93bd 8d89 54bd 7793 b73d 08bc 6abd
000003e0: dcc7 5c3b 34b2 c3bd b470 3c3d f01d fcbc
000003f0: 46da 99bd df1c e1bd f75d b53d e168 35bd
-0.018015182 -0.019840833 0.07173828 -0.044686977 -0.15724397 0.00035391373 0.016187591 -0.11039933
0.18053716 -0.10600819 0.03110503 0.040583503 -0.23706459 -0.06491098 -0.11412574 0.060371604
-0.051261857 -0.1137823 0.048845608 -0.08076226 -0.016357562 0.07502627 -0.08962511 0.03308715
-0.040604223 0.09246167 0.089057885 0.043784715 -0.0839211 0.05291987 0.0516935 -0.047612377
-0.104901925 0.04011584 -0.16990176 -0.030123584 -0.033025295 0.08748039 0.014726828 -0.055022486
0.022685079 0.06061995 -0.059672337 -0.061454684 0.07474962 0.03351129 -0.049586948 0.051872622
-0.039857917 0.045571636 0.0591142 0.11960984 0.12718934 0.021601528 -0.003965459 0.019147119
-0.10729092 0.06513782 0.059097845 0.046948977 0.049279016 0.018559491 0.07087387 -0.021514239
-0.17359275 0.03800559 0.021562072 0.044039246 -0.034436576 0.055072222 -0.05222851 0.06813498
0.18468645 0.032919876 0.0023018662 0.09886099 0.08191008 -0.016324213 -0.07367694 -0.011154308
-0.0072228545 0.22194251 -0.009757614 0.09034066 -0.126125 0.09862555 0.03477967 -0.063165314
0.031408772 -0.028677454 0.17860478 0.12613828 0.007535168 0.18958084 -0.03730664 -0.072682634
0.061869495 0.012333403 -0.007131896 -0.040444765 0.06593272 -0.058825698 0.05480507 0.024702946
0.066056006 0.015053721 0.09608557 -0.18003985 -0.10186534 0.07275166 0.055923283 -0.0060640145
0.003497398 0.011943795 0.10557693 0.0184607 0.003131387 0.08966245 0.06565579 0.027036192
-0.07128907 0.04494552 -0.025394684 -0.057412323 0.0046917773 0.0866233 -0.1061764 -0.08875184
-0.0054591224 0.07949603 0.12335709 -0.01759516 -0.016860565 0.0017370961 0.027634842 -0.07275155
-0.06518993 0.0023674022 0.052087028 0.044353195 -0.029213248 -0.03993645 -0.028006908 0.01006853
0.03563998 -0.11437109 0.07485267 -0.08673513 -0.03496456 0.1153235 -0.076241374 0.08660425
0.068972886 0.10748971 -0.040626764 -0.011565905 0.077255726 0.02864566 0.07980605 -0.024312116
0.18976158 0.019104587 0.02246127 -0.033430886 0.06278729 0.06460995 -0.0048745167 -0.1259778
-0.031126827 0.08351919 -0.111075 -0.03980065 0.03249727 0.1718847 -0.08342753 -0.04021419
0.08591152 0.06930359 0.072029084 0.07777252 0.06439739 -0.0020797495 -0.13995354 0.02870806
-0.110631436 -0.01026087 -0.1204001 0.15910593 -0.031344675 -0.04754932 -0.12689137 -0.08841233
-0.065202534 0.03485616 -0.047514718 -0.052935954 0.08115982 0.1508306 -0.010184833 -0.052793432
0.07869207 -0.023057768 0.093806766 -0.06293901 0.08595585 -0.07827035 0.085042134 0.17644608
0.025511507 0.026249621 -0.07286369 -0.111420825 0.028980482 0.08108927 -0.16867207 0.022796182
0.048894994 -0.068511315 -0.12174576 -0.0017193296 -0.05973054 0.09936245 0.019574877 0.063189894
0.018793456 0.038387366 0.079849325 0.05451775 -0.062465355 0.10108722 -0.074399084 0.0895631
0.09365722 -0.00079499575 -0.018699003 -0.01852351 0.04148678 -0.0891156 0.023828441 0.08789119
-0.025700152 -0.004266728 -0.027679494 -0.054263495 -0.07206279 -0.05188899 0.089636736 -0.057308227
0.0033688461 -0.09555474 0.04600592 -0.030775994 -0.075123355 -0.10991835 0.08855813 -0.044289473

bias f4 [84]
00000000: 5b37 953c c1fa 4ebd f660 63bd 8948 8e3d
00000010: e592 0cbd 1887 9d3d d37b 33bd b629 883a
00000020: b73f c13c a046 c0bd e597 0b3d 78ec 83bd
00000030: 1921 983d 61e9 bc3d 6d27 d43d 391b 5c3d
00000040: f20f 25be 02bf 953d bca5 753e 6213 153d
00000050: f562 e73d e122 85bc bddf 583c 8cef 5b3d
00000060: daae 1e3c b481 bebd 14a5 0cbe 32af 3b3e
00000070: f33a a43d ea69 2f3e d3d0 63bd 9e83 363d
00000080: 7ae6 09be f2b3 183b c23c b83d 22e9 b23d
00000090: 707b 21bd d76a 1d3d 4779 213d d839 5a3d
000000a0: 4f1d a7bd cd4c 2f3e 8d1f ea3d f415 7d3d
000000b0: 6151 3dbd 2157 fa3d 2488 d03d f854 5dbd
000000c0: f6bf c83d adf4 5cbd a7a9 223e e7ff e73d
000000d0: aa96 37bd 45ca 0c3e 69a6 0bbc db97 79bd
000000e0: b6ff e63c a6d2 553e b635 163d 6ca5 bf3d
000000f0: 37a6 77bc 4933 283e 5f27 253b 04e3 62bd
00000100: 6b3f 2d3e 8e70 5cbd 9422 ce3c 9fe2 2a3e
00000110: 4b66 f33d 0c29 1b3d 5d55 c2bc 2474 37bd
00000120: a417 e5bd 998e c03d 3365 04bc 52c5 573c
00000130: 702b 093e e6d7 f8bc 8829 383e 6468 c63c
00000140: a3d5 073e ebcc 703e 3954 703c 7896 9e3d
0.018214872 -0.050532106 -0.05551239 0.06947429 -0.034319777 0.07691783 -0.04381926 0.0010388407
0.023589952 -0.09388471 0.034080405 -0.06441587 0.07428188 0.09224201 0.10359082 0.0537369
-0.16119364 0.073118225 0.23989004 0.036395438 0.112981714 -0.016251983 0.013236937 0.053695247
0.009685243 -0.09302083 -0.13734847 0.1832855 0.08019056 0.17130247 -0.055619072 0.044559114
-0.13466826 0.0023300615 0.08995964 0.08735873 -0.03942436 0.03843197 0.0394223 0.05327782
-0.08159887 0.17119141 0.11431799 0.061788514 -0.046220187 0.1222365 0.10182217 -0.05403611
0.09802239 -0.05394428 0.1588503 0.113281064 -0.04482142 0.13749035 -0.008523562 -0.060935836
0.028198104 0.20881137 0.036672316 0.093577236 -0.015115312 0.16425814 0.002520047 -0.05539228
0.16918723 -0.053818278 0.025162973 0.16688012 0.11884745 0.037880942 -0.023722345 -0.044788495
-0.1118615 0.09402198 -0.008080768 0.013169603 0.13395476 -0.030376386 0.17984593 0.0242197
0.1326509 0.2351567 0.014668518 0.077435434

weight f4 [10, 84]
00000000: cd6f b13d 90fc d1bd ad5b d8bd d6cc 0d3e
00000010: 2c18 2ebd b0f2 883e e509 43bc 4f0c 8dbd
00000020: e80e edbd 7b86 85bd 72bd 15be e904 683d
00000030: 57c0 96be fbd7 5c3e 6e46 59be f2de bdbd
00000040: 3586 0dbe 94a0 8bbc 2746 8c3e 7118 25be
00000050: dabd 24bd a78d 203d 8a68 e3bd ffcc 4b3e
00000060: 239e 75ba 5514 093e 0763 10bd c8fc 66be
00000070: 8fed 893d c4b8 1dbe 8715 d8bd 8ca7 bc3d
00000080: 1e72 d4bd 0614 1c3e 9965 5b3d e9ab b63d
00000090: f2b1 e1bd 9b84 603b de98 cc3e 9633 5c3e
000000a0: 4d26 8c3e f3f4 97ba 1e4d 1bbe cb6e 923d
000000b0: 8d61 363d b9aa 073d 4481 9abe 0490 713e
000000c0: 852f db3e c975 d23d cd41 bd3e 0bd4 36be
000000d0: 57a4 eebd 5278 b53e dee7 843e 82e3 cabd
000000e0: 6f1c b13e 28f2 763e 0a50 483e d1b9 e5bb
000000f0: 17eb 92be 58fd 453d 274c 1bbe 9e6b 673e
00000100: 7b8d 7c3d 7d5d ba3e b883 b83e 4dda 04be
00000110: ee8d 733e 5028 aebd 197e 223d 10e9 2bbe
00000120: ea24 b2bc c909 4b3c 24e7 093e 317c aa3d
00000130: 8756 c6be ea12 9e3d e528 1cbe d78d 313e
00000140: c660 0abd 7e61 ed3d 01a8 993e 19ee 95bd
00000150: 755d 593d 09b1 643e fb3e fb3d 281d 7abe
00000160: 0d59 90bd f067 20bd c291 dc3d 36fc 24be
00000170: e08b 1dbe 9f4f 183f 6ad8 b23e bcff c3bd
00000180: 33f0 9c3d a282 0fbb fed1 0ebe c109 e6bd
00000190: 9ed5 753d 4712 0c3e e75f 0dbe d83a 1c3e
000001a0: 4083 25be 4043 953d a9c9 f83d 0888 113e
000001b0: daf3 a0bd 3752 c5bd d43b eb3e a01a f23c
000001c0: b1ad 73be deea 0f3c 8397 823e 30c4 0bbe
000001d0: cd8b bd3c a4ee bc3d 16d4 ebbd 7e1e 923e
000001e0: 258a f5bd 8096 02be 90e3 52be d12f 493e
000001f0: dd8f 6ebd 5789 143e 45b0 00be 88de 8f3b
00000200: 2311 c5bd 6676 debe 456d 69be 59f3 ffbd
00000210: 78e6 ddbd bafa aa3d 7eb9 e7bd 186b 91be
00000220: b19e c2bd 451e 05be 7162 0cbe 4ae7 6d3d
00000230: 0894 ec3c df86 f6bd 8414 083f 8872 74be
00000240: 59f9 00bd 7d8a 57be 7fcc 003f b676 413d
00000250: 0c58 c5be 5b5b 683d 55ee 6b3d 0abe 5ebe
00000260: 454e 86be ed5d 903e 883a ae3d c633 863e
00000270: 426e 903e 7d5d 81bd 972c 10be 5411 9b3d
00000280: 1e43 dc3d 18f5 da3d 9ddc ecbd b901 aa3d
00000290: e6d0 30be 3cba c7bc 52bc 68be 55e9 17be
000002a0: 3a20 213e e238 1b3e a940 b8bd 7efb 543e
000002b0: 6b5e 1cbd 038a 9abb 2ac9 d33d 665c 21be
000002c0: 86f3 a3bd d8cd 4fbd e842 c5bd ca1b 1fbd
000002d0: 1089 ad3e 03ac 993d 809e 0ebd 5633 cdbe
000002e0: 88f5 2a3e e7ca 0ebe 8491 1d3e 4ad0 8e3c
000002f0: 0579 b8bb 43d2 583d b8d5 9c3e f24f ae3e
00000300: bd8a 713d 1f58 73bd 6981 42be 7d5c 97be
00000310: aa0b 21be d0d8 76be e7e3 39bc 7720 353d
00000320: aaa4 59bb 0677 a43c dda1 c83e 8c55 b4bd
00000330: e3f5 dd3d ab3a 3b3d ded3 b9be bf97 3abe
00000340: 4491 ddbd 9e9d 8bbe 0843 db3e e11f f53d
00000350: a474 a0bd f4e1 cebd cd88 5d3e 2be1 57be
00000360: 4ef3 68be 1869 663d a6fc 373e d7f2 d7bc
00000370: eb6f b9bc 4d12 dfbd 0f84 d8bd 1101 d63d
00000380: def1 e0bd 94e0 933e 5030 f8be 96cd 3c3e
00000390: e5cb 67be 584b 3bbd fdf3 e53d d72a 953e
000003a0: e079 b83e 0118 be3e 0d1c 913c 4141 7abe
000003b0: 132b 933e 5331 54bc c645 71bd 10a6 7b3c
000003c0: 601d 8ebd 3a00 9e3e 640e d33d 76bc 3a3d
000003d0: e08d 473e 7e40 8cbd f0fe 9dbe 4864 453e
000003e0: 26ee 043e 4bf8 893e 8efe 1cbe 75dd 93bd
000003f0: 7e1a 533d e97a c83d d48e fd3c 847e d23d
0.086639024 -0.102532506 -0.10564361 0.1384767 -0.04250352 0.26747656 -0.0119042145 -0.06887113
-0.11575109 -0.06519791 -0.14623049 0.056645308 -0.2944362 0.21566765 -0.21218273 -0.09271039
-0.13820727 -0.017044343 0.27397272 -0.16122605 -0.04022012 0.03919759 -0.111039236 0.19902419
-0.00093695725 0.13386662 -0.03525069 -0.22557366 0.06734764 -0.15402514 -0.10550981 0.092116445
-0.103733286 0.15242013 0.053563688 0.08919508 -0.110202685 0.0034258727 0.39960378 0.21504053
0.2737297 -0.0011593386 -0.15166137 0.07150038 0.044526625 0.0331218 -0.30176747 0.23590094
0.42809692 0.10276372 0.36964265 -0.17854325 -0.11652439 0.3544336 0.2595815 -0.09906675
0.34592006 0.24115813 0.19561782 -0.0070106764 -0.28694984 0.04833731 -0.15165769 0.22599646
0.061658364 0.3639945 0.36037993 -0.129739 0.2378461 -0.08503783 0.039671037 -0.16788125
-0.021746118 0.01239247 0.1346708 0.08324469 -0.3873789 0.07718451 -0.15249975 0.17339264
-0.033783697 0.11590861 0.3001099 -0.07320804 0.053067643 0.22333159 0.12267872 -0.24425185
-0.07048235 -0.039161623 0.107699886 -0.16111836 -0.1538539 0.5949649 0.34930736 -0.09570262
0.07663002 -0.0021897932 -0.13947293 -0.11232329 0.060018174 0.13678847 -0.13806115 0.15256822
-0.16163349 0.072882175 0.121478386 0.14212048 -0.07859011 -0.09634822 0.45944083 0.029553711
-0.23796727 0.008784024 0.2550622 -0.13649058 0.023137951 0.092252046 -0.115150616 0.2853889
-0.119892396 -0.12752724 -0.2059462 0.19647147 -0.058242667 0.14505516 -0.12567241 0.0043905415
-0.09622409 -0.43449706 -0.2279559 -0.12497587 -0.10834974 0.083486035 -0.11314677 -0.2840202
-0.09502924 -0.12999828 -0.13709427 0.058081903 0.02887918 -0.12037443 0.53156304 -0.23871815
-0.031487796 -0.21048923 0.50312036 0.047232352 -0.38543737 0.05672775 0.057600338 -0.21752182
-0.2623159 0.2819666 0.08507258 0.26211375 0.2820912 -0.063166596 -0.1407951 0.075716645
0.10754989 0.10691279 -0.11565516 0.0830111 -0.17267188 -0.024380796 -0.22728088 -0.14835103
0.1573495 0.15158418 -0.08996708 0.20799062 -0.03817598 -0.0047161593 0.103411034 -0.15757903
-0.08005433 -0.050733417 -0.09631902 -0.03884486 0.33893633 0.07503512 -0.034819126 -0.4007823
0.16695225 -0.13944589 0.15387541 0.017433304 -0.005629661 0.052934896 0.30631804 0.34045368
0.0589702 -0.05941021 -0.18994679 -0.2956275 -0.15727106 -0.24106145 -0.01134584 0.044220414
-0.003320972 0.020076286 0.39185992 -0.08805379 0.10837915 0.045710247 -0.36294454 -0.18221949
-0.10818723 -0.2726869 0.42824578 0.11968971 -0.078347474 -0.10101691 0.21634217 -0.21081989
-0.22749063 0.05625257 0.17967471 -0.026360912 -0.022636374 -0.108921625 -0.10572063 0.10449422
-0.109836325 0.28882277 -0.4847436 0.184378 -0.22636373 -0.04572615 0.11228178 0.29134247
0.36030483 0.3712769 0.017713571 -0.24438955 0.287438 -0.012951213 -0.05890443 0.015359417
-0.069391966 0.30859548 0.10305479 0.045589887 0.19487715 -0.068482384 -0.30858564 0.19276536
0.12981471 0.26947245 -0.1533148 -0.07219974 0.051538937 0.09789068 0.030951895 0.10278037

bias f4 [10]
00000000: 19b4 54bd 538d 99be eb8d 903e 402d 6f3e
00000010: 1ecb eabe 1faa 30bd 6a55 b83e ac5c ec3d
00000020: bbe7 903d 6b66 44be
-0.051929567 -0.29990634 0.28233275 0.23357105 -0.4585809 -0.04313099 0.36002666 0.11541113
0.07075449 -0.19179694
